…
I0322 23:33:46.201598 21658 net.cpp:275] The NetState phase (0) differed from the phase (1) specified by a rule in layer mnist
I0322 23:33:46.201704 21658 net.cpp:39] Initializing net from parameters: 
name: "LeNet"
layers {
  top: "data"
  top: "label"
  name: "mnist"
  type: DATA
  data_param {
    source: "/home/niko/datasets/DiabeticRetinopathyDetection/processed/run-contrast-1/diabetic_retinopathy_train_lmdb"
    batch_size: 250
    backend: LMDB
  }
  include {
    phase: TRAIN
  }
  transform_param {
    mirror: true
    crop_size: 227
    mean_file: "/home/niko/datasets/DiabeticRetinopathyDetection/processed/run-contrast-1/diabetic_retinopathy_mean.binaryproto"
  }
}
layers {
  bottom: "data"
  top: "conv1"
  name: "conv1"
  type: CONVOLUTION
  blobs_lr: 1
  blobs_lr: 2
  weight_decay: 1
  weight_decay: 0
  convolution_param {
    num_output: 24
    kernel_size: 11
    stride: 4
    weight_filler {
      type: "xavier"
    }
    bias_filler {
      type: "constant"
      value: 0
    }
  }
}
layers {
  bottom: "conv1"
  top: "conv1"
  name: "relu1"
  type: RELU
}
layers {
  bottom: "conv1"
  top: "norm1"
  name: "norm1"
  type: LRN
  lrn_param {
    local_size: 5
    alpha: 0.0001
    beta: 0.75
  }
}
layers {
  bottom: "norm1"
  top: "pool1"
  name: "pool1"
  type: POOLING
  pooling_param {
    pool: MAX
    kernel_size: 2
    stride: 2
  }
}
layers {
  bottom: "pool1"
  top: "conv2"
  name: "conv2"
  type: CONVOLUTION
  blobs_lr: 1
  blobs_lr: 2
  weight_decay: 1
  weight_decay: 0
  convolution_param {
    num_output: 96
    kernel_size: 9
    stride: 1
    weight_filler {
      type: "xavier"
    }
    bias_filler {
      type: "constant"
      value: 1
    }
  }
}
layers {
  bottom: "conv2"
  top: "conv2"
  name: "relu2"
  type: RELU
}
layers {
  bottom: "conv2"
  top: "norm2"
  name: "norm2"
  type: LRN
  lrn_param {
    local_size: 5
    alpha: 0.0001
    beta: 0.75
  }
}
layers {
  bottom: "norm2"
  top: "pool2"
  name: "pool2"
  type: POOLING
  pooling_param {
    pool: MAX
    kernel_size: 3
    stride: 2
  }
}
layers {
  bottom: "pool2"
  top: "conv3"
  name: "conv3"
  type: CONVOLUTION
  blobs_lr: 1
  blobs_lr: 2
  weight_decay: 1
  weight_decay: 0
  convolution_param {
    num_output: 256
    pad: 1
    kernel_size: 5
    weight_filler {
      type: "xavier"
    }
    bias_filler {
      type: "constant"
      value: 0
    }
  }
}
layers {
  bottom: "conv3"
  top: "conv3"
  name: "relu3"
  type: RELU
}
layers {
  bottom: "conv3"
  top: "conv4"
  name: "conv4"
  type: CONVOLUTION
  blobs_lr: 1
  blobs_lr: 2
  convolution_param {
    num_output: 384
    pad: 1
    kernel_size: 3
    group: 2
    weight_filler {
      type: "xavier"
    }
    bias_filler {
      type: "constant"
    }
  }
}
layers {
  bottom: "conv4"
  top: "conv4"
  name: "relu4"
  type: RELU
}
layers {
  bottom: "conv4"
  top: "pool4"
  name: "pool4"
  type: POOLING
  pooling_param {
    pool: MAX
    kernel_size: 3
    stride: 2
  }
}
layers {
  bottom: "pool4"
  top: "ip1"
  name: "ip1"
  type: INNER_PRODUCT
  blobs_lr: 1
  blobs_lr: 2
  weight_decay: 1
  weight_decay: 0
  inner_product_param {
    num_output: 512
    weight_filler {
      type: "gaussian"
      std: 0.005
    }
    bias_filler {
      type: "constant"
      value: 0.1
    }
  }
}
layers {
  bottom: "ip1"
  top: "ip1"
  name: "relu5"
  type: SIGMOID
}
layers {
  bottom: "ip1"
  top: "ip2"
  name: "ip2"
  type: INNER_PRODUCT
  blobs_lr: 1
  blobs_lr: 2
  inner_product_param {
    num_output: 512
    weight_filler {
      type: "gaussian"
      std: 0.005
    }
    bias_filler {
      type: "constant"
      value: 0.1
    }
  }
}
layers {
  bottom: "ip2"
  top: "ip2"
  name: "relu6"
  type: SIGMOID
}
layers {
  bottom: "ip2"
  top: "ip3"
  name: "ip3"
  type: INNER_PRODUCT
  blobs_lr: 1
  blobs_lr: 2
  weight_decay: 1
  weight_decay: 0
  inner_product_param {
    num_output: 5
    weight_filler {
      type: "gaussian"
      std: 0.01
    }
    bias_filler {
      type: "constant"
      value: 0
    }
  }
}
layers {
  bottom: "ip3"
  bottom: "label"
  top: "accuracy"
  name: "accuracy"
  type: ACCURACY
}
layers {
  bottom: "ip3"
  bottom: "label"
  top: "loss"
  name: "loss"
  type: SOFTMAX_LOSS
}
state {
  phase: TRAIN
}
I0322 23:33:46.201833 21658 net.cpp:67] Creating Layer mnist
I0322 23:33:46.201840 21658 net.cpp:356] mnist -> data
I0322 23:33:46.201856 21658 net.cpp:356] mnist -> label
I0322 23:33:46.201866 21658 net.cpp:96] Setting up mnist
I0322 23:33:46.201923 21658 data_layer.cpp:68] Opening lmdb /home/niko/datasets/DiabeticRetinopathyDetection/processed/run-contrast-1/diabetic_retinopathy_train_lmdb
I0322 23:33:46.286321 21658 data_layer.cpp:128] output data size: 250,3,227,227
I0322 23:33:46.286334 21658 base_data_layer.cpp:36] Loading mean file from/home/niko/datasets/DiabeticRetinopathyDetection/processed/run-contrast-1/diabetic_retinopathy_mean.binaryproto
I0322 23:33:46.393971 21658 net.cpp:103] Top shape: 250 3 227 227 (38646750)
I0322 23:33:46.393987 21658 net.cpp:103] Top shape: 250 1 1 1 (250)
I0322 23:33:46.394001 21658 net.cpp:67] Creating Layer label_mnist_1_split
I0322 23:33:46.394006 21658 net.cpp:394] label_mnist_1_split <- label
I0322 23:33:46.394040 21658 net.cpp:356] label_mnist_1_split -> label_mnist_1_split_0
I0322 23:33:46.394052 21658 net.cpp:356] label_mnist_1_split -> label_mnist_1_split_1
I0322 23:33:46.394059 21658 net.cpp:96] Setting up label_mnist_1_split
I0322 23:33:46.394068 21658 net.cpp:103] Top shape: 250 1 1 1 (250)
I0322 23:33:46.394071 21658 net.cpp:103] Top shape: 250 1 1 1 (250)
I0322 23:33:46.394093 21658 net.cpp:67] Creating Layer conv1
I0322 23:33:46.394095 21658 net.cpp:394] conv1 <- data
I0322 23:33:46.394100 21658 net.cpp:356] conv1 -> conv1
I0322 23:33:46.394105 21658 net.cpp:96] Setting up conv1
I0322 23:33:46.731256 21658 net.cpp:103] Top shape: 250 24 55 55 (18150000)
I0322 23:33:46.731282 21658 net.cpp:67] Creating Layer relu1
I0322 23:33:46.731287 21658 net.cpp:394] relu1 <- conv1
I0322 23:33:46.731290 21658 net.cpp:345] relu1 -> conv1 (in-place)
I0322 23:33:46.731295 21658 net.cpp:96] Setting up relu1
I0322 23:33:46.731312 21658 net.cpp:103] Top shape: 250 24 55 55 (18150000)
I0322 23:33:46.731317 21658 net.cpp:67] Creating Layer norm1
I0322 23:33:46.731318 21658 net.cpp:394] norm1 <- conv1
I0322 23:33:46.731322 21658 net.cpp:356] norm1 -> norm1
I0322 23:33:46.731326 21658 net.cpp:96] Setting up norm1
I0322 23:33:46.731622 21658 net.cpp:103] Top shape: 250 24 55 55 (18150000)
I0322 23:33:46.731643 21658 net.cpp:67] Creating Layer pool1
I0322 23:33:46.731647 21658 net.cpp:394] pool1 <- norm1
I0322 23:33:46.731650 21658 net.cpp:356] pool1 -> pool1
I0322 23:33:46.731653 21658 net.cpp:96] Setting up pool1
I0322 23:33:46.731676 21658 net.cpp:103] Top shape: 250 24 28 28 (4704000)
I0322 23:33:46.731685 21658 net.cpp:67] Creating Layer conv2
I0322 23:33:46.731691 21658 net.cpp:394] conv2 <- pool1
I0322 23:33:46.731695 21658 net.cpp:356] conv2 -> conv2
I0322 23:33:46.731699 21658 net.cpp:96] Setting up conv2
I0322 23:33:46.732755 21658 net.cpp:103] Top shape: 250 96 20 20 (9600000)
I0322 23:33:46.732766 21658 net.cpp:67] Creating Layer relu2
I0322 23:33:46.732769 21658 net.cpp:394] relu2 <- conv2
I0322 23:33:46.732771 21658 net.cpp:345] relu2 -> conv2 (in-place)
I0322 23:33:46.732774 21658 net.cpp:96] Setting up relu2
I0322 23:33:46.732777 21658 net.cpp:103] Top shape: 250 96 20 20 (9600000)
I0322 23:33:46.732782 21658 net.cpp:67] Creating Layer norm2
I0322 23:33:46.732808 21658 net.cpp:394] norm2 <- conv2
I0322 23:33:46.732811 21658 net.cpp:356] norm2 -> norm2
I0322 23:33:46.732816 21658 net.cpp:96] Setting up norm2
I0322 23:33:46.732820 21658 net.cpp:103] Top shape: 250 96 20 20 (9600000)
I0322 23:33:46.732833 21658 net.cpp:67] Creating Layer pool2
I0322 23:33:46.732836 21658 net.cpp:394] pool2 <- norm2
I0322 23:33:46.732837 21658 net.cpp:356] pool2 -> pool2
I0322 23:33:46.732841 21658 net.cpp:96] Setting up pool2
I0322 23:33:46.732844 21658 net.cpp:103] Top shape: 250 96 10 10 (2400000)
I0322 23:33:46.732858 21658 net.cpp:67] Creating Layer conv3
I0322 23:33:46.732861 21658 net.cpp:394] conv3 <- pool2
I0322 23:33:46.732864 21658 net.cpp:356] conv3 -> conv3
I0322 23:33:46.732877 21658 net.cpp:96] Setting up conv3
I0322 23:33:46.735918 21658 net.cpp:103] Top shape: 250 256 8 8 (4096000)
I0322 23:33:46.735929 21658 net.cpp:67] Creating Layer relu3
I0322 23:33:46.735930 21658 net.cpp:394] relu3 <- conv3
I0322 23:33:46.735934 21658 net.cpp:345] relu3 -> conv3 (in-place)
I0322 23:33:46.735936 21658 net.cpp:96] Setting up relu3
I0322 23:33:46.735939 21658 net.cpp:103] Top shape: 250 256 8 8 (4096000)
I0322 23:33:46.735944 21658 net.cpp:67] Creating Layer conv4
I0322 23:33:46.735946 21658 net.cpp:394] conv4 <- conv3
I0322 23:33:46.735949 21658 net.cpp:356] conv4 -> conv4
I0322 23:33:46.735954 21658 net.cpp:96] Setting up conv4
I0322 23:33:46.738174 21658 net.cpp:103] Top shape: 250 384 8 8 (6144000)
I0322 23:33:46.738183 21658 net.cpp:67] Creating Layer relu4
I0322 23:33:46.738184 21658 net.cpp:394] relu4 <- conv4
I0322 23:33:46.738188 21658 net.cpp:345] relu4 -> conv4 (in-place)
I0322 23:33:46.738189 21658 net.cpp:96] Setting up relu4
I0322 23:33:46.738193 21658 net.cpp:103] Top shape: 250 384 8 8 (6144000)
I0322 23:33:46.738195 21658 net.cpp:67] Creating Layer pool4
I0322 23:33:46.738198 21658 net.cpp:394] pool4 <- conv4
I0322 23:33:46.738199 21658 net.cpp:356] pool4 -> pool4
I0322 23:33:46.738203 21658 net.cpp:96] Setting up pool4
I0322 23:33:46.738207 21658 net.cpp:103] Top shape: 250 384 4 4 (1536000)
I0322 23:33:46.738221 21658 net.cpp:67] Creating Layer ip1
I0322 23:33:46.738222 21658 net.cpp:394] ip1 <- pool4
I0322 23:33:46.738226 21658 net.cpp:356] ip1 -> ip1
I0322 23:33:46.738229 21658 net.cpp:96] Setting up ip1
I0322 23:33:46.801059 21658 net.cpp:103] Top shape: 250 512 1 1 (128000)
I0322 23:33:46.801082 21658 net.cpp:67] Creating Layer relu5
I0322 23:33:46.801087 21658 net.cpp:394] relu5 <- ip1
I0322 23:33:46.801091 21658 net.cpp:345] relu5 -> ip1 (in-place)
I0322 23:33:46.801095 21658 net.cpp:96] Setting up relu5
I0322 23:33:46.801107 21658 net.cpp:103] Top shape: 250 512 1 1 (128000)
I0322 23:33:46.801112 21658 net.cpp:67] Creating Layer ip2
I0322 23:33:46.801125 21658 net.cpp:394] ip2 <- ip1
I0322 23:33:46.801127 21658 net.cpp:356] ip2 -> ip2
I0322 23:33:46.801131 21658 net.cpp:96] Setting up ip2
I0322 23:33:46.806330 21658 net.cpp:103] Top shape: 250 512 1 1 (128000)
I0322 23:33:46.806337 21658 net.cpp:67] Creating Layer relu6
I0322 23:33:46.806339 21658 net.cpp:394] relu6 <- ip2
I0322 23:33:46.806344 21658 net.cpp:345] relu6 -> ip2 (in-place)
I0322 23:33:46.806345 21658 net.cpp:96] Setting up relu6
I0322 23:33:46.806349 21658 net.cpp:103] Top shape: 250 512 1 1 (128000)
I0322 23:33:46.806352 21658 net.cpp:67] Creating Layer ip3
I0322 23:33:46.806354 21658 net.cpp:394] ip3 <- ip2
I0322 23:33:46.806357 21658 net.cpp:356] ip3 -> ip3
I0322 23:33:46.806360 21658 net.cpp:96] Setting up ip3
I0322 23:33:46.806457 21658 net.cpp:103] Top shape: 250 5 1 1 (1250)
I0322 23:33:46.806462 21658 net.cpp:67] Creating Layer ip3_ip3_0_split
I0322 23:33:46.806463 21658 net.cpp:394] ip3_ip3_0_split <- ip3
I0322 23:33:46.806465 21658 net.cpp:356] ip3_ip3_0_split -> ip3_ip3_0_split_0
I0322 23:33:46.806474 21658 net.cpp:356] ip3_ip3_0_split -> ip3_ip3_0_split_1
I0322 23:33:46.806478 21658 net.cpp:96] Setting up ip3_ip3_0_split
I0322 23:33:46.806481 21658 net.cpp:103] Top shape: 250 5 1 1 (1250)
I0322 23:33:46.806483 21658 net.cpp:103] Top shape: 250 5 1 1 (1250)
I0322 23:33:46.806486 21658 net.cpp:67] Creating Layer accuracy
I0322 23:33:46.806514 21658 net.cpp:394] accuracy <- ip3_ip3_0_split_0
I0322 23:33:46.806516 21658 net.cpp:394] accuracy <- label_mnist_1_split_0
I0322 23:33:46.806529 21658 net.cpp:356] accuracy -> accuracy
I0322 23:33:46.806532 21658 net.cpp:96] Setting up accuracy
I0322 23:33:46.806536 21658 net.cpp:103] Top shape: 1 1 1 1 (1)
I0322 23:33:46.806543 21658 net.cpp:67] Creating Layer loss
I0322 23:33:46.806546 21658 net.cpp:394] loss <- ip3_ip3_0_split_1
I0322 23:33:46.806560 21658 net.cpp:394] loss <- label_mnist_1_split_1
I0322 23:33:46.806565 21658 net.cpp:356] loss -> loss
I0322 23:33:46.806568 21658 net.cpp:96] Setting up loss
I0322 23:33:46.806587 21658 net.cpp:103] Top shape: 1 1 1 1 (1)
I0322 23:33:46.806591 21658 net.cpp:109]     with loss weight 1
I0322 23:33:46.806617 21658 net.cpp:170] loss needs backward computation.
I0322 23:33:46.806622 21658 net.cpp:172] accuracy does not need backward computation.
I0322 23:33:46.806625 21658 net.cpp:170] ip3_ip3_0_split needs backward computation.
I0322 23:33:46.806628 21658 net.cpp:170] ip3 needs backward computation.
I0322 23:33:46.806632 21658 net.cpp:170] relu6 needs backward computation.
…
I0322 23:33:46.807134 21658 net.cpp:275] The NetState phase (1) differed from the phase (0) specified by a rule in layer mnist
I0322 23:33:46.807234 21658 net.cpp:39] Initializing net from parameters: 
name: "LeNet"
layers {
  top: "data"
  top: "label"
  name: "mnist"
  type: DATA
  data_param {
    source: "/home/niko/datasets/DiabeticRetinopathyDetection/processed/run-contrast-1/diabetic_retinopathy_val_lmdb"
    batch_size: 50
    backend: LMDB
  }
  include {
    phase: TEST
  }
  transform_param {
    mirror: true
    crop_size: 227
    mean_file: "/home/niko/datasets/DiabeticRetinopathyDetection/processed/run-contrast-1/diabetic_retinopathy_mean.binaryproto"
  }
}
layers {
  bottom: "data"
  top: "conv1"
  name: "conv1"
  type: CONVOLUTION
  blobs_lr: 1
  blobs_lr: 2
  weight_decay: 1
  weight_decay: 0
  convolution_param {
    num_output: 24
    kernel_size: 11
    stride: 4
    weight_filler {
      type: "xavier"
    }
    bias_filler {
      type: "constant"
      value: 0
    }
  }
}
layers {
  bottom: "conv1"
  top: "conv1"
  name: "relu1"
  type: RELU
}
layers {
  bottom: "conv1"
  top: "norm1"
  name: "norm1"
  type: LRN
  lrn_param {
    local_size: 5
    alpha: 0.0001
    beta: 0.75
  }
}
layers {
  bottom: "norm1"
  top: "pool1"
  name: "pool1"
  type: POOLING
  pooling_param {
    pool: MAX
    kernel_size: 2
    stride: 2
  }
}
layers {
  bottom: "pool1"
  top: "conv2"
  name: "conv2"
  type: CONVOLUTION
  blobs_lr: 1
  blobs_lr: 2
  weight_decay: 1
  weight_decay: 0
  convolution_param {
    num_output: 96
    kernel_size: 9
    stride: 1
    weight_filler {
      type: "xavier"
    }
    bias_filler {
      type: "constant"
      value: 1
    }
  }
}
layers {
  bottom: "conv2"
  top: "conv2"
  name: "relu2"
  type: RELU
}
layers {
  bottom: "conv2"
  top: "norm2"
  name: "norm2"
  type: LRN
  lrn_param {
    local_size: 5
    alpha: 0.0001
    beta: 0.75
  }
}
layers {
  bottom: "norm2"
  top: "pool2"
  name: "pool2"
  type: POOLING
  pooling_param {
    pool: MAX
    kernel_size: 3
    stride: 2
  }
}
layers {
  bottom: "pool2"
  top: "conv3"
  name: "conv3"
  type: CONVOLUTION
  blobs_lr: 1
  blobs_lr: 2
  weight_decay: 1
  weight_decay: 0
  convolution_param {
    num_output: 256
    pad: 1
    kernel_size: 5
    weight_filler {
      type: "xavier"
    }
    bias_filler {
      type: "constant"
      value: 0
    }
  }
}
layers {
  bottom: "conv3"
  top: "conv3"
  name: "relu3"
  type: RELU
}
layers {
  bottom: "conv3"
  top: "conv4"
  name: "conv4"
  type: CONVOLUTION
  blobs_lr: 1
  blobs_lr: 2
  convolution_param {
    num_output: 384
    pad: 1
    kernel_size: 3
    group: 2
    weight_filler {
      type: "xavier"
    }
    bias_filler {
      type: "constant"
    }
  }
}
layers {
  bottom: "conv4"
  top: "conv4"
  name: "relu4"
  type: RELU
}
layers {
  bottom: "conv4"
  top: "pool4"
  name: "pool4"
  type: POOLING
  pooling_param {
    pool: MAX
    kernel_size: 3
    stride: 2
  }
}
layers {
  bottom: "pool4"
  top: "ip1"
  name: "ip1"
  type: INNER_PRODUCT
  blobs_lr: 1
  blobs_lr: 2
  weight_decay: 1
  weight_decay: 0
  inner_product_param {
    num_output: 512
    weight_filler {
      type: "gaussian"
      std: 0.005
    }
    bias_filler {
      type: "constant"
      value: 0.1
    }
  }
}
layers {
  bottom: "ip1"
  top: "ip1"
  name: "relu5"
  type: SIGMOID
}
layers {
  bottom: "ip1"
  top: "ip2"
  name: "ip2"
  type: INNER_PRODUCT
  blobs_lr: 1
  blobs_lr: 2
  inner_product_param {
    num_output: 512
    weight_filler {
      type: "gaussian"
      std: 0.005
    }
    bias_filler {
      type: "constant"
      value: 0.1
    }
  }
}
layers {
  bottom: "ip2"
  top: "ip2"
  name: "relu6"
  type: SIGMOID
}
layers {
  bottom: "ip2"
  top: "ip3"
  name: "ip3"
  type: INNER_PRODUCT
  blobs_lr: 1
  blobs_lr: 2
  weight_decay: 1
  weight_decay: 0
  inner_product_param {
    num_output: 5
    weight_filler {
      type: "gaussian"
      std: 0.01
    }
    bias_filler {
      type: "constant"
      value: 0
    }
  }
}
layers {
  bottom: "ip3"
  bottom: "label"
  top: "accuracy"
  name: "accuracy"
  type: ACCURACY
}
layers {
  bottom: "ip3"
  bottom: "label"
  top: "loss"
  name: "loss"
  type: SOFTMAX_LOSS
}
state {
  phase: TEST
}
I0322 23:33:46.807338 21658 net.cpp:67] Creating Layer mnist
I0322 23:33:46.807344 21658 net.cpp:356] mnist -> data
I0322 23:33:46.807353 21658 net.cpp:356] mnist -> label
I0322 23:33:46.807358 21658 net.cpp:96] Setting up mnist
I0322 23:33:46.824405 21658 data_layer.cpp:68] Opening lmdb /home/niko/datasets/DiabeticRetinopathyDetection/processed/run-contrast-1/diabetic_retinopathy_val_lmdb
I0322 23:33:46.849993 21658 data_layer.cpp:128] output data size: 50,3,227,227
I0322 23:33:46.850015 21658 base_data_layer.cpp:36] Loading mean file from/home/niko/datasets/DiabeticRetinopathyDetection/processed/run-contrast-1/diabetic_retinopathy_mean.binaryproto
I0322 23:33:46.857478 21658 net.cpp:103] Top shape: 50 3 227 227 (7729350)
I0322 23:33:46.857496 21658 net.cpp:103] Top shape: 50 1 1 1 (50)
I0322 23:33:46.857553 21658 net.cpp:67] Creating Layer label_mnist_1_split
I0322 23:33:46.857564 21658 net.cpp:394] label_mnist_1_split <- label
I0322 23:33:46.857573 21658 net.cpp:356] label_mnist_1_split -> label_mnist_1_split_0
I0322 23:33:46.857583 21658 net.cpp:356] label_mnist_1_split -> label_mnist_1_split_1
I0322 23:33:46.857590 21658 net.cpp:96] Setting up label_mnist_1_split
I0322 23:33:46.857604 21658 net.cpp:103] Top shape: 50 1 1 1 (50)
I0322 23:33:46.857607 21658 net.cpp:103] Top shape: 50 1 1 1 (50)
I0322 23:33:46.857615 21658 net.cpp:67] Creating Layer conv1
I0322 23:33:46.857619 21658 net.cpp:394] conv1 <- data
I0322 23:33:46.857625 21658 net.cpp:356] conv1 -> conv1
I0322 23:33:46.857631 21658 net.cpp:96] Setting up conv1
I0322 23:33:46.857748 21658 net.cpp:103] Top shape: 50 24 55 55 (3630000)
I0322 23:33:46.857761 21658 net.cpp:67] Creating Layer relu1
I0322 23:33:46.857764 21658 net.cpp:394] relu1 <- conv1
I0322 23:33:46.857769 21658 net.cpp:345] relu1 -> conv1 (in-place)
I0322 23:33:46.857775 21658 net.cpp:96] Setting up relu1
I0322 23:33:46.857780 21658 net.cpp:103] Top shape: 50 24 55 55 (3630000)
I0322 23:33:46.857787 21658 net.cpp:67] Creating Layer norm1
I0322 23:33:46.857794 21658 net.cpp:394] norm1 <- conv1
I0322 23:33:46.857799 21658 net.cpp:356] norm1 -> norm1
I0322 23:33:46.857803 21658 net.cpp:96] Setting up norm1
I0322 23:33:46.857808 21658 net.cpp:103] Top shape: 50 24 55 55 (3630000)
I0322 23:33:46.857813 21658 net.cpp:67] Creating Layer pool1
I0322 23:33:46.857816 21658 net.cpp:394] pool1 <- norm1
I0322 23:33:46.857821 21658 net.cpp:356] pool1 -> pool1
I0322 23:33:46.857826 21658 net.cpp:96] Setting up pool1
I0322 23:33:46.857833 21658 net.cpp:103] Top shape: 50 24 28 28 (940800)
I0322 23:33:46.857841 21658 net.cpp:67] Creating Layer conv2
I0322 23:33:46.857846 21658 net.cpp:394] conv2 <- pool1
I0322 23:33:46.857851 21658 net.cpp:356] conv2 -> conv2
I0322 23:33:46.857857 21658 net.cpp:96] Setting up conv2
I0322 23:33:46.858897 21658 net.cpp:103] Top shape: 50 96 20 20 (1920000)
I0322 23:33:46.858909 21658 net.cpp:67] Creating Layer relu2
I0322 23:33:46.858913 21658 net.cpp:394] relu2 <- conv2
I0322 23:33:46.858918 21658 net.cpp:345] relu2 -> conv2 (in-place)
I0322 23:33:46.858924 21658 net.cpp:96] Setting up relu2
I0322 23:33:46.858929 21658 net.cpp:103] Top shape: 50 96 20 20 (1920000)
I0322 23:33:46.858935 21658 net.cpp:67] Creating Layer norm2
I0322 23:33:46.858938 21658 net.cpp:394] norm2 <- conv2
I0322 23:33:46.858942 21658 net.cpp:356] norm2 -> norm2
I0322 23:33:46.858948 21658 net.cpp:96] Setting up norm2
I0322 23:33:46.858953 21658 net.cpp:103] Top shape: 50 96 20 20 (1920000)
I0322 23:33:46.858958 21658 net.cpp:67] Creating Layer pool2
I0322 23:33:46.858961 21658 net.cpp:394] pool2 <- norm2
I0322 23:33:46.858966 21658 net.cpp:356] pool2 -> pool2
I0322 23:33:46.858971 21658 net.cpp:96] Setting up pool2
I0322 23:33:46.858978 21658 net.cpp:103] Top shape: 50 96 10 10 (480000)
I0322 23:33:46.858986 21658 net.cpp:67] Creating Layer conv3
I0322 23:33:46.858989 21658 net.cpp:394] conv3 <- pool2
I0322 23:33:46.858995 21658 net.cpp:356] conv3 -> conv3
I0322 23:33:46.859001 21658 net.cpp:96] Setting up conv3
I0322 23:33:46.862527 21658 net.cpp:103] Top shape: 50 256 8 8 (819200)
I0322 23:33:46.862560 21658 net.cpp:67] Creating Layer relu3
I0322 23:33:46.862563 21658 net.cpp:394] relu3 <- conv3
I0322 23:33:46.862567 21658 net.cpp:345] relu3 -> conv3 (in-place)
I0322 23:33:46.862571 21658 net.cpp:96] Setting up relu3
I0322 23:33:46.862576 21658 net.cpp:103] Top shape: 50 256 8 8 (819200)
I0322 23:33:46.862591 21658 net.cpp:67] Creating Layer conv4
I0322 23:33:46.862594 21658 net.cpp:394] conv4 <- conv3
I0322 23:33:46.862599 21658 net.cpp:356] conv4 -> conv4
I0322 23:33:46.862614 21658 net.cpp:96] Setting up conv4
I0322 23:33:46.864918 21658 net.cpp:103] Top shape: 50 384 8 8 (1228800)
I0322 23:33:46.864929 21658 net.cpp:67] Creating Layer relu4
I0322 23:33:46.864931 21658 net.cpp:394] relu4 <- conv4
I0322 23:33:46.864934 21658 net.cpp:345] relu4 -> conv4 (in-place)
I0322 23:33:46.864938 21658 net.cpp:96] Setting up relu4
I0322 23:33:46.864954 21658 net.cpp:103] Top shape: 50 384 8 8 (1228800)
I0322 23:33:46.864960 21658 net.cpp:67] Creating Layer pool4
I0322 23:33:46.864972 21658 net.cpp:394] pool4 <- conv4
I0322 23:33:46.864979 21658 net.cpp:356] pool4 -> pool4
I0322 23:33:46.864992 21658 net.cpp:96] Setting up pool4
I0322 23:33:46.865010 21658 net.cpp:103] Top shape: 50 384 4 4 (307200)
I0322 23:33:46.865016 21658 net.cpp:67] Creating Layer ip1
I0322 23:33:46.865020 21658 net.cpp:394] ip1 <- pool4
I0322 23:33:46.865036 21658 net.cpp:356] ip1 -> ip1
I0322 23:33:46.865056 21658 net.cpp:96] Setting up ip1
I0322 23:33:46.936005 21658 net.cpp:103] Top shape: 50 512 1 1 (25600)
I0322 23:33:46.936033 21658 net.cpp:67] Creating Layer relu5
I0322 23:33:46.936036 21658 net.cpp:394] relu5 <- ip1
I0322 23:33:46.936040 21658 net.cpp:345] relu5 -> ip1 (in-place)
I0322 23:33:46.936045 21658 net.cpp:96] Setting up relu5
I0322 23:33:46.936054 21658 net.cpp:103] Top shape: 50 512 1 1 (25600)
I0322 23:33:46.936072 21658 net.cpp:67] Creating Layer ip2
I0322 23:33:46.936074 21658 net.cpp:394] ip2 <- ip1
I0322 23:33:46.936079 21658 net.cpp:356] ip2 -> ip2
I0322 23:33:46.936094 21658 net.cpp:96] Setting up ip2
I0322 23:33:46.941344 21658 net.cpp:103] Top shape: 50 512 1 1 (25600)
I0322 23:33:46.941352 21658 net.cpp:67] Creating Layer relu6
I0322 23:33:46.941354 21658 net.cpp:394] relu6 <- ip2
I0322 23:33:46.941375 21658 net.cpp:345] relu6 -> ip2 (in-place)
I0322 23:33:46.941377 21658 net.cpp:96] Setting up relu6
I0322 23:33:46.941381 21658 net.cpp:103] Top shape: 50 512 1 1 (25600)
I0322 23:33:46.941385 21658 net.cpp:67] Creating Layer ip3
I0322 23:33:46.941386 21658 net.cpp:394] ip3 <- ip2
I0322 23:33:46.941390 21658 net.cpp:356] ip3 -> ip3
I0322 23:33:46.941396 21658 net.cpp:96] Setting up ip3
I0322 23:33:46.941490 21658 net.cpp:103] Top shape: 50 5 1 1 (250)
I0322 23:33:46.941507 21658 net.cpp:67] Creating Layer ip3_ip3_0_split
I0322 23:33:46.941509 21658 net.cpp:394] ip3_ip3_0_split <- ip3
I0322 23:33:46.941512 21658 net.cpp:356] ip3_ip3_0_split -> ip3_ip3_0_split_0
I0322 23:33:46.941517 21658 net.cpp:356] ip3_ip3_0_split -> ip3_ip3_0_split_1
I0322 23:33:46.941520 21658 net.cpp:96] Setting up ip3_ip3_0_split
I0322 23:33:46.941524 21658 net.cpp:103] Top shape: 50 5 1 1 (250)
I0322 23:33:46.941537 21658 net.cpp:103] Top shape: 50 5 1 1 (250)
I0322 23:33:46.941545 21658 net.cpp:67] Creating Layer accuracy
I0322 23:33:46.941557 21658 net.cpp:394] accuracy <- ip3_ip3_0_split_0
I0322 23:33:46.941561 21658 net.cpp:394] accuracy <- label_mnist_1_split_0
I0322 23:33:46.941567 21658 net.cpp:356] accuracy -> accuracy
I0322 23:33:46.941582 21658 net.cpp:96] Setting up accuracy
I0322 23:33:46.941586 21658 net.cpp:103] Top shape: 1 1 1 1 (1)
I0322 23:33:46.941602 21658 net.cpp:67] Creating Layer loss
I0322 23:33:46.941606 21658 net.cpp:394] loss <- ip3_ip3_0_split_1
I0322 23:33:46.941624 21658 net.cpp:394] loss <- label_mnist_1_split_1
I0322 23:33:46.941628 21658 net.cpp:356] loss -> loss
I0322 23:33:46.941642 21658 net.cpp:96] Setting up loss
I0322 23:33:46.941648 21658 net.cpp:103] Top shape: 1 1 1 1 (1)
I0322 23:33:46.941653 21658 net.cpp:109]     with loss weight 1
I0322 23:33:46.941673 21658 net.cpp:170] loss needs backward computation.
I0322 23:33:46.941684 21658 net.cpp:172] accuracy does not need backward computation.
I0322 23:33:46.941689 21658 net.cpp:170] ip3_ip3_0_split needs backward computation.
I0322 23:33:46.941691 21658 net.cpp:170] ip3 needs backward computation.
I0322 23:33:46.941704 21658 net.cpp:170] relu6 needs backward computation.
…
