…
I0323 15:21:18.210630  3601 net.cpp:275] The NetState phase (0) differed from the phase (1) specified by a rule in layer mnist
I0323 15:21:18.210736  3601 net.cpp:39] Initializing net from parameters: 
name: "LeNet"
layers {
  top: "data"
  top: "label"
  name: "mnist"
  type: DATA
  data_param {
    source: "/home/niko/datasets/DiabeticRetinopathyDetection/processed/run-hue-1/diabetic_retinopathy_train_lmdb"
    batch_size: 250
    backend: LMDB
  }
  include {
    phase: TRAIN
  }
  transform_param {
    mirror: true
    crop_size: 227
    mean_file: "/home/niko/datasets/DiabeticRetinopathyDetection/processed/run-hue-1/diabetic_retinopathy_mean.binaryproto"
  }
}
layers {
  bottom: "data"
  top: "conv1"
  name: "conv1"
  type: CONVOLUTION
  blobs_lr: 1
  blobs_lr: 2
  weight_decay: 1
  weight_decay: 0
  convolution_param {
    num_output: 24
    kernel_size: 11
    stride: 4
    weight_filler {
      type: "xavier"
    }
    bias_filler {
      type: "constant"
      value: 0
    }
  }
}
layers {
  bottom: "conv1"
  top: "conv1"
  name: "relu1"
  type: RELU
}
layers {
  bottom: "conv1"
  top: "norm1"
  name: "norm1"
  type: LRN
  lrn_param {
    local_size: 5
    alpha: 0.0001
    beta: 0.75
  }
}
layers {
  bottom: "norm1"
  top: "pool1"
  name: "pool1"
  type: POOLING
  pooling_param {
    pool: MAX
    kernel_size: 2
    stride: 2
  }
}
layers {
  bottom: "pool1"
  top: "conv2"
  name: "conv2"
  type: CONVOLUTION
  blobs_lr: 1
  blobs_lr: 2
  weight_decay: 1
  weight_decay: 0
  convolution_param {
    num_output: 96
    kernel_size: 9
    stride: 1
    weight_filler {
      type: "xavier"
    }
    bias_filler {
      type: "constant"
      value: 1
    }
  }
}
layers {
  bottom: "conv2"
  top: "conv2"
  name: "relu2"
  type: RELU
}
layers {
  bottom: "conv2"
  top: "norm2"
  name: "norm2"
  type: LRN
  lrn_param {
    local_size: 5
    alpha: 0.0001
    beta: 0.75
  }
}
layers {
  bottom: "norm2"
  top: "pool2"
  name: "pool2"
  type: POOLING
  pooling_param {
    pool: MAX
    kernel_size: 3
    stride: 2
  }
}
layers {
  bottom: "pool2"
  top: "conv3"
  name: "conv3"
  type: CONVOLUTION
  blobs_lr: 1
  blobs_lr: 2
  weight_decay: 1
  weight_decay: 0
  convolution_param {
    num_output: 256
    pad: 1
    kernel_size: 5
    weight_filler {
      type: "xavier"
    }
    bias_filler {
      type: "constant"
      value: 0
    }
  }
}
layers {
  bottom: "conv3"
  top: "conv3"
  name: "relu3"
  type: RELU
}
layers {
  bottom: "conv3"
  top: "conv4"
  name: "conv4"
  type: CONVOLUTION
  blobs_lr: 1
  blobs_lr: 2
  convolution_param {
    num_output: 384
    pad: 1
    kernel_size: 3
    group: 2
    weight_filler {
      type: "xavier"
    }
    bias_filler {
      type: "constant"
    }
  }
}
layers {
  bottom: "conv4"
  top: "conv4"
  name: "relu4"
  type: RELU
}
layers {
  bottom: "conv4"
  top: "pool4"
  name: "pool4"
  type: POOLING
  pooling_param {
    pool: MAX
    kernel_size: 3
    stride: 2
  }
}
layers {
  bottom: "pool4"
  top: "ip1"
  name: "ip1"
  type: INNER_PRODUCT
  blobs_lr: 1
  blobs_lr: 2
  weight_decay: 1
  weight_decay: 0
  inner_product_param {
    num_output: 512
    weight_filler {
      type: "gaussian"
      std: 0.005
    }
    bias_filler {
      type: "constant"
      value: 0.1
    }
  }
}
layers {
  bottom: "ip1"
  top: "ip1"
  name: "relu5"
  type: SIGMOID
}
layers {
  bottom: "ip1"
  top: "ip2"
  name: "ip2"
  type: INNER_PRODUCT
  blobs_lr: 1
  blobs_lr: 2
  inner_product_param {
    num_output: 512
    weight_filler {
      type: "gaussian"
      std: 0.005
    }
    bias_filler {
      type: "constant"
      value: 0.1
    }
  }
}
layers {
  bottom: "ip2"
  top: "ip2"
  name: "relu6"
  type: SIGMOID
}
layers {
  bottom: "ip2"
  top: "ip3"
  name: "ip3"
  type: INNER_PRODUCT
  blobs_lr: 1
  blobs_lr: 2
  weight_decay: 1
  weight_decay: 0
  inner_product_param {
    num_output: 5
    weight_filler {
      type: "gaussian"
      std: 0.01
    }
    bias_filler {
      type: "constant"
      value: 0
    }
  }
}
layers {
  bottom: "ip3"
  bottom: "label"
  top: "accuracy"
  name: "accuracy"
  type: ACCURACY
}
layers {
  bottom: "ip3"
  bottom: "label"
  top: "loss"
  name: "loss"
  type: SOFTMAX_LOSS
}
state {
  phase: TRAIN
}
I0323 15:21:18.210875  3601 net.cpp:67] Creating Layer mnist
I0323 15:21:18.210891  3601 net.cpp:356] mnist -> data
I0323 15:21:18.210906  3601 net.cpp:356] mnist -> label
I0323 15:21:18.210917  3601 net.cpp:96] Setting up mnist
I0323 15:21:18.393517  3601 data_layer.cpp:68] Opening lmdb /home/niko/datasets/DiabeticRetinopathyDetection/processed/run-hue-1/diabetic_retinopathy_train_lmdb
I0323 15:21:18.636262  3601 data_layer.cpp:128] output data size: 250,3,227,227
I0323 15:21:18.636289  3601 base_data_layer.cpp:36] Loading mean file from/home/niko/datasets/DiabeticRetinopathyDetection/processed/run-hue-1/diabetic_retinopathy_mean.binaryproto
I0323 15:21:18.752266  3601 net.cpp:103] Top shape: 250 3 227 227 (38646750)
I0323 15:21:18.752288  3601 net.cpp:103] Top shape: 250 1 1 1 (250)
I0323 15:21:18.752300  3601 net.cpp:67] Creating Layer label_mnist_1_split
I0323 15:21:18.752303  3601 net.cpp:394] label_mnist_1_split <- label
I0323 15:21:18.752320  3601 net.cpp:356] label_mnist_1_split -> label_mnist_1_split_0
I0323 15:21:18.752331  3601 net.cpp:356] label_mnist_1_split -> label_mnist_1_split_1
I0323 15:21:18.752338  3601 net.cpp:96] Setting up label_mnist_1_split
I0323 15:21:18.752346  3601 net.cpp:103] Top shape: 250 1 1 1 (250)
I0323 15:21:18.752349  3601 net.cpp:103] Top shape: 250 1 1 1 (250)
I0323 15:21:18.752358  3601 net.cpp:67] Creating Layer conv1
I0323 15:21:18.752362  3601 net.cpp:394] conv1 <- data
I0323 15:21:18.752367  3601 net.cpp:356] conv1 -> conv1
I0323 15:21:18.752375  3601 net.cpp:96] Setting up conv1
I0323 15:21:19.094676  3601 net.cpp:103] Top shape: 250 24 55 55 (18150000)
I0323 15:21:19.094713  3601 net.cpp:67] Creating Layer relu1
I0323 15:21:19.094719  3601 net.cpp:394] relu1 <- conv1
I0323 15:21:19.094723  3601 net.cpp:345] relu1 -> conv1 (in-place)
I0323 15:21:19.094738  3601 net.cpp:96] Setting up relu1
I0323 15:21:19.094748  3601 net.cpp:103] Top shape: 250 24 55 55 (18150000)
I0323 15:21:19.094764  3601 net.cpp:67] Creating Layer norm1
I0323 15:21:19.094769  3601 net.cpp:394] norm1 <- conv1
I0323 15:21:19.094782  3601 net.cpp:356] norm1 -> norm1
I0323 15:21:19.094787  3601 net.cpp:96] Setting up norm1
I0323 15:21:19.094790  3601 net.cpp:103] Top shape: 250 24 55 55 (18150000)
I0323 15:21:19.094794  3601 net.cpp:67] Creating Layer pool1
I0323 15:21:19.094796  3601 net.cpp:394] pool1 <- norm1
I0323 15:21:19.094801  3601 net.cpp:356] pool1 -> pool1
I0323 15:21:19.094806  3601 net.cpp:96] Setting up pool1
I0323 15:21:19.094822  3601 net.cpp:103] Top shape: 250 24 28 28 (4704000)
I0323 15:21:19.094831  3601 net.cpp:67] Creating Layer conv2
I0323 15:21:19.094836  3601 net.cpp:394] conv2 <- pool1
I0323 15:21:19.094842  3601 net.cpp:356] conv2 -> conv2
I0323 15:21:19.094847  3601 net.cpp:96] Setting up conv2
I0323 15:21:19.096010  3601 net.cpp:103] Top shape: 250 96 20 20 (9600000)
I0323 15:21:19.096032  3601 net.cpp:67] Creating Layer relu2
I0323 15:21:19.096035  3601 net.cpp:394] relu2 <- conv2
I0323 15:21:19.096037  3601 net.cpp:345] relu2 -> conv2 (in-place)
I0323 15:21:19.096041  3601 net.cpp:96] Setting up relu2
I0323 15:21:19.096046  3601 net.cpp:103] Top shape: 250 96 20 20 (9600000)
I0323 15:21:19.096050  3601 net.cpp:67] Creating Layer norm2
I0323 15:21:19.096052  3601 net.cpp:394] norm2 <- conv2
I0323 15:21:19.096079  3601 net.cpp:356] norm2 -> norm2
I0323 15:21:19.096083  3601 net.cpp:96] Setting up norm2
I0323 15:21:19.096086  3601 net.cpp:103] Top shape: 250 96 20 20 (9600000)
I0323 15:21:19.096101  3601 net.cpp:67] Creating Layer pool2
I0323 15:21:19.096102  3601 net.cpp:394] pool2 <- norm2
I0323 15:21:19.096106  3601 net.cpp:356] pool2 -> pool2
I0323 15:21:19.096108  3601 net.cpp:96] Setting up pool2
I0323 15:21:19.096112  3601 net.cpp:103] Top shape: 250 96 10 10 (2400000)
I0323 15:21:19.096117  3601 net.cpp:67] Creating Layer conv3
I0323 15:21:19.096119  3601 net.cpp:394] conv3 <- pool2
I0323 15:21:19.096122  3601 net.cpp:356] conv3 -> conv3
I0323 15:21:19.096127  3601 net.cpp:96] Setting up conv3
I0323 15:21:19.099362  3601 net.cpp:103] Top shape: 250 256 8 8 (4096000)
I0323 15:21:19.099382  3601 net.cpp:67] Creating Layer relu3
I0323 15:21:19.099385  3601 net.cpp:394] relu3 <- conv3
I0323 15:21:19.099387  3601 net.cpp:345] relu3 -> conv3 (in-place)
I0323 15:21:19.099390  3601 net.cpp:96] Setting up relu3
I0323 15:21:19.099393  3601 net.cpp:103] Top shape: 250 256 8 8 (4096000)
I0323 15:21:19.099400  3601 net.cpp:67] Creating Layer conv4
I0323 15:21:19.099401  3601 net.cpp:394] conv4 <- conv3
I0323 15:21:19.099403  3601 net.cpp:356] conv4 -> conv4
I0323 15:21:19.099406  3601 net.cpp:96] Setting up conv4
I0323 15:21:19.101807  3601 net.cpp:103] Top shape: 250 384 8 8 (6144000)
I0323 15:21:19.101830  3601 net.cpp:67] Creating Layer relu4
I0323 15:21:19.101835  3601 net.cpp:394] relu4 <- conv4
I0323 15:21:19.101840  3601 net.cpp:345] relu4 -> conv4 (in-place)
I0323 15:21:19.101845  3601 net.cpp:96] Setting up relu4
I0323 15:21:19.101850  3601 net.cpp:103] Top shape: 250 384 8 8 (6144000)
I0323 15:21:19.101858  3601 net.cpp:67] Creating Layer pool4
I0323 15:21:19.101861  3601 net.cpp:394] pool4 <- conv4
I0323 15:21:19.101866  3601 net.cpp:356] pool4 -> pool4
I0323 15:21:19.101871  3601 net.cpp:96] Setting up pool4
I0323 15:21:19.101876  3601 net.cpp:103] Top shape: 250 384 4 4 (1536000)
I0323 15:21:19.101881  3601 net.cpp:67] Creating Layer ip1
I0323 15:21:19.101882  3601 net.cpp:394] ip1 <- pool4
I0323 15:21:19.101886  3601 net.cpp:356] ip1 -> ip1
I0323 15:21:19.101889  3601 net.cpp:96] Setting up ip1
I0323 15:21:19.165468  3601 net.cpp:103] Top shape: 250 512 1 1 (128000)
I0323 15:21:19.165496  3601 net.cpp:67] Creating Layer relu5
I0323 15:21:19.165501  3601 net.cpp:394] relu5 <- ip1
I0323 15:21:19.165509  3601 net.cpp:345] relu5 -> ip1 (in-place)
I0323 15:21:19.165518  3601 net.cpp:96] Setting up relu5
I0323 15:21:19.165546  3601 net.cpp:103] Top shape: 250 512 1 1 (128000)
I0323 15:21:19.165550  3601 net.cpp:67] Creating Layer ip2
I0323 15:21:19.165552  3601 net.cpp:394] ip2 <- ip1
I0323 15:21:19.165556  3601 net.cpp:356] ip2 -> ip2
I0323 15:21:19.165561  3601 net.cpp:96] Setting up ip2
I0323 15:21:19.170795  3601 net.cpp:103] Top shape: 250 512 1 1 (128000)
I0323 15:21:19.170804  3601 net.cpp:67] Creating Layer relu6
I0323 15:21:19.170804  3601 net.cpp:394] relu6 <- ip2
I0323 15:21:19.170807  3601 net.cpp:345] relu6 -> ip2 (in-place)
I0323 15:21:19.170809  3601 net.cpp:96] Setting up relu6
I0323 15:21:19.170812  3601 net.cpp:103] Top shape: 250 512 1 1 (128000)
I0323 15:21:19.170816  3601 net.cpp:67] Creating Layer ip3
I0323 15:21:19.170817  3601 net.cpp:394] ip3 <- ip2
I0323 15:21:19.170820  3601 net.cpp:356] ip3 -> ip3
I0323 15:21:19.170824  3601 net.cpp:96] Setting up ip3
I0323 15:21:19.170920  3601 net.cpp:103] Top shape: 250 5 1 1 (1250)
I0323 15:21:19.170925  3601 net.cpp:67] Creating Layer ip3_ip3_0_split
I0323 15:21:19.170928  3601 net.cpp:394] ip3_ip3_0_split <- ip3
I0323 15:21:19.170929  3601 net.cpp:356] ip3_ip3_0_split -> ip3_ip3_0_split_0
I0323 15:21:19.170934  3601 net.cpp:356] ip3_ip3_0_split -> ip3_ip3_0_split_1
I0323 15:21:19.170938  3601 net.cpp:96] Setting up ip3_ip3_0_split
I0323 15:21:19.170940  3601 net.cpp:103] Top shape: 250 5 1 1 (1250)
I0323 15:21:19.170941  3601 net.cpp:103] Top shape: 250 5 1 1 (1250)
I0323 15:21:19.170944  3601 net.cpp:67] Creating Layer accuracy
I0323 15:21:19.170969  3601 net.cpp:394] accuracy <- ip3_ip3_0_split_0
I0323 15:21:19.170972  3601 net.cpp:394] accuracy <- label_mnist_1_split_0
I0323 15:21:19.170974  3601 net.cpp:356] accuracy -> accuracy
I0323 15:21:19.170989  3601 net.cpp:96] Setting up accuracy
I0323 15:21:19.170994  3601 net.cpp:103] Top shape: 1 1 1 1 (1)
I0323 15:21:19.171010  3601 net.cpp:67] Creating Layer loss
I0323 15:21:19.171015  3601 net.cpp:394] loss <- ip3_ip3_0_split_1
I0323 15:21:19.171028  3601 net.cpp:394] loss <- label_mnist_1_split_1
I0323 15:21:19.171031  3601 net.cpp:356] loss -> loss
I0323 15:21:19.171036  3601 net.cpp:96] Setting up loss
I0323 15:21:19.171052  3601 net.cpp:103] Top shape: 1 1 1 1 (1)
I0323 15:21:19.171054  3601 net.cpp:109]     with loss weight 1
I0323 15:21:19.171099  3601 net.cpp:170] loss needs backward computation.
I0323 15:21:19.171102  3601 net.cpp:172] accuracy does not need backward computation.
I0323 15:21:19.171103  3601 net.cpp:170] ip3_ip3_0_split needs backward computation.
I0323 15:21:19.171104  3601 net.cpp:170] ip3 needs backward computation.
I0323 15:21:19.171107  3601 net.cpp:170] relu6 needs backward computation.
…
I0323 15:21:19.171645  3601 net.cpp:275] The NetState phase (1) differed from the phase (0) specified by a rule in layer mnist
I0323 15:21:19.171736  3601 net.cpp:39] Initializing net from parameters: 
name: "LeNet"
layers {
  top: "data"
  top: "label"
  name: "mnist"
  type: DATA
  data_param {
    source: "/home/niko/datasets/DiabeticRetinopathyDetection/processed/run-hue-1/diabetic_retinopathy_val_lmdb"
    batch_size: 50
    backend: LMDB
  }
  include {
    phase: TEST
  }
  transform_param {
    mirror: true
    crop_size: 227
    mean_file: "/home/niko/datasets/DiabeticRetinopathyDetection/processed/run-hue-1/diabetic_retinopathy_mean.binaryproto"
  }
}
layers {
  bottom: "data"
  top: "conv1"
  name: "conv1"
  type: CONVOLUTION
  blobs_lr: 1
  blobs_lr: 2
  weight_decay: 1
  weight_decay: 0
  convolution_param {
    num_output: 24
    kernel_size: 11
    stride: 4
    weight_filler {
      type: "xavier"
    }
    bias_filler {
      type: "constant"
      value: 0
    }
  }
}
layers {
  bottom: "conv1"
  top: "conv1"
  name: "relu1"
  type: RELU
}
layers {
  bottom: "conv1"
  top: "norm1"
  name: "norm1"
  type: LRN
  lrn_param {
    local_size: 5
    alpha: 0.0001
    beta: 0.75
  }
}
layers {
  bottom: "norm1"
  top: "pool1"
  name: "pool1"
  type: POOLING
  pooling_param {
    pool: MAX
    kernel_size: 2
    stride: 2
  }
}
layers {
  bottom: "pool1"
  top: "conv2"
  name: "conv2"
  type: CONVOLUTION
  blobs_lr: 1
  blobs_lr: 2
  weight_decay: 1
  weight_decay: 0
  convolution_param {
    num_output: 96
    kernel_size: 9
    stride: 1
    weight_filler {
      type: "xavier"
    }
    bias_filler {
      type: "constant"
      value: 1
    }
  }
}
layers {
  bottom: "conv2"
  top: "conv2"
  name: "relu2"
  type: RELU
}
layers {
  bottom: "conv2"
  top: "norm2"
  name: "norm2"
  type: LRN
  lrn_param {
    local_size: 5
    alpha: 0.0001
    beta: 0.75
  }
}
layers {
  bottom: "norm2"
  top: "pool2"
  name: "pool2"
  type: POOLING
  pooling_param {
    pool: MAX
    kernel_size: 3
    stride: 2
  }
}
layers {
  bottom: "pool2"
  top: "conv3"
  name: "conv3"
  type: CONVOLUTION
  blobs_lr: 1
  blobs_lr: 2
  weight_decay: 1
  weight_decay: 0
  convolution_param {
    num_output: 256
    pad: 1
    kernel_size: 5
    weight_filler {
      type: "xavier"
    }
    bias_filler {
      type: "constant"
      value: 0
    }
  }
}
layers {
  bottom: "conv3"
  top: "conv3"
  name: "relu3"
  type: RELU
}
layers {
  bottom: "conv3"
  top: "conv4"
  name: "conv4"
  type: CONVOLUTION
  blobs_lr: 1
  blobs_lr: 2
  convolution_param {
    num_output: 384
    pad: 1
    kernel_size: 3
    group: 2
    weight_filler {
      type: "xavier"
    }
    bias_filler {
      type: "constant"
    }
  }
}
layers {
  bottom: "conv4"
  top: "conv4"
  name: "relu4"
  type: RELU
}
layers {
  bottom: "conv4"
  top: "pool4"
  name: "pool4"
  type: POOLING
  pooling_param {
    pool: MAX
    kernel_size: 3
    stride: 2
  }
}
layers {
  bottom: "pool4"
  top: "ip1"
  name: "ip1"
  type: INNER_PRODUCT
  blobs_lr: 1
  blobs_lr: 2
  weight_decay: 1
  weight_decay: 0
  inner_product_param {
    num_output: 512
    weight_filler {
      type: "gaussian"
      std: 0.005
    }
    bias_filler {
      type: "constant"
      value: 0.1
    }
  }
}
layers {
  bottom: "ip1"
  top: "ip1"
  name: "relu5"
  type: SIGMOID
}
layers {
  bottom: "ip1"
  top: "ip2"
  name: "ip2"
  type: INNER_PRODUCT
  blobs_lr: 1
  blobs_lr: 2
  inner_product_param {
    num_output: 512
    weight_filler {
      type: "gaussian"
      std: 0.005
    }
    bias_filler {
      type: "constant"
      value: 0.1
    }
  }
}
layers {
  bottom: "ip2"
  top: "ip2"
  name: "relu6"
  type: SIGMOID
}
layers {
  bottom: "ip2"
  top: "ip3"
  name: "ip3"
  type: INNER_PRODUCT
  blobs_lr: 1
  blobs_lr: 2
  weight_decay: 1
  weight_decay: 0
  inner_product_param {
    num_output: 5
    weight_filler {
      type: "gaussian"
      std: 0.01
    }
    bias_filler {
      type: "constant"
      value: 0
    }
  }
}
layers {
  bottom: "ip3"
  bottom: "label"
  top: "accuracy"
  name: "accuracy"
  type: ACCURACY
}
layers {
  bottom: "ip3"
  bottom: "label"
  top: "loss"
  name: "loss"
  type: SOFTMAX_LOSS
}
state {
  phase: TEST
}
I0323 15:21:19.171867  3601 net.cpp:67] Creating Layer mnist
I0323 15:21:19.171872  3601 net.cpp:356] mnist -> data
I0323 15:21:19.171887  3601 net.cpp:356] mnist -> label
I0323 15:21:19.171912  3601 net.cpp:96] Setting up mnist
I0323 15:21:19.419479  3601 data_layer.cpp:68] Opening lmdb /home/niko/datasets/DiabeticRetinopathyDetection/processed/run-hue-1/diabetic_retinopathy_val_lmdb
I0323 15:21:19.523571  3601 data_layer.cpp:128] output data size: 50,3,227,227
I0323 15:21:19.523589  3601 base_data_layer.cpp:36] Loading mean file from/home/niko/datasets/DiabeticRetinopathyDetection/processed/run-hue-1/diabetic_retinopathy_mean.binaryproto
I0323 15:21:19.527531  3601 net.cpp:103] Top shape: 50 3 227 227 (7729350)
I0323 15:21:19.527559  3601 net.cpp:103] Top shape: 50 1 1 1 (50)
I0323 15:21:19.527570  3601 net.cpp:67] Creating Layer label_mnist_1_split
I0323 15:21:19.527600  3601 net.cpp:394] label_mnist_1_split <- label
I0323 15:21:19.527606  3601 net.cpp:356] label_mnist_1_split -> label_mnist_1_split_0
I0323 15:21:19.527624  3601 net.cpp:356] label_mnist_1_split -> label_mnist_1_split_1
I0323 15:21:19.527629  3601 net.cpp:96] Setting up label_mnist_1_split
I0323 15:21:19.527633  3601 net.cpp:103] Top shape: 50 1 1 1 (50)
I0323 15:21:19.527637  3601 net.cpp:103] Top shape: 50 1 1 1 (50)
I0323 15:21:19.527643  3601 net.cpp:67] Creating Layer conv1
I0323 15:21:19.527645  3601 net.cpp:394] conv1 <- data
I0323 15:21:19.527648  3601 net.cpp:356] conv1 -> conv1
I0323 15:21:19.527653  3601 net.cpp:96] Setting up conv1
I0323 15:21:19.527767  3601 net.cpp:103] Top shape: 50 24 55 55 (3630000)
I0323 15:21:19.527776  3601 net.cpp:67] Creating Layer relu1
I0323 15:21:19.527778  3601 net.cpp:394] relu1 <- conv1
I0323 15:21:19.527781  3601 net.cpp:345] relu1 -> conv1 (in-place)
I0323 15:21:19.527783  3601 net.cpp:96] Setting up relu1
I0323 15:21:19.527786  3601 net.cpp:103] Top shape: 50 24 55 55 (3630000)
I0323 15:21:19.527791  3601 net.cpp:67] Creating Layer norm1
I0323 15:21:19.527791  3601 net.cpp:394] norm1 <- conv1
I0323 15:21:19.527794  3601 net.cpp:356] norm1 -> norm1
I0323 15:21:19.527796  3601 net.cpp:96] Setting up norm1
I0323 15:21:19.527799  3601 net.cpp:103] Top shape: 50 24 55 55 (3630000)
I0323 15:21:19.527802  3601 net.cpp:67] Creating Layer pool1
I0323 15:21:19.527804  3601 net.cpp:394] pool1 <- norm1
I0323 15:21:19.527806  3601 net.cpp:356] pool1 -> pool1
I0323 15:21:19.527809  3601 net.cpp:96] Setting up pool1
I0323 15:21:19.527813  3601 net.cpp:103] Top shape: 50 24 28 28 (940800)
I0323 15:21:19.527817  3601 net.cpp:67] Creating Layer conv2
I0323 15:21:19.527818  3601 net.cpp:394] conv2 <- pool1
I0323 15:21:19.527822  3601 net.cpp:356] conv2 -> conv2
I0323 15:21:19.527823  3601 net.cpp:96] Setting up conv2
I0323 15:21:19.528864  3601 net.cpp:103] Top shape: 50 96 20 20 (1920000)
I0323 15:21:19.528873  3601 net.cpp:67] Creating Layer relu2
I0323 15:21:19.528875  3601 net.cpp:394] relu2 <- conv2
I0323 15:21:19.528878  3601 net.cpp:345] relu2 -> conv2 (in-place)
I0323 15:21:19.528880  3601 net.cpp:96] Setting up relu2
I0323 15:21:19.528883  3601 net.cpp:103] Top shape: 50 96 20 20 (1920000)
I0323 15:21:19.528887  3601 net.cpp:67] Creating Layer norm2
I0323 15:21:19.528888  3601 net.cpp:394] norm2 <- conv2
I0323 15:21:19.528892  3601 net.cpp:356] norm2 -> norm2
I0323 15:21:19.528894  3601 net.cpp:96] Setting up norm2
I0323 15:21:19.528897  3601 net.cpp:103] Top shape: 50 96 20 20 (1920000)
I0323 15:21:19.528899  3601 net.cpp:67] Creating Layer pool2
I0323 15:21:19.528900  3601 net.cpp:394] pool2 <- norm2
I0323 15:21:19.528903  3601 net.cpp:356] pool2 -> pool2
I0323 15:21:19.528905  3601 net.cpp:96] Setting up pool2
I0323 15:21:19.528908  3601 net.cpp:103] Top shape: 50 96 10 10 (480000)
I0323 15:21:19.528911  3601 net.cpp:67] Creating Layer conv3
I0323 15:21:19.528913  3601 net.cpp:394] conv3 <- pool2
I0323 15:21:19.528915  3601 net.cpp:356] conv3 -> conv3
I0323 15:21:19.528918  3601 net.cpp:96] Setting up conv3
I0323 15:21:19.532073  3601 net.cpp:103] Top shape: 50 256 8 8 (819200)
I0323 15:21:19.532084  3601 net.cpp:67] Creating Layer relu3
I0323 15:21:19.532086  3601 net.cpp:394] relu3 <- conv3
I0323 15:21:19.532089  3601 net.cpp:345] relu3 -> conv3 (in-place)
I0323 15:21:19.532093  3601 net.cpp:96] Setting up relu3
I0323 15:21:19.532095  3601 net.cpp:103] Top shape: 50 256 8 8 (819200)
I0323 15:21:19.532110  3601 net.cpp:67] Creating Layer conv4
I0323 15:21:19.532112  3601 net.cpp:394] conv4 <- conv3
I0323 15:21:19.532115  3601 net.cpp:356] conv4 -> conv4
I0323 15:21:19.532119  3601 net.cpp:96] Setting up conv4
I0323 15:21:19.534322  3601 net.cpp:103] Top shape: 50 384 8 8 (1228800)
I0323 15:21:19.534340  3601 net.cpp:67] Creating Layer relu4
I0323 15:21:19.534343  3601 net.cpp:394] relu4 <- conv4
I0323 15:21:19.534345  3601 net.cpp:345] relu4 -> conv4 (in-place)
I0323 15:21:19.534348  3601 net.cpp:96] Setting up relu4
I0323 15:21:19.534350  3601 net.cpp:103] Top shape: 50 384 8 8 (1228800)
I0323 15:21:19.534365  3601 net.cpp:67] Creating Layer pool4
I0323 15:21:19.534379  3601 net.cpp:394] pool4 <- conv4
I0323 15:21:19.534384  3601 net.cpp:356] pool4 -> pool4
I0323 15:21:19.534386  3601 net.cpp:96] Setting up pool4
I0323 15:21:19.534400  3601 net.cpp:103] Top shape: 50 384 4 4 (307200)
I0323 15:21:19.534404  3601 net.cpp:67] Creating Layer ip1
I0323 15:21:19.534405  3601 net.cpp:394] ip1 <- pool4
I0323 15:21:19.534420  3601 net.cpp:356] ip1 -> ip1
I0323 15:21:19.534422  3601 net.cpp:96] Setting up ip1
I0323 15:21:19.598105  3601 net.cpp:103] Top shape: 50 512 1 1 (25600)
I0323 15:21:19.598137  3601 net.cpp:67] Creating Layer relu5
I0323 15:21:19.598142  3601 net.cpp:394] relu5 <- ip1
I0323 15:21:19.598148  3601 net.cpp:345] relu5 -> ip1 (in-place)
I0323 15:21:19.598155  3601 net.cpp:96] Setting up relu5
I0323 15:21:19.598177  3601 net.cpp:103] Top shape: 50 512 1 1 (25600)
I0323 15:21:19.598194  3601 net.cpp:67] Creating Layer ip2
I0323 15:21:19.598196  3601 net.cpp:394] ip2 <- ip1
I0323 15:21:19.598212  3601 net.cpp:356] ip2 -> ip2
I0323 15:21:19.598217  3601 net.cpp:96] Setting up ip2
I0323 15:21:19.605814  3601 net.cpp:103] Top shape: 50 512 1 1 (25600)
I0323 15:21:19.605847  3601 net.cpp:67] Creating Layer relu6
I0323 15:21:19.605854  3601 net.cpp:394] relu6 <- ip2
I0323 15:21:19.605860  3601 net.cpp:345] relu6 -> ip2 (in-place)
I0323 15:21:19.605866  3601 net.cpp:96] Setting up relu6
I0323 15:21:19.605890  3601 net.cpp:103] Top shape: 50 512 1 1 (25600)
I0323 15:21:19.605908  3601 net.cpp:67] Creating Layer ip3
I0323 15:21:19.605923  3601 net.cpp:394] ip3 <- ip2
I0323 15:21:19.605928  3601 net.cpp:356] ip3 -> ip3
I0323 15:21:19.605944  3601 net.cpp:96] Setting up ip3
I0323 15:21:19.606103  3601 net.cpp:103] Top shape: 50 5 1 1 (250)
I0323 15:21:19.606114  3601 net.cpp:67] Creating Layer ip3_ip3_0_split
I0323 15:21:19.606118  3601 net.cpp:394] ip3_ip3_0_split <- ip3
I0323 15:21:19.606122  3601 net.cpp:356] ip3_ip3_0_split -> ip3_ip3_0_split_0
I0323 15:21:19.606130  3601 net.cpp:356] ip3_ip3_0_split -> ip3_ip3_0_split_1
I0323 15:21:19.606145  3601 net.cpp:96] Setting up ip3_ip3_0_split
I0323 15:21:19.606150  3601 net.cpp:103] Top shape: 50 5 1 1 (250)
I0323 15:21:19.606154  3601 net.cpp:103] Top shape: 50 5 1 1 (250)
I0323 15:21:19.606160  3601 net.cpp:67] Creating Layer accuracy
I0323 15:21:19.606164  3601 net.cpp:394] accuracy <- ip3_ip3_0_split_0
I0323 15:21:19.606169  3601 net.cpp:394] accuracy <- label_mnist_1_split_0
I0323 15:21:19.606184  3601 net.cpp:356] accuracy -> accuracy
I0323 15:21:19.606187  3601 net.cpp:96] Setting up accuracy
I0323 15:21:19.606190  3601 net.cpp:103] Top shape: 1 1 1 1 (1)
I0323 15:21:19.606196  3601 net.cpp:67] Creating Layer loss
I0323 15:21:19.606200  3601 net.cpp:394] loss <- ip3_ip3_0_split_1
I0323 15:21:19.606204  3601 net.cpp:394] loss <- label_mnist_1_split_1
I0323 15:21:19.606209  3601 net.cpp:356] loss -> loss
I0323 15:21:19.606223  3601 net.cpp:96] Setting up loss
I0323 15:21:19.606230  3601 net.cpp:103] Top shape: 1 1 1 1 (1)
I0323 15:21:19.606233  3601 net.cpp:109]     with loss weight 1
I0323 15:21:19.606245  3601 net.cpp:170] loss needs backward computation.
I0323 15:21:19.606248  3601 net.cpp:172] accuracy does not need backward computation.
I0323 15:21:19.606252  3601 net.cpp:170] ip3_ip3_0_split needs backward computation.
I0323 15:21:19.606255  3601 net.cpp:170] ip3 needs backward computation.
I0323 15:21:19.606258  3601 net.cpp:170] relu6 needs backward computation.
…
