…
I0326 08:56:49.516119 19466 net.cpp:275] The NetState phase (0) differed from the phase (1) specified by a rule in layer mnist
I0326 08:56:49.516252 19466 net.cpp:39] Initializing net from parameters: 
name: "RetinopathyNet"
layers {
  top: "data"
  top: "label"
  name: "mnist"
  type: DATA
  data_param {
    source: "/home/niko/datasets/DiabeticRetinopathyDetection/processed/run-normal/diabetic_retinopathy_train_lmdb"
    batch_size: 250
    backend: LMDB
  }
  include {
    phase: TRAIN
  }
  transform_param {
    mirror: true
    crop_size: 227
    mean_file: "/home/niko/datasets/DiabeticRetinopathyDetection/processed/run-normal/diabetic_retinopathy_mean.binaryproto"
  }
}
layers {
  bottom: "data"
  top: "conv1"
  name: "conv1"
  type: CONVOLUTION
  blobs_lr: 1
  blobs_lr: 2
  weight_decay: 1
  weight_decay: 0
  convolution_param {
    num_output: 24
    kernel_size: 11
    stride: 4
    weight_filler {
      type: "xavier"
    }
    bias_filler {
      type: "constant"
      value: 0
    }
  }
}
layers {
  bottom: "conv1"
  top: "conv1"
  name: "relu1"
  type: RELU
}
layers {
  bottom: "conv1"
  top: "norm1"
  name: "norm1"
  type: LRN
  lrn_param {
    local_size: 5
    alpha: 0.0001
    beta: 0.75
  }
}
layers {
  bottom: "norm1"
  top: "pool1"
  name: "pool1"
  type: POOLING
  pooling_param {
    pool: MAX
    kernel_size: 2
    stride: 2
  }
}
layers {
  bottom: "pool1"
  top: "conv2"
  name: "conv2"
  type: CONVOLUTION
  blobs_lr: 1
  blobs_lr: 2
  weight_decay: 1
  weight_decay: 0
  convolution_param {
    num_output: 96
    kernel_size: 9
    stride: 2
    weight_filler {
      type: "xavier"
    }
    bias_filler {
      type: "constant"
      value: 1
    }
  }
}
layers {
  bottom: "conv2"
  top: "conv2"
  name: "relu2"
  type: RELU
}
layers {
  bottom: "conv2"
  top: "norm2"
  name: "norm2"
  type: LRN
  lrn_param {
    local_size: 5
    alpha: 0.0001
    beta: 0.75
  }
}
layers {
  bottom: "norm2"
  top: "pool2"
  name: "pool2"
  type: POOLING
  pooling_param {
    pool: MAX
    kernel_size: 3
    stride: 2
  }
}
layers {
  bottom: "pool2"
  top: "conv3"
  name: "conv3"
  type: CONVOLUTION
  blobs_lr: 1
  blobs_lr: 2
  weight_decay: 1
  weight_decay: 0
  convolution_param {
    num_output: 256
    pad: 1
    kernel_size: 5
    weight_filler {
      type: "xavier"
    }
    bias_filler {
      type: "constant"
      value: 0
    }
  }
}
layers {
  bottom: "conv3"
  top: "conv3"
  name: "relu3"
  type: RELU
}
layers {
  bottom: "conv3"
  top: "conv4"
  name: "conv4"
  type: CONVOLUTION
  blobs_lr: 1
  blobs_lr: 2
  convolution_param {
    num_output: 384
    pad: 1
    kernel_size: 3
    group: 2
    weight_filler {
      type: "xavier"
    }
    bias_filler {
      type: "constant"
    }
  }
}
layers {
  bottom: "conv4"
  top: "conv4"
  name: "relu4"
  type: RELU
}
layers {
  bottom: "conv4"
  top: "pool4"
  name: "pool4"
  type: POOLING
  pooling_param {
    pool: MAX
    kernel_size: 3
    stride: 2
  }
}
layers {
  bottom: "pool4"
  top: "ip1"
  name: "ip1"
  type: INNER_PRODUCT
  blobs_lr: 1
  blobs_lr: 2
  weight_decay: 1
  weight_decay: 0
  inner_product_param {
    num_output: 512
    weight_filler {
      type: "gaussian"
      std: 0.005
    }
    bias_filler {
      type: "constant"
      value: 0.1
    }
  }
}
layers {
  bottom: "ip1"
  top: "ip1"
  name: "relu5"
  type: SIGMOID
}
layers {
  bottom: "ip1"
  top: "ip2"
  name: "ip2"
  type: INNER_PRODUCT
  blobs_lr: 1
  blobs_lr: 2
  inner_product_param {
    num_output: 512
    weight_filler {
      type: "gaussian"
      std: 0.005
    }
    bias_filler {
      type: "constant"
      value: 0.1
    }
  }
}
layers {
  bottom: "ip2"
  top: "ip2"
  name: "relu6"
  type: SIGMOID
}
layers {
  bottom: "ip2"
  top: "ip3"
  name: "ip3"
  type: INNER_PRODUCT
  blobs_lr: 1
  blobs_lr: 2
  weight_decay: 1
  weight_decay: 0
  inner_product_param {
    num_output: 5
    weight_filler {
      type: "gaussian"
      std: 0.01
    }
    bias_filler {
      type: "constant"
      value: 0
    }
  }
}
layers {
  bottom: "ip3"
  bottom: "label"
  top: "accuracy"
  name: "accuracy"
  type: ACCURACY
}
layers {
  bottom: "ip3"
  bottom: "label"
  top: "loss"
  name: "loss"
  type: SOFTMAX_LOSS
}
state {
  phase: TRAIN
}
I0326 08:56:49.518281 19466 net.cpp:67] Creating Layer mnist
I0326 08:56:49.518296 19466 net.cpp:356] mnist -> data
I0326 08:56:49.518314 19466 net.cpp:356] mnist -> label
I0326 08:56:49.518327 19466 net.cpp:96] Setting up mnist
I0326 08:56:49.518869 19466 data_layer.cpp:68] Opening lmdb /home/niko/datasets/DiabeticRetinopathyDetection/processed/run-normal/diabetic_retinopathy_train_lmdb
I0326 08:56:49.597141 19466 data_layer.cpp:128] output data size: 250,3,227,227
I0326 08:56:49.597159 19466 base_data_layer.cpp:36] Loading mean file from/home/niko/datasets/DiabeticRetinopathyDetection/processed/run-normal/diabetic_retinopathy_mean.binaryproto
I0326 08:56:49.640568 19466 net.cpp:103] Top shape: 250 3 227 227 (38646750)
I0326 08:56:49.640599 19466 net.cpp:103] Top shape: 250 1 1 1 (250)
I0326 08:56:49.640611 19466 net.cpp:67] Creating Layer label_mnist_1_split
I0326 08:56:49.640615 19466 net.cpp:394] label_mnist_1_split <- label
I0326 08:56:49.640658 19466 net.cpp:356] label_mnist_1_split -> label_mnist_1_split_0
I0326 08:56:49.640679 19466 net.cpp:356] label_mnist_1_split -> label_mnist_1_split_1
I0326 08:56:49.640696 19466 net.cpp:96] Setting up label_mnist_1_split
I0326 08:56:49.640702 19466 net.cpp:103] Top shape: 250 1 1 1 (250)
I0326 08:56:49.640705 19466 net.cpp:103] Top shape: 250 1 1 1 (250)
I0326 08:56:49.640717 19466 net.cpp:67] Creating Layer conv1
I0326 08:56:49.640720 19466 net.cpp:394] conv1 <- data
I0326 08:56:49.640725 19466 net.cpp:356] conv1 -> conv1
I0326 08:56:49.640734 19466 net.cpp:96] Setting up conv1
I0326 08:56:50.061266 19466 net.cpp:103] Top shape: 250 24 55 55 (18150000)
I0326 08:56:50.061313 19466 net.cpp:67] Creating Layer relu1
I0326 08:56:50.061318 19466 net.cpp:394] relu1 <- conv1
I0326 08:56:50.061326 19466 net.cpp:345] relu1 -> conv1 (in-place)
I0326 08:56:50.061332 19466 net.cpp:96] Setting up relu1
I0326 08:56:50.061352 19466 net.cpp:103] Top shape: 250 24 55 55 (18150000)
I0326 08:56:50.061359 19466 net.cpp:67] Creating Layer norm1
I0326 08:56:50.061372 19466 net.cpp:394] norm1 <- conv1
I0326 08:56:50.061377 19466 net.cpp:356] norm1 -> norm1
I0326 08:56:50.061383 19466 net.cpp:96] Setting up norm1
I0326 08:56:50.061388 19466 net.cpp:103] Top shape: 250 24 55 55 (18150000)
I0326 08:56:50.061393 19466 net.cpp:67] Creating Layer pool1
I0326 08:56:50.061403 19466 net.cpp:394] pool1 <- norm1
I0326 08:56:50.061406 19466 net.cpp:356] pool1 -> pool1
I0326 08:56:50.061411 19466 net.cpp:96] Setting up pool1
I0326 08:56:50.061429 19466 net.cpp:103] Top shape: 250 24 28 28 (4704000)
I0326 08:56:50.061444 19466 net.cpp:67] Creating Layer conv2
I0326 08:56:50.061447 19466 net.cpp:394] conv2 <- pool1
I0326 08:56:50.061462 19466 net.cpp:356] conv2 -> conv2
I0326 08:56:50.061468 19466 net.cpp:96] Setting up conv2
I0326 08:56:50.062935 19466 net.cpp:103] Top shape: 250 96 10 10 (2400000)
I0326 08:56:50.062950 19466 net.cpp:67] Creating Layer relu2
I0326 08:56:50.062953 19466 net.cpp:394] relu2 <- conv2
I0326 08:56:50.062958 19466 net.cpp:345] relu2 -> conv2 (in-place)
I0326 08:56:50.062973 19466 net.cpp:96] Setting up relu2
I0326 08:56:50.062978 19466 net.cpp:103] Top shape: 250 96 10 10 (2400000)
I0326 08:56:50.062984 19466 net.cpp:67] Creating Layer norm2
I0326 08:56:50.063006 19466 net.cpp:394] norm2 <- conv2
I0326 08:56:50.063024 19466 net.cpp:356] norm2 -> norm2
I0326 08:56:50.063040 19466 net.cpp:96] Setting up norm2
I0326 08:56:50.063043 19466 net.cpp:103] Top shape: 250 96 10 10 (2400000)
I0326 08:56:50.063051 19466 net.cpp:67] Creating Layer pool2
I0326 08:56:50.063065 19466 net.cpp:394] pool2 <- norm2
I0326 08:56:50.063069 19466 net.cpp:356] pool2 -> pool2
I0326 08:56:50.063082 19466 net.cpp:96] Setting up pool2
I0326 08:56:50.063088 19466 net.cpp:103] Top shape: 250 96 5 5 (600000)
I0326 08:56:50.063097 19466 net.cpp:67] Creating Layer conv3
I0326 08:56:50.063102 19466 net.cpp:394] conv3 <- pool2
I0326 08:56:50.063107 19466 net.cpp:356] conv3 -> conv3
I0326 08:56:50.063112 19466 net.cpp:96] Setting up conv3
I0326 08:56:50.067436 19466 net.cpp:103] Top shape: 250 256 3 3 (576000)
I0326 08:56:50.067459 19466 net.cpp:67] Creating Layer relu3
I0326 08:56:50.067463 19466 net.cpp:394] relu3 <- conv3
I0326 08:56:50.067469 19466 net.cpp:345] relu3 -> conv3 (in-place)
I0326 08:56:50.067476 19466 net.cpp:96] Setting up relu3
I0326 08:56:50.067481 19466 net.cpp:103] Top shape: 250 256 3 3 (576000)
I0326 08:56:50.067487 19466 net.cpp:67] Creating Layer conv4
I0326 08:56:50.067492 19466 net.cpp:394] conv4 <- conv3
I0326 08:56:50.067497 19466 net.cpp:356] conv4 -> conv4
I0326 08:56:50.067503 19466 net.cpp:96] Setting up conv4
I0326 08:56:50.070657 19466 net.cpp:103] Top shape: 250 384 3 3 (864000)
I0326 08:56:50.070677 19466 net.cpp:67] Creating Layer relu4
I0326 08:56:50.070683 19466 net.cpp:394] relu4 <- conv4
I0326 08:56:50.070688 19466 net.cpp:345] relu4 -> conv4 (in-place)
I0326 08:56:50.070693 19466 net.cpp:96] Setting up relu4
I0326 08:56:50.070699 19466 net.cpp:103] Top shape: 250 384 3 3 (864000)
I0326 08:56:50.070705 19466 net.cpp:67] Creating Layer pool4
I0326 08:56:50.070709 19466 net.cpp:394] pool4 <- conv4
I0326 08:56:50.070714 19466 net.cpp:356] pool4 -> pool4
I0326 08:56:50.070720 19466 net.cpp:96] Setting up pool4
I0326 08:56:50.070727 19466 net.cpp:103] Top shape: 250 384 1 1 (96000)
I0326 08:56:50.070734 19466 net.cpp:67] Creating Layer ip1
I0326 08:56:50.070739 19466 net.cpp:394] ip1 <- pool4
I0326 08:56:50.070744 19466 net.cpp:356] ip1 -> ip1
I0326 08:56:50.070750 19466 net.cpp:96] Setting up ip1
I0326 08:56:50.076529 19466 net.cpp:103] Top shape: 250 512 1 1 (128000)
I0326 08:56:50.076573 19466 net.cpp:67] Creating Layer relu5
I0326 08:56:50.076578 19466 net.cpp:394] relu5 <- ip1
I0326 08:56:50.076586 19466 net.cpp:345] relu5 -> ip1 (in-place)
I0326 08:56:50.076593 19466 net.cpp:96] Setting up relu5
I0326 08:56:50.076607 19466 net.cpp:103] Top shape: 250 512 1 1 (128000)
I0326 08:56:50.076616 19466 net.cpp:67] Creating Layer ip2
I0326 08:56:50.076618 19466 net.cpp:394] ip2 <- ip1
I0326 08:56:50.076623 19466 net.cpp:356] ip2 -> ip2
I0326 08:56:50.076629 19466 net.cpp:96] Setting up ip2
I0326 08:56:50.083981 19466 net.cpp:103] Top shape: 250 512 1 1 (128000)
I0326 08:56:50.083998 19466 net.cpp:67] Creating Layer relu6
I0326 08:56:50.084012 19466 net.cpp:394] relu6 <- ip2
I0326 08:56:50.084017 19466 net.cpp:345] relu6 -> ip2 (in-place)
I0326 08:56:50.084022 19466 net.cpp:96] Setting up relu6
I0326 08:56:50.084031 19466 net.cpp:103] Top shape: 250 512 1 1 (128000)
I0326 08:56:50.084039 19466 net.cpp:67] Creating Layer ip3
I0326 08:56:50.084043 19466 net.cpp:394] ip3 <- ip2
I0326 08:56:50.084048 19466 net.cpp:356] ip3 -> ip3
I0326 08:56:50.084058 19466 net.cpp:96] Setting up ip3
I0326 08:56:50.084139 19466 net.cpp:103] Top shape: 250 5 1 1 (1250)
I0326 08:56:50.084148 19466 net.cpp:67] Creating Layer ip3_ip3_0_split
I0326 08:56:50.084153 19466 net.cpp:394] ip3_ip3_0_split <- ip3
I0326 08:56:50.084158 19466 net.cpp:356] ip3_ip3_0_split -> ip3_ip3_0_split_0
I0326 08:56:50.084167 19466 net.cpp:356] ip3_ip3_0_split -> ip3_ip3_0_split_1
I0326 08:56:50.084173 19466 net.cpp:96] Setting up ip3_ip3_0_split
I0326 08:56:50.084179 19466 net.cpp:103] Top shape: 250 5 1 1 (1250)
I0326 08:56:50.084183 19466 net.cpp:103] Top shape: 250 5 1 1 (1250)
I0326 08:56:50.084188 19466 net.cpp:67] Creating Layer accuracy
I0326 08:56:50.084221 19466 net.cpp:394] accuracy <- ip3_ip3_0_split_0
I0326 08:56:50.084234 19466 net.cpp:394] accuracy <- label_mnist_1_split_0
I0326 08:56:50.084240 19466 net.cpp:356] accuracy -> accuracy
I0326 08:56:50.084255 19466 net.cpp:96] Setting up accuracy
I0326 08:56:50.084262 19466 net.cpp:103] Top shape: 1 1 1 1 (1)
I0326 08:56:50.084280 19466 net.cpp:67] Creating Layer loss
I0326 08:56:50.084283 19466 net.cpp:394] loss <- ip3_ip3_0_split_1
I0326 08:56:50.084287 19466 net.cpp:394] loss <- label_mnist_1_split_1
I0326 08:56:50.084292 19466 net.cpp:356] loss -> loss
I0326 08:56:50.084297 19466 net.cpp:96] Setting up loss
I0326 08:56:50.084308 19466 net.cpp:103] Top shape: 1 1 1 1 (1)
I0326 08:56:50.084312 19466 net.cpp:109]     with loss weight 1
I0326 08:56:50.084352 19466 net.cpp:170] loss needs backward computation.
I0326 08:56:50.084355 19466 net.cpp:172] accuracy does not need backward computation.
I0326 08:56:50.084359 19466 net.cpp:170] ip3_ip3_0_split needs backward computation.
I0326 08:56:50.084362 19466 net.cpp:170] ip3 needs backward computation.
I0326 08:56:50.084365 19466 net.cpp:170] relu6 needs backward computation.
…
I0326 08:56:50.085321 19466 net.cpp:275] The NetState phase (1) differed from the phase (0) specified by a rule in layer mnist
I0326 08:56:50.085480 19466 net.cpp:39] Initializing net from parameters: 
name: "RetinopathyNet"
layers {
  top: "data"
  top: "label"
  name: "mnist"
  type: DATA
  data_param {
    source: "/home/niko/datasets/DiabeticRetinopathyDetection/processed/run-normal/diabetic_retinopathy_val_lmdb"
    batch_size: 50
    backend: LMDB
  }
  include {
    phase: TEST
  }
  transform_param {
    mirror: true
    crop_size: 227
    mean_file: "/home/niko/datasets/DiabeticRetinopathyDetection/processed/run-normal/diabetic_retinopathy_mean.binaryproto"
  }
}
layers {
  bottom: "data"
  top: "conv1"
  name: "conv1"
  type: CONVOLUTION
  blobs_lr: 1
  blobs_lr: 2
  weight_decay: 1
  weight_decay: 0
  convolution_param {
    num_output: 24
    kernel_size: 11
    stride: 4
    weight_filler {
      type: "xavier"
    }
    bias_filler {
      type: "constant"
      value: 0
    }
  }
}
layers {
  bottom: "conv1"
  top: "conv1"
  name: "relu1"
  type: RELU
}
layers {
  bottom: "conv1"
  top: "norm1"
  name: "norm1"
  type: LRN
  lrn_param {
    local_size: 5
    alpha: 0.0001
    beta: 0.75
  }
}
layers {
  bottom: "norm1"
  top: "pool1"
  name: "pool1"
  type: POOLING
  pooling_param {
    pool: MAX
    kernel_size: 2
    stride: 2
  }
}
layers {
  bottom: "pool1"
  top: "conv2"
  name: "conv2"
  type: CONVOLUTION
  blobs_lr: 1
  blobs_lr: 2
  weight_decay: 1
  weight_decay: 0
  convolution_param {
    num_output: 96
    kernel_size: 9
    stride: 2
    weight_filler {
      type: "xavier"
    }
    bias_filler {
      type: "constant"
      value: 1
    }
  }
}
layers {
  bottom: "conv2"
  top: "conv2"
  name: "relu2"
  type: RELU
}
layers {
  bottom: "conv2"
  top: "norm2"
  name: "norm2"
  type: LRN
  lrn_param {
    local_size: 5
    alpha: 0.0001
    beta: 0.75
  }
}
layers {
  bottom: "norm2"
  top: "pool2"
  name: "pool2"
  type: POOLING
  pooling_param {
    pool: MAX
    kernel_size: 3
    stride: 2
  }
}
layers {
  bottom: "pool2"
  top: "conv3"
  name: "conv3"
  type: CONVOLUTION
  blobs_lr: 1
  blobs_lr: 2
  weight_decay: 1
  weight_decay: 0
  convolution_param {
    num_output: 256
    pad: 1
    kernel_size: 5
    weight_filler {
      type: "xavier"
    }
    bias_filler {
      type: "constant"
      value: 0
    }
  }
}
layers {
  bottom: "conv3"
  top: "conv3"
  name: "relu3"
  type: RELU
}
layers {
  bottom: "conv3"
  top: "conv4"
  name: "conv4"
  type: CONVOLUTION
  blobs_lr: 1
  blobs_lr: 2
  convolution_param {
    num_output: 384
    pad: 1
    kernel_size: 3
    group: 2
    weight_filler {
      type: "xavier"
    }
    bias_filler {
      type: "constant"
    }
  }
}
layers {
  bottom: "conv4"
  top: "conv4"
  name: "relu4"
  type: RELU
}
layers {
  bottom: "conv4"
  top: "pool4"
  name: "pool4"
  type: POOLING
  pooling_param {
    pool: MAX
    kernel_size: 3
    stride: 2
  }
}
layers {
  bottom: "pool4"
  top: "ip1"
  name: "ip1"
  type: INNER_PRODUCT
  blobs_lr: 1
  blobs_lr: 2
  weight_decay: 1
  weight_decay: 0
  inner_product_param {
    num_output: 512
    weight_filler {
      type: "gaussian"
      std: 0.005
    }
    bias_filler {
      type: "constant"
      value: 0.1
    }
  }
}
layers {
  bottom: "ip1"
  top: "ip1"
  name: "relu5"
  type: SIGMOID
}
layers {
  bottom: "ip1"
  top: "ip2"
  name: "ip2"
  type: INNER_PRODUCT
  blobs_lr: 1
  blobs_lr: 2
  inner_product_param {
    num_output: 512
    weight_filler {
      type: "gaussian"
      std: 0.005
    }
    bias_filler {
      type: "constant"
      value: 0.1
    }
  }
}
layers {
  bottom: "ip2"
  top: "ip2"
  name: "relu6"
  type: SIGMOID
}
layers {
  bottom: "ip2"
  top: "ip3"
  name: "ip3"
  type: INNER_PRODUCT
  blobs_lr: 1
  blobs_lr: 2
  weight_decay: 1
  weight_decay: 0
  inner_product_param {
    num_output: 5
    weight_filler {
      type: "gaussian"
      std: 0.01
    }
    bias_filler {
      type: "constant"
      value: 0
    }
  }
}
layers {
  bottom: "ip3"
  bottom: "label"
  top: "accuracy"
  name: "accuracy"
  type: ACCURACY
}
layers {
  bottom: "ip3"
  bottom: "label"
  top: "loss"
  name: "loss"
  type: SOFTMAX_LOSS
}
state {
  phase: TEST
}
I0326 08:56:50.085618 19466 net.cpp:67] Creating Layer mnist
I0326 08:56:50.085625 19466 net.cpp:356] mnist -> data
I0326 08:56:50.085643 19466 net.cpp:356] mnist -> label
I0326 08:56:50.085649 19466 net.cpp:96] Setting up mnist
I0326 08:56:50.197175 19466 data_layer.cpp:68] Opening lmdb /home/niko/datasets/DiabeticRetinopathyDetection/processed/run-normal/diabetic_retinopathy_val_lmdb
I0326 08:56:50.289554 19466 data_layer.cpp:128] output data size: 50,3,227,227
I0326 08:56:50.289572 19466 base_data_layer.cpp:36] Loading mean file from/home/niko/datasets/DiabeticRetinopathyDetection/processed/run-normal/diabetic_retinopathy_mean.binaryproto
I0326 08:56:50.298471 19466 net.cpp:103] Top shape: 50 3 227 227 (7729350)
I0326 08:56:50.298483 19466 net.cpp:103] Top shape: 50 1 1 1 (50)
I0326 08:56:50.298534 19466 net.cpp:67] Creating Layer label_mnist_1_split
I0326 08:56:50.298540 19466 net.cpp:394] label_mnist_1_split <- label
I0326 08:56:50.298548 19466 net.cpp:356] label_mnist_1_split -> label_mnist_1_split_0
I0326 08:56:50.298559 19466 net.cpp:356] label_mnist_1_split -> label_mnist_1_split_1
I0326 08:56:50.298565 19466 net.cpp:96] Setting up label_mnist_1_split
I0326 08:56:50.298571 19466 net.cpp:103] Top shape: 50 1 1 1 (50)
I0326 08:56:50.298575 19466 net.cpp:103] Top shape: 50 1 1 1 (50)
I0326 08:56:50.298584 19466 net.cpp:67] Creating Layer conv1
I0326 08:56:50.298588 19466 net.cpp:394] conv1 <- data
I0326 08:56:50.298594 19466 net.cpp:356] conv1 -> conv1
I0326 08:56:50.298602 19466 net.cpp:96] Setting up conv1
I0326 08:56:50.298768 19466 net.cpp:103] Top shape: 50 24 55 55 (3630000)
I0326 08:56:50.298791 19466 net.cpp:67] Creating Layer relu1
I0326 08:56:50.298794 19466 net.cpp:394] relu1 <- conv1
I0326 08:56:50.298799 19466 net.cpp:345] relu1 -> conv1 (in-place)
I0326 08:56:50.298815 19466 net.cpp:96] Setting up relu1
I0326 08:56:50.298821 19466 net.cpp:103] Top shape: 50 24 55 55 (3630000)
I0326 08:56:50.298828 19466 net.cpp:67] Creating Layer norm1
I0326 08:56:50.298832 19466 net.cpp:394] norm1 <- conv1
I0326 08:56:50.298838 19466 net.cpp:356] norm1 -> norm1
I0326 08:56:50.298846 19466 net.cpp:96] Setting up norm1
I0326 08:56:50.298851 19466 net.cpp:103] Top shape: 50 24 55 55 (3630000)
I0326 08:56:50.298856 19466 net.cpp:67] Creating Layer pool1
I0326 08:56:50.298861 19466 net.cpp:394] pool1 <- norm1
I0326 08:56:50.298866 19466 net.cpp:356] pool1 -> pool1
I0326 08:56:50.298871 19466 net.cpp:96] Setting up pool1
I0326 08:56:50.298879 19466 net.cpp:103] Top shape: 50 24 28 28 (940800)
I0326 08:56:50.298887 19466 net.cpp:67] Creating Layer conv2
I0326 08:56:50.298890 19466 net.cpp:394] conv2 <- pool1
I0326 08:56:50.298897 19466 net.cpp:356] conv2 -> conv2
I0326 08:56:50.298902 19466 net.cpp:96] Setting up conv2
I0326 08:56:50.300303 19466 net.cpp:103] Top shape: 50 96 10 10 (480000)
I0326 08:56:50.300328 19466 net.cpp:67] Creating Layer relu2
I0326 08:56:50.300331 19466 net.cpp:394] relu2 <- conv2
I0326 08:56:50.300346 19466 net.cpp:345] relu2 -> conv2 (in-place)
I0326 08:56:50.300353 19466 net.cpp:96] Setting up relu2
I0326 08:56:50.300359 19466 net.cpp:103] Top shape: 50 96 10 10 (480000)
I0326 08:56:50.300365 19466 net.cpp:67] Creating Layer norm2
I0326 08:56:50.300369 19466 net.cpp:394] norm2 <- conv2
I0326 08:56:50.300375 19466 net.cpp:356] norm2 -> norm2
I0326 08:56:50.300381 19466 net.cpp:96] Setting up norm2
I0326 08:56:50.300396 19466 net.cpp:103] Top shape: 50 96 10 10 (480000)
I0326 08:56:50.300402 19466 net.cpp:67] Creating Layer pool2
I0326 08:56:50.300406 19466 net.cpp:394] pool2 <- norm2
I0326 08:56:50.300412 19466 net.cpp:356] pool2 -> pool2
I0326 08:56:50.300417 19466 net.cpp:96] Setting up pool2
I0326 08:56:50.300434 19466 net.cpp:103] Top shape: 50 96 5 5 (120000)
I0326 08:56:50.300441 19466 net.cpp:67] Creating Layer conv3
I0326 08:56:50.300444 19466 net.cpp:394] conv3 <- pool2
I0326 08:56:50.300451 19466 net.cpp:356] conv3 -> conv3
I0326 08:56:50.300457 19466 net.cpp:96] Setting up conv3
I0326 08:56:50.304901 19466 net.cpp:103] Top shape: 50 256 3 3 (115200)
I0326 08:56:50.304919 19466 net.cpp:67] Creating Layer relu3
I0326 08:56:50.304922 19466 net.cpp:394] relu3 <- conv3
I0326 08:56:50.304939 19466 net.cpp:345] relu3 -> conv3 (in-place)
I0326 08:56:50.304944 19466 net.cpp:96] Setting up relu3
I0326 08:56:50.304958 19466 net.cpp:103] Top shape: 50 256 3 3 (115200)
I0326 08:56:50.304965 19466 net.cpp:67] Creating Layer conv4
I0326 08:56:50.304967 19466 net.cpp:394] conv4 <- conv3
I0326 08:56:50.304972 19466 net.cpp:356] conv4 -> conv4
I0326 08:56:50.304978 19466 net.cpp:96] Setting up conv4
I0326 08:56:50.308126 19466 net.cpp:103] Top shape: 50 384 3 3 (172800)
I0326 08:56:50.308147 19466 net.cpp:67] Creating Layer relu4
I0326 08:56:50.308151 19466 net.cpp:394] relu4 <- conv4
I0326 08:56:50.308167 19466 net.cpp:345] relu4 -> conv4 (in-place)
I0326 08:56:50.308172 19466 net.cpp:96] Setting up relu4
I0326 08:56:50.308203 19466 net.cpp:103] Top shape: 50 384 3 3 (172800)
I0326 08:56:50.308209 19466 net.cpp:67] Creating Layer pool4
I0326 08:56:50.308221 19466 net.cpp:394] pool4 <- conv4
I0326 08:56:50.308228 19466 net.cpp:356] pool4 -> pool4
I0326 08:56:50.308241 19466 net.cpp:96] Setting up pool4
I0326 08:56:50.308248 19466 net.cpp:103] Top shape: 50 384 1 1 (19200)
I0326 08:56:50.308267 19466 net.cpp:67] Creating Layer ip1
I0326 08:56:50.308271 19466 net.cpp:394] ip1 <- pool4
I0326 08:56:50.308277 19466 net.cpp:356] ip1 -> ip1
I0326 08:56:50.308284 19466 net.cpp:96] Setting up ip1
I0326 08:56:50.313758 19466 net.cpp:103] Top shape: 50 512 1 1 (25600)
I0326 08:56:50.313783 19466 net.cpp:67] Creating Layer relu5
I0326 08:56:50.313787 19466 net.cpp:394] relu5 <- ip1
I0326 08:56:50.313802 19466 net.cpp:345] relu5 -> ip1 (in-place)
I0326 08:56:50.313807 19466 net.cpp:96] Setting up relu5
I0326 08:56:50.313813 19466 net.cpp:103] Top shape: 50 512 1 1 (25600)
I0326 08:56:50.313820 19466 net.cpp:67] Creating Layer ip2
I0326 08:56:50.313824 19466 net.cpp:394] ip2 <- ip1
I0326 08:56:50.313832 19466 net.cpp:356] ip2 -> ip2
I0326 08:56:50.313838 19466 net.cpp:96] Setting up ip2
I0326 08:56:50.321248 19466 net.cpp:103] Top shape: 50 512 1 1 (25600)
I0326 08:56:50.321259 19466 net.cpp:67] Creating Layer relu6
I0326 08:56:50.321261 19466 net.cpp:394] relu6 <- ip2
I0326 08:56:50.321267 19466 net.cpp:345] relu6 -> ip2 (in-place)
I0326 08:56:50.321282 19466 net.cpp:96] Setting up relu6
I0326 08:56:50.321288 19466 net.cpp:103] Top shape: 50 512 1 1 (25600)
I0326 08:56:50.321293 19466 net.cpp:67] Creating Layer ip3
I0326 08:56:50.321296 19466 net.cpp:394] ip3 <- ip2
I0326 08:56:50.321302 19466 net.cpp:356] ip3 -> ip3
I0326 08:56:50.321310 19466 net.cpp:96] Setting up ip3
I0326 08:56:50.321398 19466 net.cpp:103] Top shape: 50 5 1 1 (250)
I0326 08:56:50.321405 19466 net.cpp:67] Creating Layer ip3_ip3_0_split
I0326 08:56:50.321408 19466 net.cpp:394] ip3_ip3_0_split <- ip3
I0326 08:56:50.321413 19466 net.cpp:356] ip3_ip3_0_split -> ip3_ip3_0_split_0
I0326 08:56:50.321420 19466 net.cpp:356] ip3_ip3_0_split -> ip3_ip3_0_split_1
I0326 08:56:50.321435 19466 net.cpp:96] Setting up ip3_ip3_0_split
I0326 08:56:50.321439 19466 net.cpp:103] Top shape: 50 5 1 1 (250)
I0326 08:56:50.321442 19466 net.cpp:103] Top shape: 50 5 1 1 (250)
I0326 08:56:50.321447 19466 net.cpp:67] Creating Layer accuracy
I0326 08:56:50.321450 19466 net.cpp:394] accuracy <- ip3_ip3_0_split_0
I0326 08:56:50.321455 19466 net.cpp:394] accuracy <- label_mnist_1_split_0
I0326 08:56:50.321463 19466 net.cpp:356] accuracy -> accuracy
I0326 08:56:50.321470 19466 net.cpp:96] Setting up accuracy
I0326 08:56:50.321472 19466 net.cpp:103] Top shape: 1 1 1 1 (1)
I0326 08:56:50.321480 19466 net.cpp:67] Creating Layer loss
I0326 08:56:50.321483 19466 net.cpp:394] loss <- ip3_ip3_0_split_1
I0326 08:56:50.321487 19466 net.cpp:394] loss <- label_mnist_1_split_1
I0326 08:56:50.321491 19466 net.cpp:356] loss -> loss
I0326 08:56:50.321496 19466 net.cpp:96] Setting up loss
I0326 08:56:50.321502 19466 net.cpp:103] Top shape: 1 1 1 1 (1)
I0326 08:56:50.321506 19466 net.cpp:109]     with loss weight 1
I0326 08:56:50.321516 19466 net.cpp:170] loss needs backward computation.
I0326 08:56:50.321519 19466 net.cpp:172] accuracy does not need backward computation.
I0326 08:56:50.321523 19466 net.cpp:170] ip3_ip3_0_split needs backward computation.
I0326 08:56:50.321527 19466 net.cpp:170] ip3 needs backward computation.
I0326 08:56:50.321529 19466 net.cpp:170] relu6 needs backward computation.
…
