…
I0327 21:50:11.764866 19789 net.cpp:275] The NetState phase (0) differed from the phase (1) specified by a rule in layer mnist
I0327 21:50:11.764998 19789 net.cpp:39] Initializing net from parameters: 
name: "RetinopathyNet"
layers {
  top: "data"
  top: "label"
  name: "mnist"
  type: DATA
  data_param {
    source: "/home/niko/datasets/DiabeticRetinopathyDetection/processed/run-normal/diabetic_retinopathy_train_lmdb"
    batch_size: 250
    backend: LMDB
  }
  include {
    phase: TRAIN
  }
  transform_param {
    mirror: true
    crop_size: 220
    mean_file: "/home/niko/datasets/DiabeticRetinopathyDetection/processed/run-normal/diabetic_retinopathy_mean.binaryproto"
  }
}
layers {
  bottom: "data"
  top: "conv1"
  name: "conv1"
  type: CONVOLUTION
  blobs_lr: 1
  blobs_lr: 2
  weight_decay: 1
  weight_decay: 0
  convolution_param {
    num_output: 48
    kernel_size: 7
    stride: 4
    weight_filler {
      type: "xavier"
    }
    bias_filler {
      type: "constant"
      value: 0
    }
  }
}
layers {
  bottom: "conv1"
  top: "conv1"
  name: "relu1"
  type: RELU
}
layers {
  bottom: "conv1"
  top: "norm1"
  name: "norm1"
  type: LRN
  lrn_param {
    local_size: 5
    alpha: 0.0001
    beta: 0.75
  }
}
layers {
  bottom: "norm1"
  top: "pool1"
  name: "pool1"
  type: POOLING
  pooling_param {
    pool: MAX
    kernel_size: 3
    stride: 2
  }
}
layers {
  bottom: "pool1"
  top: "conv2"
  name: "conv2"
  type: CONVOLUTION
  blobs_lr: 1
  blobs_lr: 2
  weight_decay: 1
  weight_decay: 0
  convolution_param {
    num_output: 96
    kernel_size: 7
    group: 2
    stride: 1
    weight_filler {
      type: "xavier"
    }
    bias_filler {
      type: "constant"
      value: 1
    }
  }
}
layers {
  bottom: "conv2"
  top: "conv2"
  name: "relu2"
  type: RELU
}
layers {
  bottom: "conv2"
  top: "norm2"
  name: "norm2"
  type: LRN
  lrn_param {
    local_size: 5
    alpha: 0.0001
    beta: 0.75
  }
}
layers {
  bottom: "norm2"
  top: "pool2"
  name: "pool2"
  type: POOLING
  pooling_param {
    pool: MAX
    kernel_size: 3
    stride: 2
  }
}
layers {
  bottom: "pool2"
  top: "convx"
  name: "convx"
  type: CONVOLUTION
  blobs_lr: 1
  blobs_lr: 2
  weight_decay: 1
  weight_decay: 0
  convolution_param {
    num_output: 128
    pad: 1
    kernel_size: 5
    group: 2
    weight_filler {
      type: "xavier"
    }
    bias_filler {
      type: "constant"
      value: 0
    }
  }
}
layers {
  bottom: "convx"
  top: "convx"
  name: "relux"
  type: RELU
}
layers {
  bottom: "convx"
  top: "poolx"
  name: "poolx"
  type: POOLING
  pooling_param {
    pool: MAX
    kernel_size: 2
    stride: 2
  }
}
layers {
  bottom: "poolx"
  top: "conv3"
  name: "conv3"
  type: CONVOLUTION
  blobs_lr: 1
  blobs_lr: 2
  weight_decay: 1
  weight_decay: 0
  convolution_param {
    num_output: 256
    pad: 1
    kernel_size: 5
    weight_filler {
      type: "xavier"
    }
    bias_filler {
      type: "constant"
      value: 0
    }
  }
}
layers {
  bottom: "conv3"
  top: "conv3"
  name: "relu3"
  type: RELU
}
layers {
  bottom: "conv3"
  top: "conv4"
  name: "conv4"
  type: CONVOLUTION
  blobs_lr: 1
  blobs_lr: 2
  convolution_param {
    num_output: 384
    pad: 1
    kernel_size: 3
    group: 2
    weight_filler {
      type: "xavier"
    }
    bias_filler {
      type: "constant"
    }
  }
}
layers {
  bottom: "conv4"
  top: "conv4"
  name: "relu4"
  type: RELU
}
layers {
  bottom: "conv4"
  top: "pool4"
  name: "pool4"
  type: POOLING
  pooling_param {
    pool: MAX
    kernel_size: 3
    stride: 2
  }
}
layers {
  bottom: "pool4"
  top: "ip1"
  name: "ip1"
  type: INNER_PRODUCT
  blobs_lr: 1
  blobs_lr: 2
  weight_decay: 1
  weight_decay: 0
  inner_product_param {
    num_output: 512
    weight_filler {
      type: "gaussian"
      std: 0.005
    }
    bias_filler {
      type: "constant"
      value: 0.1
    }
  }
}
layers {
  bottom: "ip1"
  top: "ip1"
  name: "relu5"
  type: RELU
}
layers {
  bottom: "ip1"
  top: "ip1"
  name: "dropout"
  type: DROPOUT
  dropout_param {
    dropout_ratio: 0.5
  }
}
layers {
  bottom: "ip1"
  top: "ip2"
  name: "ip2"
  type: INNER_PRODUCT
  blobs_lr: 1
  blobs_lr: 2
  inner_product_param {
    num_output: 512
    weight_filler {
      type: "gaussian"
      std: 0.005
    }
    bias_filler {
      type: "constant"
      value: 0.1
    }
  }
}
layers {
  bottom: "ip2"
  top: "ip2"
  name: "relu6"
  type: RELU
}
layers {
  bottom: "ip2"
  top: "ip2"
  name: "dropout"
  type: DROPOUT
  dropout_param {
    dropout_ratio: 0.5
  }
}
layers {
  bottom: "ip2"
  top: "ip3"
  name: "ip3"
  type: INNER_PRODUCT
  blobs_lr: 1
  blobs_lr: 2
  weight_decay: 1
  weight_decay: 0
  inner_product_param {
    num_output: 5
    weight_filler {
      type: "gaussian"
      std: 0.01
    }
    bias_filler {
      type: "constant"
      value: 0
    }
  }
}
layers {
  bottom: "ip3"
  bottom: "label"
  top: "accuracy"
  name: "accuracy"
  type: ACCURACY
}
layers {
  bottom: "ip3"
  bottom: "label"
  top: "loss"
  name: "loss"
  type: SOFTMAX_LOSS
}
state {
  phase: TRAIN
}
I0327 21:50:11.765130 19789 net.cpp:67] Creating Layer mnist
I0327 21:50:11.765136 19789 net.cpp:356] mnist -> data
I0327 21:50:11.765147 19789 net.cpp:356] mnist -> label
I0327 21:50:11.765154 19789 net.cpp:96] Setting up mnist
I0327 21:50:11.794813 19789 data_layer.cpp:68] Opening lmdb /home/niko/datasets/DiabeticRetinopathyDetection/processed/run-normal/diabetic_retinopathy_train_lmdb
I0327 21:50:11.806663 19789 data_layer.cpp:128] output data size: 250,3,220,220
I0327 21:50:11.806670 19789 base_data_layer.cpp:36] Loading mean file from/home/niko/datasets/DiabeticRetinopathyDetection/processed/run-normal/diabetic_retinopathy_mean.binaryproto
I0327 21:50:11.907635 19789 net.cpp:103] Top shape: 250 3 220 220 (36300000)
I0327 21:50:11.907655 19789 net.cpp:103] Top shape: 250 1 1 1 (250)
I0327 21:50:11.907666 19789 net.cpp:67] Creating Layer label_mnist_1_split
I0327 21:50:11.907670 19789 net.cpp:394] label_mnist_1_split <- label
I0327 21:50:11.907693 19789 net.cpp:356] label_mnist_1_split -> label_mnist_1_split_0
I0327 21:50:11.907712 19789 net.cpp:356] label_mnist_1_split -> label_mnist_1_split_1
I0327 21:50:11.907719 19789 net.cpp:96] Setting up label_mnist_1_split
I0327 21:50:11.907735 19789 net.cpp:103] Top shape: 250 1 1 1 (250)
I0327 21:50:11.907739 19789 net.cpp:103] Top shape: 250 1 1 1 (250)
I0327 21:50:11.907747 19789 net.cpp:67] Creating Layer conv1
I0327 21:50:11.907749 19789 net.cpp:394] conv1 <- data
I0327 21:50:11.907752 19789 net.cpp:356] conv1 -> conv1
I0327 21:50:11.907758 19789 net.cpp:96] Setting up conv1
I0327 21:50:12.223144 19789 net.cpp:103] Top shape: 250 48 54 54 (34992000)
I0327 21:50:12.223181 19789 net.cpp:67] Creating Layer relu1
I0327 21:50:12.223186 19789 net.cpp:394] relu1 <- conv1
I0327 21:50:12.223192 19789 net.cpp:345] relu1 -> conv1 (in-place)
I0327 21:50:12.223208 19789 net.cpp:96] Setting up relu1
I0327 21:50:12.223217 19789 net.cpp:103] Top shape: 250 48 54 54 (34992000)
I0327 21:50:12.223237 19789 net.cpp:67] Creating Layer norm1
I0327 21:50:12.223242 19789 net.cpp:394] norm1 <- conv1
I0327 21:50:12.223247 19789 net.cpp:356] norm1 -> norm1
I0327 21:50:12.223253 19789 net.cpp:96] Setting up norm1
I0327 21:50:12.223258 19789 net.cpp:103] Top shape: 250 48 54 54 (34992000)
I0327 21:50:12.223263 19789 net.cpp:67] Creating Layer pool1
I0327 21:50:12.223265 19789 net.cpp:394] pool1 <- norm1
I0327 21:50:12.223271 19789 net.cpp:356] pool1 -> pool1
I0327 21:50:12.223305 19789 net.cpp:96] Setting up pool1
I0327 21:50:12.223341 19789 net.cpp:103] Top shape: 250 48 27 27 (8748000)
I0327 21:50:12.223348 19789 net.cpp:67] Creating Layer conv2
I0327 21:50:12.223351 19789 net.cpp:394] conv2 <- pool1
I0327 21:50:12.223353 19789 net.cpp:356] conv2 -> conv2
I0327 21:50:12.223357 19789 net.cpp:96] Setting up conv2
I0327 21:50:12.224105 19789 net.cpp:103] Top shape: 250 96 21 21 (10584000)
I0327 21:50:12.224117 19789 net.cpp:67] Creating Layer relu2
I0327 21:50:12.224118 19789 net.cpp:394] relu2 <- conv2
I0327 21:50:12.224122 19789 net.cpp:345] relu2 -> conv2 (in-place)
I0327 21:50:12.224124 19789 net.cpp:96] Setting up relu2
I0327 21:50:12.224128 19789 net.cpp:103] Top shape: 250 96 21 21 (10584000)
I0327 21:50:12.224143 19789 net.cpp:67] Creating Layer norm2
I0327 21:50:12.224144 19789 net.cpp:394] norm2 <- conv2
I0327 21:50:12.224148 19789 net.cpp:356] norm2 -> norm2
I0327 21:50:12.224150 19789 net.cpp:96] Setting up norm2
I0327 21:50:12.224153 19789 net.cpp:103] Top shape: 250 96 21 21 (10584000)
I0327 21:50:12.224155 19789 net.cpp:67] Creating Layer pool2
I0327 21:50:12.224158 19789 net.cpp:394] pool2 <- norm2
I0327 21:50:12.224161 19789 net.cpp:356] pool2 -> pool2
I0327 21:50:12.224164 19789 net.cpp:96] Setting up pool2
I0327 21:50:12.224167 19789 net.cpp:103] Top shape: 250 96 10 10 (2400000)
I0327 21:50:12.224171 19789 net.cpp:67] Creating Layer convx
I0327 21:50:12.224174 19789 net.cpp:394] convx <- pool2
I0327 21:50:12.224176 19789 net.cpp:356] convx -> convx
I0327 21:50:12.224179 19789 net.cpp:96] Setting up convx
I0327 21:50:12.225018 19789 net.cpp:103] Top shape: 250 128 8 8 (2048000)
I0327 21:50:12.225026 19789 net.cpp:67] Creating Layer relux
I0327 21:50:12.225028 19789 net.cpp:394] relux <- convx
I0327 21:50:12.225031 19789 net.cpp:345] relux -> convx (in-place)
I0327 21:50:12.225034 19789 net.cpp:96] Setting up relux
I0327 21:50:12.225038 19789 net.cpp:103] Top shape: 250 128 8 8 (2048000)
I0327 21:50:12.225040 19789 net.cpp:67] Creating Layer poolx
I0327 21:50:12.225042 19789 net.cpp:394] poolx <- convx
I0327 21:50:12.225054 19789 net.cpp:356] poolx -> poolx
I0327 21:50:12.225057 19789 net.cpp:96] Setting up poolx
I0327 21:50:12.225061 19789 net.cpp:103] Top shape: 250 128 4 4 (512000)
I0327 21:50:12.225065 19789 net.cpp:67] Creating Layer conv3
I0327 21:50:12.225066 19789 net.cpp:394] conv3 <- poolx
I0327 21:50:12.225070 19789 net.cpp:356] conv3 -> conv3
I0327 21:50:12.225074 19789 net.cpp:96] Setting up conv3
I0327 21:50:12.229125 19789 net.cpp:103] Top shape: 250 256 2 2 (256000)
I0327 21:50:12.229135 19789 net.cpp:67] Creating Layer relu3
I0327 21:50:12.229136 19789 net.cpp:394] relu3 <- conv3
I0327 21:50:12.229138 19789 net.cpp:345] relu3 -> conv3 (in-place)
I0327 21:50:12.229141 19789 net.cpp:96] Setting up relu3
I0327 21:50:12.229145 19789 net.cpp:103] Top shape: 250 256 2 2 (256000)
I0327 21:50:12.229147 19789 net.cpp:67] Creating Layer conv4
I0327 21:50:12.229149 19789 net.cpp:394] conv4 <- conv3
I0327 21:50:12.229162 19789 net.cpp:356] conv4 -> conv4
I0327 21:50:12.229166 19789 net.cpp:96] Setting up conv4
I0327 21:50:12.231469 19789 net.cpp:103] Top shape: 250 384 2 2 (384000)
I0327 21:50:12.231482 19789 net.cpp:67] Creating Layer relu4
I0327 21:50:12.231484 19789 net.cpp:394] relu4 <- conv4
I0327 21:50:12.231487 19789 net.cpp:345] relu4 -> conv4 (in-place)
I0327 21:50:12.231489 19789 net.cpp:96] Setting up relu4
I0327 21:50:12.231492 19789 net.cpp:103] Top shape: 250 384 2 2 (384000)
I0327 21:50:12.231495 19789 net.cpp:67] Creating Layer pool4
I0327 21:50:12.231508 19789 net.cpp:394] pool4 <- conv4
I0327 21:50:12.231511 19789 net.cpp:356] pool4 -> pool4
I0327 21:50:12.231514 19789 net.cpp:96] Setting up pool4
I0327 21:50:12.231518 19789 net.cpp:103] Top shape: 250 384 1 1 (96000)
I0327 21:50:12.231521 19789 net.cpp:67] Creating Layer ip1
I0327 21:50:12.231523 19789 net.cpp:394] ip1 <- pool4
I0327 21:50:12.231526 19789 net.cpp:356] ip1 -> ip1
I0327 21:50:12.231530 19789 net.cpp:96] Setting up ip1
I0327 21:50:12.235818 19789 net.cpp:103] Top shape: 250 512 1 1 (128000)
I0327 21:50:12.235841 19789 net.cpp:67] Creating Layer relu5
I0327 21:50:12.235843 19789 net.cpp:394] relu5 <- ip1
I0327 21:50:12.235846 19789 net.cpp:345] relu5 -> ip1 (in-place)
I0327 21:50:12.235851 19789 net.cpp:96] Setting up relu5
I0327 21:50:12.235855 19789 net.cpp:103] Top shape: 250 512 1 1 (128000)
I0327 21:50:12.235858 19789 net.cpp:67] Creating Layer dropout
I0327 21:50:12.235870 19789 net.cpp:394] dropout <- ip1
I0327 21:50:12.235873 19789 net.cpp:345] dropout -> ip1 (in-place)
I0327 21:50:12.235877 19789 net.cpp:96] Setting up dropout
I0327 21:50:12.235879 19789 net.cpp:103] Top shape: 250 512 1 1 (128000)
I0327 21:50:12.235893 19789 net.cpp:67] Creating Layer ip2
I0327 21:50:12.235895 19789 net.cpp:394] ip2 <- ip1
I0327 21:50:12.235898 19789 net.cpp:356] ip2 -> ip2
I0327 21:50:12.235903 19789 net.cpp:96] Setting up ip2
I0327 21:50:12.241114 19789 net.cpp:103] Top shape: 250 512 1 1 (128000)
I0327 21:50:12.241122 19789 net.cpp:67] Creating Layer relu6
I0327 21:50:12.241123 19789 net.cpp:394] relu6 <- ip2
I0327 21:50:12.241125 19789 net.cpp:345] relu6 -> ip2 (in-place)
I0327 21:50:12.241128 19789 net.cpp:96] Setting up relu6
I0327 21:50:12.241132 19789 net.cpp:103] Top shape: 250 512 1 1 (128000)
I0327 21:50:12.241135 19789 net.cpp:67] Creating Layer dropout
I0327 21:50:12.241137 19789 net.cpp:394] dropout <- ip2
I0327 21:50:12.241139 19789 net.cpp:345] dropout -> ip2 (in-place)
I0327 21:50:12.241152 19789 net.cpp:96] Setting up dropout
I0327 21:50:12.241153 19789 net.cpp:103] Top shape: 250 512 1 1 (128000)
I0327 21:50:12.241156 19789 net.cpp:67] Creating Layer ip3
I0327 21:50:12.241158 19789 net.cpp:394] ip3 <- ip2
I0327 21:50:12.241163 19789 net.cpp:356] ip3 -> ip3
I0327 21:50:12.241165 19789 net.cpp:96] Setting up ip3
I0327 21:50:12.241230 19789 net.cpp:103] Top shape: 250 5 1 1 (1250)
I0327 21:50:12.241236 19789 net.cpp:67] Creating Layer ip3_ip3_0_split
I0327 21:50:12.241237 19789 net.cpp:394] ip3_ip3_0_split <- ip3
I0327 21:50:12.241240 19789 net.cpp:356] ip3_ip3_0_split -> ip3_ip3_0_split_0
I0327 21:50:12.241243 19789 net.cpp:356] ip3_ip3_0_split -> ip3_ip3_0_split_1
I0327 21:50:12.241246 19789 net.cpp:96] Setting up ip3_ip3_0_split
I0327 21:50:12.241248 19789 net.cpp:103] Top shape: 250 5 1 1 (1250)
I0327 21:50:12.241261 19789 net.cpp:103] Top shape: 250 5 1 1 (1250)
I0327 21:50:12.241264 19789 net.cpp:67] Creating Layer accuracy
I0327 21:50:12.241266 19789 net.cpp:394] accuracy <- ip3_ip3_0_split_0
I0327 21:50:12.241269 19789 net.cpp:394] accuracy <- label_mnist_1_split_0
I0327 21:50:12.241271 19789 net.cpp:356] accuracy -> accuracy
I0327 21:50:12.241274 19789 net.cpp:96] Setting up accuracy
I0327 21:50:12.241278 19789 net.cpp:103] Top shape: 1 1 1 1 (1)
I0327 21:50:12.241282 19789 net.cpp:67] Creating Layer loss
I0327 21:50:12.241284 19789 net.cpp:394] loss <- ip3_ip3_0_split_1
I0327 21:50:12.241286 19789 net.cpp:394] loss <- label_mnist_1_split_1
I0327 21:50:12.241289 19789 net.cpp:356] loss -> loss
I0327 21:50:12.241291 19789 net.cpp:96] Setting up loss
I0327 21:50:12.241298 19789 net.cpp:103] Top shape: 1 1 1 1 (1)
I0327 21:50:12.241300 19789 net.cpp:109]     with loss weight 1
I0327 21:50:12.241328 19789 net.cpp:170] loss needs backward computation.
I0327 21:50:12.241332 19789 net.cpp:172] accuracy does not need backward computation.
I0327 21:50:12.241333 19789 net.cpp:170] ip3_ip3_0_split needs backward computation.
I0327 21:50:12.241334 19789 net.cpp:170] ip3 needs backward computation.
I0327 21:50:12.241345 19789 net.cpp:170] dropout needs backward computation.
…
I0327 21:50:12.241926 19789 net.cpp:275] The NetState phase (1) differed from the phase (0) specified by a rule in layer mnist
I0327 21:50:12.242032 19789 net.cpp:39] Initializing net from parameters: 
name: "RetinopathyNet"
layers {
  top: "data"
  top: "label"
  name: "mnist"
  type: DATA
  data_param {
    source: "/home/niko/datasets/DiabeticRetinopathyDetection/processed/run-normal/diabetic_retinopathy_val_lmdb"
    batch_size: 50
    backend: LMDB
  }
  include {
    phase: TEST
  }
  transform_param {
    mirror: true
    crop_size: 220
    mean_file: "/home/niko/datasets/DiabeticRetinopathyDetection/processed/run-normal/diabetic_retinopathy_mean.binaryproto"
  }
}
layers {
  bottom: "data"
  top: "conv1"
  name: "conv1"
  type: CONVOLUTION
  blobs_lr: 1
  blobs_lr: 2
  weight_decay: 1
  weight_decay: 0
  convolution_param {
    num_output: 48
    kernel_size: 7
    stride: 4
    weight_filler {
      type: "xavier"
    }
    bias_filler {
      type: "constant"
      value: 0
    }
  }
}
layers {
  bottom: "conv1"
  top: "conv1"
  name: "relu1"
  type: RELU
}
layers {
  bottom: "conv1"
  top: "norm1"
  name: "norm1"
  type: LRN
  lrn_param {
    local_size: 5
    alpha: 0.0001
    beta: 0.75
  }
}
layers {
  bottom: "norm1"
  top: "pool1"
  name: "pool1"
  type: POOLING
  pooling_param {
    pool: MAX
    kernel_size: 3
    stride: 2
  }
}
layers {
  bottom: "pool1"
  top: "conv2"
  name: "conv2"
  type: CONVOLUTION
  blobs_lr: 1
  blobs_lr: 2
  weight_decay: 1
  weight_decay: 0
  convolution_param {
    num_output: 96
    kernel_size: 7
    group: 2
    stride: 1
    weight_filler {
      type: "xavier"
    }
    bias_filler {
      type: "constant"
      value: 1
    }
  }
}
layers {
  bottom: "conv2"
  top: "conv2"
  name: "relu2"
  type: RELU
}
layers {
  bottom: "conv2"
  top: "norm2"
  name: "norm2"
  type: LRN
  lrn_param {
    local_size: 5
    alpha: 0.0001
    beta: 0.75
  }
}
layers {
  bottom: "norm2"
  top: "pool2"
  name: "pool2"
  type: POOLING
  pooling_param {
    pool: MAX
    kernel_size: 3
    stride: 2
  }
}
layers {
  bottom: "pool2"
  top: "convx"
  name: "convx"
  type: CONVOLUTION
  blobs_lr: 1
  blobs_lr: 2
  weight_decay: 1
  weight_decay: 0
  convolution_param {
    num_output: 128
    pad: 1
    kernel_size: 5
    group: 2
    weight_filler {
      type: "xavier"
    }
    bias_filler {
      type: "constant"
      value: 0
    }
  }
}
layers {
  bottom: "convx"
  top: "convx"
  name: "relux"
  type: RELU
}
layers {
  bottom: "convx"
  top: "poolx"
  name: "poolx"
  type: POOLING
  pooling_param {
    pool: MAX
    kernel_size: 2
    stride: 2
  }
}
layers {
  bottom: "poolx"
  top: "conv3"
  name: "conv3"
  type: CONVOLUTION
  blobs_lr: 1
  blobs_lr: 2
  weight_decay: 1
  weight_decay: 0
  convolution_param {
    num_output: 256
    pad: 1
    kernel_size: 5
    weight_filler {
      type: "xavier"
    }
    bias_filler {
      type: "constant"
      value: 0
    }
  }
}
layers {
  bottom: "conv3"
  top: "conv3"
  name: "relu3"
  type: RELU
}
layers {
  bottom: "conv3"
  top: "conv4"
  name: "conv4"
  type: CONVOLUTION
  blobs_lr: 1
  blobs_lr: 2
  convolution_param {
    num_output: 384
    pad: 1
    kernel_size: 3
    group: 2
    weight_filler {
      type: "xavier"
    }
    bias_filler {
      type: "constant"
    }
  }
}
layers {
  bottom: "conv4"
  top: "conv4"
  name: "relu4"
  type: RELU
}
layers {
  bottom: "conv4"
  top: "pool4"
  name: "pool4"
  type: POOLING
  pooling_param {
    pool: MAX
    kernel_size: 3
    stride: 2
  }
}
layers {
  bottom: "pool4"
  top: "ip1"
  name: "ip1"
  type: INNER_PRODUCT
  blobs_lr: 1
  blobs_lr: 2
  weight_decay: 1
  weight_decay: 0
  inner_product_param {
    num_output: 512
    weight_filler {
      type: "gaussian"
      std: 0.005
    }
    bias_filler {
      type: "constant"
      value: 0.1
    }
  }
}
layers {
  bottom: "ip1"
  top: "ip1"
  name: "relu5"
  type: RELU
}
layers {
  bottom: "ip1"
  top: "ip1"
  name: "dropout"
  type: DROPOUT
  dropout_param {
    dropout_ratio: 0.5
  }
}
layers {
  bottom: "ip1"
  top: "ip2"
  name: "ip2"
  type: INNER_PRODUCT
  blobs_lr: 1
  blobs_lr: 2
  inner_product_param {
    num_output: 512
    weight_filler {
      type: "gaussian"
      std: 0.005
    }
    bias_filler {
      type: "constant"
      value: 0.1
    }
  }
}
layers {
  bottom: "ip2"
  top: "ip2"
  name: "relu6"
  type: RELU
}
layers {
  bottom: "ip2"
  top: "ip2"
  name: "dropout"
  type: DROPOUT
  dropout_param {
    dropout_ratio: 0.5
  }
}
layers {
  bottom: "ip2"
  top: "ip3"
  name: "ip3"
  type: INNER_PRODUCT
  blobs_lr: 1
  blobs_lr: 2
  weight_decay: 1
  weight_decay: 0
  inner_product_param {
    num_output: 5
    weight_filler {
      type: "gaussian"
      std: 0.01
    }
    bias_filler {
      type: "constant"
      value: 0
    }
  }
}
layers {
  bottom: "ip3"
  bottom: "label"
  top: "accuracy"
  name: "accuracy"
  type: ACCURACY
}
layers {
  bottom: "ip3"
  bottom: "label"
  top: "loss"
  name: "loss"
  type: SOFTMAX_LOSS
}
state {
  phase: TEST
}
I0327 21:50:12.242105 19789 net.cpp:67] Creating Layer mnist
I0327 21:50:12.242107 19789 net.cpp:356] mnist -> data
I0327 21:50:12.242112 19789 net.cpp:356] mnist -> label
I0327 21:50:12.242116 19789 net.cpp:96] Setting up mnist
I0327 21:50:12.259305 19789 data_layer.cpp:68] Opening lmdb /home/niko/datasets/DiabeticRetinopathyDetection/processed/run-normal/diabetic_retinopathy_val_lmdb
I0327 21:50:12.330301 19789 data_layer.cpp:128] output data size: 50,3,220,220
I0327 21:50:12.330314 19789 base_data_layer.cpp:36] Loading mean file from/home/niko/datasets/DiabeticRetinopathyDetection/processed/run-normal/diabetic_retinopathy_mean.binaryproto
I0327 21:50:12.336761 19789 net.cpp:103] Top shape: 50 3 220 220 (7260000)
I0327 21:50:12.336778 19789 net.cpp:103] Top shape: 50 1 1 1 (50)
I0327 21:50:12.336787 19789 net.cpp:67] Creating Layer label_mnist_1_split
I0327 21:50:12.336791 19789 net.cpp:394] label_mnist_1_split <- label
I0327 21:50:12.336796 19789 net.cpp:356] label_mnist_1_split -> label_mnist_1_split_0
I0327 21:50:12.336802 19789 net.cpp:356] label_mnist_1_split -> label_mnist_1_split_1
I0327 21:50:12.336805 19789 net.cpp:96] Setting up label_mnist_1_split
I0327 21:50:12.336808 19789 net.cpp:103] Top shape: 50 1 1 1 (50)
I0327 21:50:12.336809 19789 net.cpp:103] Top shape: 50 1 1 1 (50)
I0327 21:50:12.336848 19789 net.cpp:67] Creating Layer conv1
I0327 21:50:12.336850 19789 net.cpp:394] conv1 <- data
I0327 21:50:12.336864 19789 net.cpp:356] conv1 -> conv1
I0327 21:50:12.336870 19789 net.cpp:96] Setting up conv1
I0327 21:50:12.337005 19789 net.cpp:103] Top shape: 50 48 54 54 (6998400)
I0327 21:50:12.337025 19789 net.cpp:67] Creating Layer relu1
I0327 21:50:12.337028 19789 net.cpp:394] relu1 <- conv1
I0327 21:50:12.337030 19789 net.cpp:345] relu1 -> conv1 (in-place)
I0327 21:50:12.337033 19789 net.cpp:96] Setting up relu1
I0327 21:50:12.337036 19789 net.cpp:103] Top shape: 50 48 54 54 (6998400)
I0327 21:50:12.337040 19789 net.cpp:67] Creating Layer norm1
I0327 21:50:12.337044 19789 net.cpp:394] norm1 <- conv1
I0327 21:50:12.337048 19789 net.cpp:356] norm1 -> norm1
I0327 21:50:12.337060 19789 net.cpp:96] Setting up norm1
I0327 21:50:12.337064 19789 net.cpp:103] Top shape: 50 48 54 54 (6998400)
I0327 21:50:12.337066 19789 net.cpp:67] Creating Layer pool1
I0327 21:50:12.337069 19789 net.cpp:394] pool1 <- norm1
I0327 21:50:12.337070 19789 net.cpp:356] pool1 -> pool1
I0327 21:50:12.337082 19789 net.cpp:96] Setting up pool1
I0327 21:50:12.337087 19789 net.cpp:103] Top shape: 50 48 27 27 (1749600)
I0327 21:50:12.337090 19789 net.cpp:67] Creating Layer conv2
I0327 21:50:12.337092 19789 net.cpp:394] conv2 <- pool1
I0327 21:50:12.337095 19789 net.cpp:356] conv2 -> conv2
I0327 21:50:12.337098 19789 net.cpp:96] Setting up conv2
I0327 21:50:12.337679 19789 net.cpp:103] Top shape: 50 96 21 21 (2116800)
I0327 21:50:12.337687 19789 net.cpp:67] Creating Layer relu2
I0327 21:50:12.337689 19789 net.cpp:394] relu2 <- conv2
I0327 21:50:12.337692 19789 net.cpp:345] relu2 -> conv2 (in-place)
I0327 21:50:12.337694 19789 net.cpp:96] Setting up relu2
I0327 21:50:12.337697 19789 net.cpp:103] Top shape: 50 96 21 21 (2116800)
I0327 21:50:12.337700 19789 net.cpp:67] Creating Layer norm2
I0327 21:50:12.337702 19789 net.cpp:394] norm2 <- conv2
I0327 21:50:12.337704 19789 net.cpp:356] norm2 -> norm2
I0327 21:50:12.337718 19789 net.cpp:96] Setting up norm2
I0327 21:50:12.337720 19789 net.cpp:103] Top shape: 50 96 21 21 (2116800)
I0327 21:50:12.337723 19789 net.cpp:67] Creating Layer pool2
I0327 21:50:12.337724 19789 net.cpp:394] pool2 <- norm2
I0327 21:50:12.337728 19789 net.cpp:356] pool2 -> pool2
I0327 21:50:12.337730 19789 net.cpp:96] Setting up pool2
I0327 21:50:12.337733 19789 net.cpp:103] Top shape: 50 96 10 10 (480000)
I0327 21:50:12.337736 19789 net.cpp:67] Creating Layer convx
I0327 21:50:12.337738 19789 net.cpp:394] convx <- pool2
I0327 21:50:12.337740 19789 net.cpp:356] convx -> convx
I0327 21:50:12.337743 19789 net.cpp:96] Setting up convx
I0327 21:50:12.338776 19789 net.cpp:103] Top shape: 50 128 8 8 (409600)
I0327 21:50:12.338788 19789 net.cpp:67] Creating Layer relux
I0327 21:50:12.338790 19789 net.cpp:394] relux <- convx
I0327 21:50:12.338793 19789 net.cpp:345] relux -> convx (in-place)
I0327 21:50:12.338796 19789 net.cpp:96] Setting up relux
I0327 21:50:12.338799 19789 net.cpp:103] Top shape: 50 128 8 8 (409600)
I0327 21:50:12.338803 19789 net.cpp:67] Creating Layer poolx
I0327 21:50:12.338804 19789 net.cpp:394] poolx <- convx
I0327 21:50:12.338816 19789 net.cpp:356] poolx -> poolx
I0327 21:50:12.338819 19789 net.cpp:96] Setting up poolx
I0327 21:50:12.338824 19789 net.cpp:103] Top shape: 50 128 4 4 (102400)
I0327 21:50:12.338827 19789 net.cpp:67] Creating Layer conv3
I0327 21:50:12.338829 19789 net.cpp:394] conv3 <- poolx
I0327 21:50:12.338832 19789 net.cpp:356] conv3 -> conv3
I0327 21:50:12.338835 19789 net.cpp:96] Setting up conv3
I0327 21:50:12.343050 19789 net.cpp:103] Top shape: 50 256 2 2 (51200)
I0327 21:50:12.343062 19789 net.cpp:67] Creating Layer relu3
I0327 21:50:12.343065 19789 net.cpp:394] relu3 <- conv3
I0327 21:50:12.343068 19789 net.cpp:345] relu3 -> conv3 (in-place)
I0327 21:50:12.343072 19789 net.cpp:96] Setting up relu3
I0327 21:50:12.343075 19789 net.cpp:103] Top shape: 50 256 2 2 (51200)
I0327 21:50:12.343081 19789 net.cpp:67] Creating Layer conv4
I0327 21:50:12.343085 19789 net.cpp:394] conv4 <- conv3
I0327 21:50:12.343112 19789 net.cpp:356] conv4 -> conv4
I0327 21:50:12.343119 19789 net.cpp:96] Setting up conv4
I0327 21:50:12.345397 19789 net.cpp:103] Top shape: 50 384 2 2 (76800)
I0327 21:50:12.345412 19789 net.cpp:67] Creating Layer relu4
I0327 21:50:12.345413 19789 net.cpp:394] relu4 <- conv4
I0327 21:50:12.345417 19789 net.cpp:345] relu4 -> conv4 (in-place)
I0327 21:50:12.345420 19789 net.cpp:96] Setting up relu4
I0327 21:50:12.345424 19789 net.cpp:103] Top shape: 50 384 2 2 (76800)
I0327 21:50:12.345428 19789 net.cpp:67] Creating Layer pool4
I0327 21:50:12.345432 19789 net.cpp:394] pool4 <- conv4
I0327 21:50:12.345435 19789 net.cpp:356] pool4 -> pool4
I0327 21:50:12.345440 19789 net.cpp:96] Setting up pool4
I0327 21:50:12.345448 19789 net.cpp:103] Top shape: 50 384 1 1 (19200)
I0327 21:50:12.345455 19789 net.cpp:67] Creating Layer ip1
I0327 21:50:12.345459 19789 net.cpp:394] ip1 <- pool4
I0327 21:50:12.345465 19789 net.cpp:356] ip1 -> ip1
I0327 21:50:12.345470 19789 net.cpp:96] Setting up ip1
I0327 21:50:12.349870 19789 net.cpp:103] Top shape: 50 512 1 1 (25600)
I0327 21:50:12.349894 19789 net.cpp:67] Creating Layer relu5
I0327 21:50:12.349895 19789 net.cpp:394] relu5 <- ip1
I0327 21:50:12.349899 19789 net.cpp:345] relu5 -> ip1 (in-place)
I0327 21:50:12.349902 19789 net.cpp:96] Setting up relu5
I0327 21:50:12.349908 19789 net.cpp:103] Top shape: 50 512 1 1 (25600)
I0327 21:50:12.349915 19789 net.cpp:67] Creating Layer dropout
I0327 21:50:12.349917 19789 net.cpp:394] dropout <- ip1
I0327 21:50:12.349921 19789 net.cpp:345] dropout -> ip1 (in-place)
I0327 21:50:12.349926 19789 net.cpp:96] Setting up dropout
I0327 21:50:12.349931 19789 net.cpp:103] Top shape: 50 512 1 1 (25600)
I0327 21:50:12.349936 19789 net.cpp:67] Creating Layer ip2
I0327 21:50:12.349938 19789 net.cpp:394] ip2 <- ip1
I0327 21:50:12.349944 19789 net.cpp:356] ip2 -> ip2
I0327 21:50:12.349956 19789 net.cpp:96] Setting up ip2
I0327 21:50:12.356101 19789 net.cpp:103] Top shape: 50 512 1 1 (25600)
I0327 21:50:12.356135 19789 net.cpp:67] Creating Layer relu6
I0327 21:50:12.356140 19789 net.cpp:394] relu6 <- ip2
I0327 21:50:12.356147 19789 net.cpp:345] relu6 -> ip2 (in-place)
I0327 21:50:12.356153 19789 net.cpp:96] Setting up relu6
I0327 21:50:12.356165 19789 net.cpp:103] Top shape: 50 512 1 1 (25600)
I0327 21:50:12.356170 19789 net.cpp:67] Creating Layer dropout
I0327 21:50:12.356174 19789 net.cpp:394] dropout <- ip2
I0327 21:50:12.356180 19789 net.cpp:345] dropout -> ip2 (in-place)
I0327 21:50:12.356185 19789 net.cpp:96] Setting up dropout
I0327 21:50:12.356189 19789 net.cpp:103] Top shape: 50 512 1 1 (25600)
I0327 21:50:12.356196 19789 net.cpp:67] Creating Layer ip3
I0327 21:50:12.356199 19789 net.cpp:394] ip3 <- ip2
I0327 21:50:12.356204 19789 net.cpp:356] ip3 -> ip3
I0327 21:50:12.356211 19789 net.cpp:96] Setting up ip3
I0327 21:50:12.356302 19789 net.cpp:103] Top shape: 50 5 1 1 (250)
I0327 21:50:12.356319 19789 net.cpp:67] Creating Layer ip3_ip3_0_split
I0327 21:50:12.356323 19789 net.cpp:394] ip3_ip3_0_split <- ip3
I0327 21:50:12.356328 19789 net.cpp:356] ip3_ip3_0_split -> ip3_ip3_0_split_0
I0327 21:50:12.356334 19789 net.cpp:356] ip3_ip3_0_split -> ip3_ip3_0_split_1
I0327 21:50:12.356339 19789 net.cpp:96] Setting up ip3_ip3_0_split
I0327 21:50:12.356343 19789 net.cpp:103] Top shape: 50 5 1 1 (250)
I0327 21:50:12.356345 19789 net.cpp:103] Top shape: 50 5 1 1 (250)
I0327 21:50:12.356350 19789 net.cpp:67] Creating Layer accuracy
I0327 21:50:12.356353 19789 net.cpp:394] accuracy <- ip3_ip3_0_split_0
I0327 21:50:12.356356 19789 net.cpp:394] accuracy <- label_mnist_1_split_0
I0327 21:50:12.356361 19789 net.cpp:356] accuracy -> accuracy
I0327 21:50:12.356365 19789 net.cpp:96] Setting up accuracy
I0327 21:50:12.356370 19789 net.cpp:103] Top shape: 1 1 1 1 (1)
I0327 21:50:12.356376 19789 net.cpp:67] Creating Layer loss
I0327 21:50:12.356380 19789 net.cpp:394] loss <- ip3_ip3_0_split_1
I0327 21:50:12.356384 19789 net.cpp:394] loss <- label_mnist_1_split_1
I0327 21:50:12.356389 19789 net.cpp:356] loss -> loss
I0327 21:50:12.356394 19789 net.cpp:96] Setting up loss
I0327 21:50:12.356427 19789 net.cpp:103] Top shape: 1 1 1 1 (1)
I0327 21:50:12.356431 19789 net.cpp:109]     with loss weight 1
I0327 21:50:12.356451 19789 net.cpp:170] loss needs backward computation.
I0327 21:50:12.356454 19789 net.cpp:172] accuracy does not need backward computation.
I0327 21:50:12.356457 19789 net.cpp:170] ip3_ip3_0_split needs backward computation.
I0327 21:50:12.356462 19789 net.cpp:170] ip3 needs backward computation.
I0327 21:50:12.356464 19789 net.cpp:170] dropout needs backward computation.
…
