…
I0325 06:37:46.165277 11776 net.cpp:275] The NetState phase (0) differed from the phase (1) specified by a rule in layer mnist
I0325 06:37:46.165392 11776 net.cpp:39] Initializing net from parameters: 
name: "LeNet"
layers {
  top: "data"
  top: "label"
  name: "mnist"
  type: DATA
  data_param {
    source: "/home/niko/datasets/DiabeticRetinopathyDetection/processed/run-stretch/diabetic_retinopathy_train_lmdb"
    batch_size: 250
    backend: LMDB
  }
  include {
    phase: TRAIN
  }
  transform_param {
    mirror: true
    crop_size: 227
    mean_file: "/home/niko/datasets/DiabeticRetinopathyDetection/processed/run-stretch/diabetic_retinopathy_mean.binaryproto"
  }
}
layers {
  bottom: "data"
  top: "conv1"
  name: "conv1"
  type: CONVOLUTION
  blobs_lr: 1
  blobs_lr: 2
  weight_decay: 1
  weight_decay: 0
  convolution_param {
    num_output: 24
    kernel_size: 11
    stride: 4
    weight_filler {
      type: "xavier"
    }
    bias_filler {
      type: "constant"
      value: 0
    }
  }
}
layers {
  bottom: "conv1"
  top: "conv1"
  name: "relu1"
  type: RELU
}
layers {
  bottom: "conv1"
  top: "norm1"
  name: "norm1"
  type: LRN
  lrn_param {
    local_size: 5
    alpha: 0.0001
    beta: 0.75
  }
}
layers {
  bottom: "norm1"
  top: "pool1"
  name: "pool1"
  type: POOLING
  pooling_param {
    pool: MAX
    kernel_size: 2
    stride: 2
  }
}
layers {
  bottom: "pool1"
  top: "conv2"
  name: "conv2"
  type: CONVOLUTION
  blobs_lr: 1
  blobs_lr: 2
  weight_decay: 1
  weight_decay: 0
  convolution_param {
    num_output: 96
    kernel_size: 9
    stride: 1
    weight_filler {
      type: "xavier"
    }
    bias_filler {
      type: "constant"
      value: 1
    }
  }
}
layers {
  bottom: "conv2"
  top: "conv2"
  name: "relu2"
  type: RELU
}
layers {
  bottom: "conv2"
  top: "norm2"
  name: "norm2"
  type: LRN
  lrn_param {
    local_size: 5
    alpha: 0.0001
    beta: 0.75
  }
}
layers {
  bottom: "norm2"
  top: "pool2"
  name: "pool2"
  type: POOLING
  pooling_param {
    pool: MAX
    kernel_size: 3
    stride: 2
  }
}
layers {
  bottom: "pool2"
  top: "conv3"
  name: "conv3"
  type: CONVOLUTION
  blobs_lr: 1
  blobs_lr: 2
  weight_decay: 1
  weight_decay: 0
  convolution_param {
    num_output: 256
    pad: 1
    kernel_size: 5
    weight_filler {
      type: "xavier"
    }
    bias_filler {
      type: "constant"
      value: 0
    }
  }
}
layers {
  bottom: "conv3"
  top: "conv3"
  name: "relu3"
  type: RELU
}
layers {
  bottom: "conv3"
  top: "conv4"
  name: "conv4"
  type: CONVOLUTION
  blobs_lr: 1
  blobs_lr: 2
  convolution_param {
    num_output: 384
    pad: 1
    kernel_size: 3
    group: 2
    weight_filler {
      type: "xavier"
    }
    bias_filler {
      type: "constant"
    }
  }
}
layers {
  bottom: "conv4"
  top: "conv4"
  name: "relu4"
  type: RELU
}
layers {
  bottom: "conv4"
  top: "pool4"
  name: "pool4"
  type: POOLING
  pooling_param {
    pool: MAX
    kernel_size: 3
    stride: 2
  }
}
layers {
  bottom: "pool4"
  top: "ip1"
  name: "ip1"
  type: INNER_PRODUCT
  blobs_lr: 1
  blobs_lr: 2
  weight_decay: 1
  weight_decay: 0
  inner_product_param {
    num_output: 512
    weight_filler {
      type: "gaussian"
      std: 0.005
    }
    bias_filler {
      type: "constant"
      value: 0.1
    }
  }
}
layers {
  bottom: "ip1"
  top: "ip1"
  name: "relu5"
  type: SIGMOID
}
layers {
  bottom: "ip1"
  top: "ip2"
  name: "ip2"
  type: INNER_PRODUCT
  blobs_lr: 1
  blobs_lr: 2
  inner_product_param {
    num_output: 512
    weight_filler {
      type: "gaussian"
      std: 0.005
    }
    bias_filler {
      type: "constant"
      value: 0.1
    }
  }
}
layers {
  bottom: "ip2"
  top: "ip2"
  name: "relu6"
  type: SIGMOID
}
layers {
  bottom: "ip2"
  top: "ip3"
  name: "ip3"
  type: INNER_PRODUCT
  blobs_lr: 1
  blobs_lr: 2
  weight_decay: 1
  weight_decay: 0
  inner_product_param {
    num_output: 5
    weight_filler {
      type: "gaussian"
      std: 0.01
    }
    bias_filler {
      type: "constant"
      value: 0
    }
  }
}
layers {
  bottom: "ip3"
  bottom: "label"
  top: "accuracy"
  name: "accuracy"
  type: ACCURACY
}
layers {
  bottom: "ip3"
  bottom: "label"
  top: "loss"
  name: "loss"
  type: SOFTMAX_LOSS
}
state {
  phase: TRAIN
}
I0325 06:37:46.165524 11776 net.cpp:67] Creating Layer mnist
I0325 06:37:46.165529 11776 net.cpp:356] mnist -> data
I0325 06:37:46.165539 11776 net.cpp:356] mnist -> label
I0325 06:37:46.165546 11776 net.cpp:96] Setting up mnist
I0325 06:37:46.206182 11776 data_layer.cpp:68] Opening lmdb /home/niko/datasets/DiabeticRetinopathyDetection/processed/run-stretch/diabetic_retinopathy_train_lmdb
I0325 06:37:46.240283 11776 data_layer.cpp:128] output data size: 250,3,227,227
I0325 06:37:46.240300 11776 base_data_layer.cpp:36] Loading mean file from/home/niko/datasets/DiabeticRetinopathyDetection/processed/run-stretch/diabetic_retinopathy_mean.binaryproto
I0325 06:37:46.294412 11776 net.cpp:103] Top shape: 250 3 227 227 (38646750)
I0325 06:37:46.294440 11776 net.cpp:103] Top shape: 250 1 1 1 (250)
I0325 06:37:46.294447 11776 net.cpp:67] Creating Layer label_mnist_1_split
I0325 06:37:46.294450 11776 net.cpp:394] label_mnist_1_split <- label
I0325 06:37:46.294471 11776 net.cpp:356] label_mnist_1_split -> label_mnist_1_split_0
I0325 06:37:46.294479 11776 net.cpp:356] label_mnist_1_split -> label_mnist_1_split_1
I0325 06:37:46.294484 11776 net.cpp:96] Setting up label_mnist_1_split
I0325 06:37:46.294488 11776 net.cpp:103] Top shape: 250 1 1 1 (250)
I0325 06:37:46.294491 11776 net.cpp:103] Top shape: 250 1 1 1 (250)
I0325 06:37:46.294495 11776 net.cpp:67] Creating Layer conv1
I0325 06:37:46.294497 11776 net.cpp:394] conv1 <- data
I0325 06:37:46.294500 11776 net.cpp:356] conv1 -> conv1
I0325 06:37:46.294505 11776 net.cpp:96] Setting up conv1
I0325 06:37:46.610924 11776 net.cpp:103] Top shape: 250 24 55 55 (18150000)
I0325 06:37:46.610955 11776 net.cpp:67] Creating Layer relu1
I0325 06:37:46.610960 11776 net.cpp:394] relu1 <- conv1
I0325 06:37:46.610963 11776 net.cpp:345] relu1 -> conv1 (in-place)
I0325 06:37:46.610968 11776 net.cpp:96] Setting up relu1
I0325 06:37:46.610973 11776 net.cpp:103] Top shape: 250 24 55 55 (18150000)
I0325 06:37:46.610987 11776 net.cpp:67] Creating Layer norm1
I0325 06:37:46.610990 11776 net.cpp:394] norm1 <- conv1
I0325 06:37:46.610992 11776 net.cpp:356] norm1 -> norm1
I0325 06:37:46.610996 11776 net.cpp:96] Setting up norm1
I0325 06:37:46.611001 11776 net.cpp:103] Top shape: 250 24 55 55 (18150000)
I0325 06:37:46.611003 11776 net.cpp:67] Creating Layer pool1
I0325 06:37:46.611006 11776 net.cpp:394] pool1 <- norm1
I0325 06:37:46.611008 11776 net.cpp:356] pool1 -> pool1
I0325 06:37:46.611011 11776 net.cpp:96] Setting up pool1
I0325 06:37:46.611022 11776 net.cpp:103] Top shape: 250 24 28 28 (4704000)
I0325 06:37:46.611032 11776 net.cpp:67] Creating Layer conv2
I0325 06:37:46.611034 11776 net.cpp:394] conv2 <- pool1
I0325 06:37:46.611037 11776 net.cpp:356] conv2 -> conv2
I0325 06:37:46.611042 11776 net.cpp:96] Setting up conv2
I0325 06:37:46.612094 11776 net.cpp:103] Top shape: 250 96 20 20 (9600000)
I0325 06:37:46.612107 11776 net.cpp:67] Creating Layer relu2
I0325 06:37:46.612108 11776 net.cpp:394] relu2 <- conv2
I0325 06:37:46.612112 11776 net.cpp:345] relu2 -> conv2 (in-place)
I0325 06:37:46.612115 11776 net.cpp:96] Setting up relu2
I0325 06:37:46.612118 11776 net.cpp:103] Top shape: 250 96 20 20 (9600000)
I0325 06:37:46.612123 11776 net.cpp:67] Creating Layer norm2
I0325 06:37:46.612133 11776 net.cpp:394] norm2 <- conv2
I0325 06:37:46.612164 11776 net.cpp:356] norm2 -> norm2
I0325 06:37:46.612169 11776 net.cpp:96] Setting up norm2
I0325 06:37:46.612172 11776 net.cpp:103] Top shape: 250 96 20 20 (9600000)
I0325 06:37:46.612176 11776 net.cpp:67] Creating Layer pool2
I0325 06:37:46.612181 11776 net.cpp:394] pool2 <- norm2
I0325 06:37:46.612185 11776 net.cpp:356] pool2 -> pool2
I0325 06:37:46.612187 11776 net.cpp:96] Setting up pool2
I0325 06:37:46.612191 11776 net.cpp:103] Top shape: 250 96 10 10 (2400000)
I0325 06:37:46.612195 11776 net.cpp:67] Creating Layer conv3
I0325 06:37:46.612196 11776 net.cpp:394] conv3 <- pool2
I0325 06:37:46.612200 11776 net.cpp:356] conv3 -> conv3
I0325 06:37:46.612212 11776 net.cpp:96] Setting up conv3
I0325 06:37:46.615295 11776 net.cpp:103] Top shape: 250 256 8 8 (4096000)
I0325 06:37:46.615305 11776 net.cpp:67] Creating Layer relu3
I0325 06:37:46.615309 11776 net.cpp:394] relu3 <- conv3
I0325 06:37:46.615313 11776 net.cpp:345] relu3 -> conv3 (in-place)
I0325 06:37:46.615315 11776 net.cpp:96] Setting up relu3
I0325 06:37:46.615319 11776 net.cpp:103] Top shape: 250 256 8 8 (4096000)
I0325 06:37:46.615322 11776 net.cpp:67] Creating Layer conv4
I0325 06:37:46.615324 11776 net.cpp:394] conv4 <- conv3
I0325 06:37:46.615337 11776 net.cpp:356] conv4 -> conv4
I0325 06:37:46.615340 11776 net.cpp:96] Setting up conv4
I0325 06:37:46.617802 11776 net.cpp:103] Top shape: 250 384 8 8 (6144000)
I0325 06:37:46.617815 11776 net.cpp:67] Creating Layer relu4
I0325 06:37:46.617818 11776 net.cpp:394] relu4 <- conv4
I0325 06:37:46.617823 11776 net.cpp:345] relu4 -> conv4 (in-place)
I0325 06:37:46.617827 11776 net.cpp:96] Setting up relu4
I0325 06:37:46.617831 11776 net.cpp:103] Top shape: 250 384 8 8 (6144000)
I0325 06:37:46.617846 11776 net.cpp:67] Creating Layer pool4
I0325 06:37:46.617849 11776 net.cpp:394] pool4 <- conv4
I0325 06:37:46.617853 11776 net.cpp:356] pool4 -> pool4
I0325 06:37:46.617858 11776 net.cpp:96] Setting up pool4
I0325 06:37:46.617864 11776 net.cpp:103] Top shape: 250 384 4 4 (1536000)
I0325 06:37:46.617871 11776 net.cpp:67] Creating Layer ip1
I0325 06:37:46.617876 11776 net.cpp:394] ip1 <- pool4
I0325 06:37:46.617879 11776 net.cpp:356] ip1 -> ip1
I0325 06:37:46.617884 11776 net.cpp:96] Setting up ip1
I0325 06:37:46.686920 11776 net.cpp:103] Top shape: 250 512 1 1 (128000)
I0325 06:37:46.686947 11776 net.cpp:67] Creating Layer relu5
I0325 06:37:46.686950 11776 net.cpp:394] relu5 <- ip1
I0325 06:37:46.686955 11776 net.cpp:345] relu5 -> ip1 (in-place)
I0325 06:37:46.686960 11776 net.cpp:96] Setting up relu5
I0325 06:37:46.686982 11776 net.cpp:103] Top shape: 250 512 1 1 (128000)
I0325 06:37:46.686990 11776 net.cpp:67] Creating Layer ip2
I0325 06:37:46.686992 11776 net.cpp:394] ip2 <- ip1
I0325 06:37:46.686996 11776 net.cpp:356] ip2 -> ip2
I0325 06:37:46.687001 11776 net.cpp:96] Setting up ip2
I0325 06:37:46.692225 11776 net.cpp:103] Top shape: 250 512 1 1 (128000)
I0325 06:37:46.692234 11776 net.cpp:67] Creating Layer relu6
I0325 06:37:46.692236 11776 net.cpp:394] relu6 <- ip2
I0325 06:37:46.692239 11776 net.cpp:345] relu6 -> ip2 (in-place)
I0325 06:37:46.692241 11776 net.cpp:96] Setting up relu6
I0325 06:37:46.692245 11776 net.cpp:103] Top shape: 250 512 1 1 (128000)
I0325 06:37:46.692250 11776 net.cpp:67] Creating Layer ip3
I0325 06:37:46.692251 11776 net.cpp:394] ip3 <- ip2
I0325 06:37:46.692265 11776 net.cpp:356] ip3 -> ip3
I0325 06:37:46.692267 11776 net.cpp:96] Setting up ip3
I0325 06:37:46.692334 11776 net.cpp:103] Top shape: 250 5 1 1 (1250)
I0325 06:37:46.692339 11776 net.cpp:67] Creating Layer ip3_ip3_0_split
I0325 06:37:46.692342 11776 net.cpp:394] ip3_ip3_0_split <- ip3
I0325 06:37:46.692344 11776 net.cpp:356] ip3_ip3_0_split -> ip3_ip3_0_split_0
I0325 06:37:46.692349 11776 net.cpp:356] ip3_ip3_0_split -> ip3_ip3_0_split_1
I0325 06:37:46.692353 11776 net.cpp:96] Setting up ip3_ip3_0_split
I0325 06:37:46.692355 11776 net.cpp:103] Top shape: 250 5 1 1 (1250)
I0325 06:37:46.692356 11776 net.cpp:103] Top shape: 250 5 1 1 (1250)
I0325 06:37:46.692370 11776 net.cpp:67] Creating Layer accuracy
I0325 06:37:46.692386 11776 net.cpp:394] accuracy <- ip3_ip3_0_split_0
I0325 06:37:46.692399 11776 net.cpp:394] accuracy <- label_mnist_1_split_0
I0325 06:37:46.692404 11776 net.cpp:356] accuracy -> accuracy
I0325 06:37:46.692406 11776 net.cpp:96] Setting up accuracy
I0325 06:37:46.692411 11776 net.cpp:103] Top shape: 1 1 1 1 (1)
I0325 06:37:46.692415 11776 net.cpp:67] Creating Layer loss
I0325 06:37:46.692417 11776 net.cpp:394] loss <- ip3_ip3_0_split_1
I0325 06:37:46.692420 11776 net.cpp:394] loss <- label_mnist_1_split_1
I0325 06:37:46.692422 11776 net.cpp:356] loss -> loss
I0325 06:37:46.692425 11776 net.cpp:96] Setting up loss
I0325 06:37:46.692432 11776 net.cpp:103] Top shape: 1 1 1 1 (1)
I0325 06:37:46.692446 11776 net.cpp:109]     with loss weight 1
I0325 06:37:46.692478 11776 net.cpp:170] loss needs backward computation.
I0325 06:37:46.692481 11776 net.cpp:172] accuracy does not need backward computation.
I0325 06:37:46.692481 11776 net.cpp:170] ip3_ip3_0_split needs backward computation.
I0325 06:37:46.692483 11776 net.cpp:170] ip3 needs backward computation.
I0325 06:37:46.692486 11776 net.cpp:170] relu6 needs backward computation.
…
I0325 06:37:46.692953 11776 net.cpp:275] The NetState phase (1) differed from the phase (0) specified by a rule in layer mnist
I0325 06:37:46.693047 11776 net.cpp:39] Initializing net from parameters: 
name: "LeNet"
layers {
  top: "data"
  top: "label"
  name: "mnist"
  type: DATA
  data_param {
    source: "/home/niko/datasets/DiabeticRetinopathyDetection/processed/run-stretch/diabetic_retinopathy_val_lmdb"
    batch_size: 50
    backend: LMDB
  }
  include {
    phase: TEST
  }
  transform_param {
    mirror: true
    crop_size: 227
    mean_file: "/home/niko/datasets/DiabeticRetinopathyDetection/processed/run-stretch/diabetic_retinopathy_mean.binaryproto"
  }
}
layers {
  bottom: "data"
  top: "conv1"
  name: "conv1"
  type: CONVOLUTION
  blobs_lr: 1
  blobs_lr: 2
  weight_decay: 1
  weight_decay: 0
  convolution_param {
    num_output: 24
    kernel_size: 11
    stride: 4
    weight_filler {
      type: "xavier"
    }
    bias_filler {
      type: "constant"
      value: 0
    }
  }
}
layers {
  bottom: "conv1"
  top: "conv1"
  name: "relu1"
  type: RELU
}
layers {
  bottom: "conv1"
  top: "norm1"
  name: "norm1"
  type: LRN
  lrn_param {
    local_size: 5
    alpha: 0.0001
    beta: 0.75
  }
}
layers {
  bottom: "norm1"
  top: "pool1"
  name: "pool1"
  type: POOLING
  pooling_param {
    pool: MAX
    kernel_size: 2
    stride: 2
  }
}
layers {
  bottom: "pool1"
  top: "conv2"
  name: "conv2"
  type: CONVOLUTION
  blobs_lr: 1
  blobs_lr: 2
  weight_decay: 1
  weight_decay: 0
  convolution_param {
    num_output: 96
    kernel_size: 9
    stride: 1
    weight_filler {
      type: "xavier"
    }
    bias_filler {
      type: "constant"
      value: 1
    }
  }
}
layers {
  bottom: "conv2"
  top: "conv2"
  name: "relu2"
  type: RELU
}
layers {
  bottom: "conv2"
  top: "norm2"
  name: "norm2"
  type: LRN
  lrn_param {
    local_size: 5
    alpha: 0.0001
    beta: 0.75
  }
}
layers {
  bottom: "norm2"
  top: "pool2"
  name: "pool2"
  type: POOLING
  pooling_param {
    pool: MAX
    kernel_size: 3
    stride: 2
  }
}
layers {
  bottom: "pool2"
  top: "conv3"
  name: "conv3"
  type: CONVOLUTION
  blobs_lr: 1
  blobs_lr: 2
  weight_decay: 1
  weight_decay: 0
  convolution_param {
    num_output: 256
    pad: 1
    kernel_size: 5
    weight_filler {
      type: "xavier"
    }
    bias_filler {
      type: "constant"
      value: 0
    }
  }
}
layers {
  bottom: "conv3"
  top: "conv3"
  name: "relu3"
  type: RELU
}
layers {
  bottom: "conv3"
  top: "conv4"
  name: "conv4"
  type: CONVOLUTION
  blobs_lr: 1
  blobs_lr: 2
  convolution_param {
    num_output: 384
    pad: 1
    kernel_size: 3
    group: 2
    weight_filler {
      type: "xavier"
    }
    bias_filler {
      type: "constant"
    }
  }
}
layers {
  bottom: "conv4"
  top: "conv4"
  name: "relu4"
  type: RELU
}
layers {
  bottom: "conv4"
  top: "pool4"
  name: "pool4"
  type: POOLING
  pooling_param {
    pool: MAX
    kernel_size: 3
    stride: 2
  }
}
layers {
  bottom: "pool4"
  top: "ip1"
  name: "ip1"
  type: INNER_PRODUCT
  blobs_lr: 1
  blobs_lr: 2
  weight_decay: 1
  weight_decay: 0
  inner_product_param {
    num_output: 512
    weight_filler {
      type: "gaussian"
      std: 0.005
    }
    bias_filler {
      type: "constant"
      value: 0.1
    }
  }
}
layers {
  bottom: "ip1"
  top: "ip1"
  name: "relu5"
  type: SIGMOID
}
layers {
  bottom: "ip1"
  top: "ip2"
  name: "ip2"
  type: INNER_PRODUCT
  blobs_lr: 1
  blobs_lr: 2
  inner_product_param {
    num_output: 512
    weight_filler {
      type: "gaussian"
      std: 0.005
    }
    bias_filler {
      type: "constant"
      value: 0.1
    }
  }
}
layers {
  bottom: "ip2"
  top: "ip2"
  name: "relu6"
  type: SIGMOID
}
layers {
  bottom: "ip2"
  top: "ip3"
  name: "ip3"
  type: INNER_PRODUCT
  blobs_lr: 1
  blobs_lr: 2
  weight_decay: 1
  weight_decay: 0
  inner_product_param {
    num_output: 5
    weight_filler {
      type: "gaussian"
      std: 0.01
    }
    bias_filler {
      type: "constant"
      value: 0
    }
  }
}
layers {
  bottom: "ip3"
  bottom: "label"
  top: "accuracy"
  name: "accuracy"
  type: ACCURACY
}
layers {
  bottom: "ip3"
  bottom: "label"
  top: "loss"
  name: "loss"
  type: SOFTMAX_LOSS
}
state {
  phase: TEST
}
I0325 06:37:46.693115 11776 net.cpp:67] Creating Layer mnist
I0325 06:37:46.693120 11776 net.cpp:356] mnist -> data
I0325 06:37:46.693125 11776 net.cpp:356] mnist -> label
I0325 06:37:46.693127 11776 net.cpp:96] Setting up mnist
I0325 06:37:46.742223 11776 data_layer.cpp:68] Opening lmdb /home/niko/datasets/DiabeticRetinopathyDetection/processed/run-stretch/diabetic_retinopathy_val_lmdb
I0325 06:37:46.765844 11776 data_layer.cpp:128] output data size: 50,3,227,227
I0325 06:37:46.765863 11776 base_data_layer.cpp:36] Loading mean file from/home/niko/datasets/DiabeticRetinopathyDetection/processed/run-stretch/diabetic_retinopathy_mean.binaryproto
I0325 06:37:46.772969 11776 net.cpp:103] Top shape: 50 3 227 227 (7729350)
I0325 06:37:46.772986 11776 net.cpp:103] Top shape: 50 1 1 1 (50)
I0325 06:37:46.772997 11776 net.cpp:67] Creating Layer label_mnist_1_split
I0325 06:37:46.773026 11776 net.cpp:394] label_mnist_1_split <- label
I0325 06:37:46.773042 11776 net.cpp:356] label_mnist_1_split -> label_mnist_1_split_0
I0325 06:37:46.773051 11776 net.cpp:356] label_mnist_1_split -> label_mnist_1_split_1
I0325 06:37:46.773056 11776 net.cpp:96] Setting up label_mnist_1_split
I0325 06:37:46.773058 11776 net.cpp:103] Top shape: 50 1 1 1 (50)
I0325 06:37:46.773061 11776 net.cpp:103] Top shape: 50 1 1 1 (50)
I0325 06:37:46.773067 11776 net.cpp:67] Creating Layer conv1
I0325 06:37:46.773069 11776 net.cpp:394] conv1 <- data
I0325 06:37:46.773072 11776 net.cpp:356] conv1 -> conv1
I0325 06:37:46.773077 11776 net.cpp:96] Setting up conv1
I0325 06:37:46.773200 11776 net.cpp:103] Top shape: 50 24 55 55 (3630000)
I0325 06:37:46.773211 11776 net.cpp:67] Creating Layer relu1
I0325 06:37:46.773212 11776 net.cpp:394] relu1 <- conv1
I0325 06:37:46.773216 11776 net.cpp:345] relu1 -> conv1 (in-place)
I0325 06:37:46.773218 11776 net.cpp:96] Setting up relu1
I0325 06:37:46.773221 11776 net.cpp:103] Top shape: 50 24 55 55 (3630000)
I0325 06:37:46.773226 11776 net.cpp:67] Creating Layer norm1
I0325 06:37:46.773227 11776 net.cpp:394] norm1 <- conv1
I0325 06:37:46.773231 11776 net.cpp:356] norm1 -> norm1
I0325 06:37:46.773233 11776 net.cpp:96] Setting up norm1
I0325 06:37:46.773236 11776 net.cpp:103] Top shape: 50 24 55 55 (3630000)
I0325 06:37:46.773238 11776 net.cpp:67] Creating Layer pool1
I0325 06:37:46.773241 11776 net.cpp:394] pool1 <- norm1
I0325 06:37:46.773242 11776 net.cpp:356] pool1 -> pool1
I0325 06:37:46.773246 11776 net.cpp:96] Setting up pool1
I0325 06:37:46.773250 11776 net.cpp:103] Top shape: 50 24 28 28 (940800)
I0325 06:37:46.773253 11776 net.cpp:67] Creating Layer conv2
I0325 06:37:46.773255 11776 net.cpp:394] conv2 <- pool1
I0325 06:37:46.773258 11776 net.cpp:356] conv2 -> conv2
I0325 06:37:46.773262 11776 net.cpp:96] Setting up conv2
I0325 06:37:46.774293 11776 net.cpp:103] Top shape: 50 96 20 20 (1920000)
I0325 06:37:46.774313 11776 net.cpp:67] Creating Layer relu2
I0325 06:37:46.774315 11776 net.cpp:394] relu2 <- conv2
I0325 06:37:46.774318 11776 net.cpp:345] relu2 -> conv2 (in-place)
I0325 06:37:46.774322 11776 net.cpp:96] Setting up relu2
I0325 06:37:46.774324 11776 net.cpp:103] Top shape: 50 96 20 20 (1920000)
I0325 06:37:46.774328 11776 net.cpp:67] Creating Layer norm2
I0325 06:37:46.774329 11776 net.cpp:394] norm2 <- conv2
I0325 06:37:46.774333 11776 net.cpp:356] norm2 -> norm2
I0325 06:37:46.774335 11776 net.cpp:96] Setting up norm2
I0325 06:37:46.774338 11776 net.cpp:103] Top shape: 50 96 20 20 (1920000)
I0325 06:37:46.774341 11776 net.cpp:67] Creating Layer pool2
I0325 06:37:46.774343 11776 net.cpp:394] pool2 <- norm2
I0325 06:37:46.774345 11776 net.cpp:356] pool2 -> pool2
I0325 06:37:46.774348 11776 net.cpp:96] Setting up pool2
I0325 06:37:46.774351 11776 net.cpp:103] Top shape: 50 96 10 10 (480000)
I0325 06:37:46.774354 11776 net.cpp:67] Creating Layer conv3
I0325 06:37:46.774366 11776 net.cpp:394] conv3 <- pool2
I0325 06:37:46.774369 11776 net.cpp:356] conv3 -> conv3
I0325 06:37:46.774374 11776 net.cpp:96] Setting up conv3
I0325 06:37:46.777655 11776 net.cpp:103] Top shape: 50 256 8 8 (819200)
I0325 06:37:46.777670 11776 net.cpp:67] Creating Layer relu3
I0325 06:37:46.777673 11776 net.cpp:394] relu3 <- conv3
I0325 06:37:46.777676 11776 net.cpp:345] relu3 -> conv3 (in-place)
I0325 06:37:46.777679 11776 net.cpp:96] Setting up relu3
I0325 06:37:46.777683 11776 net.cpp:103] Top shape: 50 256 8 8 (819200)
I0325 06:37:46.777686 11776 net.cpp:67] Creating Layer conv4
I0325 06:37:46.777698 11776 net.cpp:394] conv4 <- conv3
I0325 06:37:46.777701 11776 net.cpp:356] conv4 -> conv4
I0325 06:37:46.777704 11776 net.cpp:96] Setting up conv4
I0325 06:37:46.780067 11776 net.cpp:103] Top shape: 50 384 8 8 (1228800)
I0325 06:37:46.780076 11776 net.cpp:67] Creating Layer relu4
I0325 06:37:46.780078 11776 net.cpp:394] relu4 <- conv4
I0325 06:37:46.780082 11776 net.cpp:345] relu4 -> conv4 (in-place)
I0325 06:37:46.780086 11776 net.cpp:96] Setting up relu4
I0325 06:37:46.780112 11776 net.cpp:103] Top shape: 50 384 8 8 (1228800)
I0325 06:37:46.780117 11776 net.cpp:67] Creating Layer pool4
I0325 06:37:46.780118 11776 net.cpp:394] pool4 <- conv4
I0325 06:37:46.780122 11776 net.cpp:356] pool4 -> pool4
I0325 06:37:46.780124 11776 net.cpp:96] Setting up pool4
I0325 06:37:46.780128 11776 net.cpp:103] Top shape: 50 384 4 4 (307200)
I0325 06:37:46.780133 11776 net.cpp:67] Creating Layer ip1
I0325 06:37:46.780134 11776 net.cpp:394] ip1 <- pool4
I0325 06:37:46.780138 11776 net.cpp:356] ip1 -> ip1
I0325 06:37:46.780141 11776 net.cpp:96] Setting up ip1
I0325 06:37:46.849619 11776 net.cpp:103] Top shape: 50 512 1 1 (25600)
I0325 06:37:46.849655 11776 net.cpp:67] Creating Layer relu5
I0325 06:37:46.849659 11776 net.cpp:394] relu5 <- ip1
I0325 06:37:46.849665 11776 net.cpp:345] relu5 -> ip1 (in-place)
I0325 06:37:46.849680 11776 net.cpp:96] Setting up relu5
I0325 06:37:46.849690 11776 net.cpp:103] Top shape: 50 512 1 1 (25600)
I0325 06:37:46.849694 11776 net.cpp:67] Creating Layer ip2
I0325 06:37:46.849695 11776 net.cpp:394] ip2 <- ip1
I0325 06:37:46.849699 11776 net.cpp:356] ip2 -> ip2
I0325 06:37:46.849704 11776 net.cpp:96] Setting up ip2
I0325 06:37:46.855736 11776 net.cpp:103] Top shape: 50 512 1 1 (25600)
I0325 06:37:46.855756 11776 net.cpp:67] Creating Layer relu6
I0325 06:37:46.855759 11776 net.cpp:394] relu6 <- ip2
I0325 06:37:46.855763 11776 net.cpp:345] relu6 -> ip2 (in-place)
I0325 06:37:46.855767 11776 net.cpp:96] Setting up relu6
I0325 06:37:46.855780 11776 net.cpp:103] Top shape: 50 512 1 1 (25600)
I0325 06:37:46.855784 11776 net.cpp:67] Creating Layer ip3
I0325 06:37:46.855787 11776 net.cpp:394] ip3 <- ip2
I0325 06:37:46.855789 11776 net.cpp:356] ip3 -> ip3
I0325 06:37:46.855792 11776 net.cpp:96] Setting up ip3
I0325 06:37:46.855872 11776 net.cpp:103] Top shape: 50 5 1 1 (250)
I0325 06:37:46.855877 11776 net.cpp:67] Creating Layer ip3_ip3_0_split
I0325 06:37:46.855890 11776 net.cpp:394] ip3_ip3_0_split <- ip3
I0325 06:37:46.855892 11776 net.cpp:356] ip3_ip3_0_split -> ip3_ip3_0_split_0
I0325 06:37:46.855897 11776 net.cpp:356] ip3_ip3_0_split -> ip3_ip3_0_split_1
I0325 06:37:46.855911 11776 net.cpp:96] Setting up ip3_ip3_0_split
I0325 06:37:46.855913 11776 net.cpp:103] Top shape: 50 5 1 1 (250)
I0325 06:37:46.855916 11776 net.cpp:103] Top shape: 50 5 1 1 (250)
I0325 06:37:46.855918 11776 net.cpp:67] Creating Layer accuracy
I0325 06:37:46.855921 11776 net.cpp:394] accuracy <- ip3_ip3_0_split_0
I0325 06:37:46.855922 11776 net.cpp:394] accuracy <- label_mnist_1_split_0
I0325 06:37:46.855926 11776 net.cpp:356] accuracy -> accuracy
I0325 06:37:46.855929 11776 net.cpp:96] Setting up accuracy
I0325 06:37:46.855931 11776 net.cpp:103] Top shape: 1 1 1 1 (1)
I0325 06:37:46.855934 11776 net.cpp:67] Creating Layer loss
I0325 06:37:46.855937 11776 net.cpp:394] loss <- ip3_ip3_0_split_1
I0325 06:37:46.855938 11776 net.cpp:394] loss <- label_mnist_1_split_1
I0325 06:37:46.855942 11776 net.cpp:356] loss -> loss
I0325 06:37:46.855944 11776 net.cpp:96] Setting up loss
I0325 06:37:46.855948 11776 net.cpp:103] Top shape: 1 1 1 1 (1)
I0325 06:37:46.855950 11776 net.cpp:109]     with loss weight 1
I0325 06:37:46.855959 11776 net.cpp:170] loss needs backward computation.
I0325 06:37:46.855962 11776 net.cpp:172] accuracy does not need backward computation.
I0325 06:37:46.855963 11776 net.cpp:170] ip3_ip3_0_split needs backward computation.
I0325 06:37:46.855965 11776 net.cpp:170] ip3 needs backward computation.
I0325 06:37:46.855967 11776 net.cpp:170] relu6 needs backward computation.
…
