…
I0326 15:06:39.633152  1326 net.cpp:275] The NetState phase (0) differed from the phase (1) specified by a rule in layer mnist
I0326 15:06:39.633275  1326 net.cpp:39] Initializing net from parameters: 
name: "RetinopathyNet"
layers {
  top: "data"
  top: "label"
  name: "mnist"
  type: DATA
  data_param {
    source: "/home/niko/datasets/DiabeticRetinopathyDetection/processed/run-normal/diabetic_retinopathy_train_lmdb"
    batch_size: 250
    backend: LMDB
  }
  include {
    phase: TRAIN
  }
  transform_param {
    mirror: true
    crop_size: 227
    mean_file: "/home/niko/datasets/DiabeticRetinopathyDetection/processed/run-normal/diabetic_retinopathy_mean.binaryproto"
  }
}
layers {
  bottom: "data"
  top: "conv1"
  name: "conv1"
  type: CONVOLUTION
  blobs_lr: 1
  blobs_lr: 2
  weight_decay: 1
  weight_decay: 0
  convolution_param {
    num_output: 24
    kernel_size: 11
    stride: 4
    weight_filler {
      type: "xavier"
    }
    bias_filler {
      type: "constant"
      value: 0
    }
  }
}
layers {
  bottom: "conv1"
  top: "conv1"
  name: "relu1"
  type: RELU
}
layers {
  bottom: "conv1"
  top: "norm1"
  name: "norm1"
  type: LRN
  lrn_param {
    local_size: 5
    alpha: 0.0001
    beta: 0.75
  }
}
layers {
  bottom: "norm1"
  top: "pool1"
  name: "pool1"
  type: POOLING
  pooling_param {
    pool: MAX
    kernel_size: 4
    stride: 3
  }
}
layers {
  bottom: "pool1"
  top: "conv2"
  name: "conv2"
  type: CONVOLUTION
  blobs_lr: 1
  blobs_lr: 2
  weight_decay: 1
  weight_decay: 0
  convolution_param {
    num_output: 96
    kernel_size: 9
    stride: 1
    weight_filler {
      type: "xavier"
    }
    bias_filler {
      type: "constant"
      value: 1
    }
  }
}
layers {
  bottom: "conv2"
  top: "conv2"
  name: "relu2"
  type: RELU
}
layers {
  bottom: "conv2"
  top: "norm2"
  name: "norm2"
  type: LRN
  lrn_param {
    local_size: 5
    alpha: 0.0001
    beta: 0.75
  }
}
layers {
  bottom: "norm2"
  top: "pool2"
  name: "pool2"
  type: POOLING
  pooling_param {
    pool: MAX
    kernel_size: 3
    stride: 2
  }
}
layers {
  bottom: "pool2"
  top: "conv3"
  name: "conv3"
  type: CONVOLUTION
  blobs_lr: 1
  blobs_lr: 2
  weight_decay: 1
  weight_decay: 0
  convolution_param {
    num_output: 256
    pad: 1
    kernel_size: 5
    weight_filler {
      type: "xavier"
    }
    bias_filler {
      type: "constant"
      value: 0
    }
  }
}
layers {
  bottom: "conv3"
  top: "conv3"
  name: "relu3"
  type: RELU
}
layers {
  bottom: "conv3"
  top: "conv4"
  name: "conv4"
  type: CONVOLUTION
  blobs_lr: 1
  blobs_lr: 2
  convolution_param {
    num_output: 384
    pad: 1
    kernel_size: 3
    group: 2
    weight_filler {
      type: "xavier"
    }
    bias_filler {
      type: "constant"
    }
  }
}
layers {
  bottom: "conv4"
  top: "conv4"
  name: "relu4"
  type: RELU
}
layers {
  bottom: "conv4"
  top: "pool4"
  name: "pool4"
  type: POOLING
  pooling_param {
    pool: MAX
    kernel_size: 3
    stride: 2
  }
}
layers {
  bottom: "pool4"
  top: "ip1"
  name: "ip1"
  type: INNER_PRODUCT
  blobs_lr: 1
  blobs_lr: 2
  weight_decay: 1
  weight_decay: 0
  inner_product_param {
    num_output: 512
    weight_filler {
      type: "gaussian"
      std: 0.005
    }
    bias_filler {
      type: "constant"
      value: 0.1
    }
  }
}
layers {
  bottom: "ip1"
  top: "ip1"
  name: "relu5"
  type: RELU
}
layers {
  bottom: "ip1"
  top: "ip2"
  name: "ip2"
  type: INNER_PRODUCT
  blobs_lr: 1
  blobs_lr: 2
  inner_product_param {
    num_output: 512
    weight_filler {
      type: "gaussian"
      std: 0.005
    }
    bias_filler {
      type: "constant"
      value: 0.1
    }
  }
}
layers {
  bottom: "ip2"
  top: "ip2"
  name: "relu6"
  type: RELU
}
layers {
  bottom: "ip2"
  top: "ip3"
  name: "ip3"
  type: INNER_PRODUCT
  blobs_lr: 1
  blobs_lr: 2
  weight_decay: 1
  weight_decay: 0
  inner_product_param {
    num_output: 5
    weight_filler {
      type: "gaussian"
      std: 0.01
    }
    bias_filler {
      type: "constant"
      value: 0
    }
  }
}
layers {
  bottom: "ip3"
  bottom: "label"
  top: "accuracy"
  name: "accuracy"
  type: ACCURACY
}
layers {
  bottom: "ip3"
  bottom: "label"
  top: "loss"
  name: "loss"
  type: SOFTMAX_LOSS
}
state {
  phase: TRAIN
}
I0326 15:06:39.633419  1326 net.cpp:67] Creating Layer mnist
I0326 15:06:39.633427  1326 net.cpp:356] mnist -> data
I0326 15:06:39.633443  1326 net.cpp:356] mnist -> label
I0326 15:06:39.633455  1326 net.cpp:96] Setting up mnist
I0326 15:06:39.633522  1326 data_layer.cpp:68] Opening lmdb /home/niko/datasets/DiabeticRetinopathyDetection/processed/run-normal/diabetic_retinopathy_train_lmdb
I0326 15:06:39.633610  1326 data_layer.cpp:128] output data size: 250,3,227,227
I0326 15:06:39.633616  1326 base_data_layer.cpp:36] Loading mean file from/home/niko/datasets/DiabeticRetinopathyDetection/processed/run-normal/diabetic_retinopathy_mean.binaryproto
I0326 15:06:39.694275  1326 net.cpp:103] Top shape: 250 3 227 227 (38646750)
I0326 15:06:39.694291  1326 net.cpp:103] Top shape: 250 1 1 1 (250)
I0326 15:06:39.694303  1326 net.cpp:67] Creating Layer label_mnist_1_split
I0326 15:06:39.694317  1326 net.cpp:394] label_mnist_1_split <- label
I0326 15:06:39.694344  1326 net.cpp:356] label_mnist_1_split -> label_mnist_1_split_0
I0326 15:06:39.694360  1326 net.cpp:356] label_mnist_1_split -> label_mnist_1_split_1
I0326 15:06:39.694367  1326 net.cpp:96] Setting up label_mnist_1_split
I0326 15:06:39.694373  1326 net.cpp:103] Top shape: 250 1 1 1 (250)
I0326 15:06:39.694376  1326 net.cpp:103] Top shape: 250 1 1 1 (250)
I0326 15:06:39.694386  1326 net.cpp:67] Creating Layer conv1
I0326 15:06:39.694389  1326 net.cpp:394] conv1 <- data
I0326 15:06:39.694396  1326 net.cpp:356] conv1 -> conv1
I0326 15:06:39.694404  1326 net.cpp:96] Setting up conv1
I0326 15:06:39.983530  1326 net.cpp:103] Top shape: 250 24 55 55 (18150000)
I0326 15:06:39.983562  1326 net.cpp:67] Creating Layer relu1
I0326 15:06:39.983568  1326 net.cpp:394] relu1 <- conv1
I0326 15:06:39.983574  1326 net.cpp:345] relu1 -> conv1 (in-place)
I0326 15:06:39.983582  1326 net.cpp:96] Setting up relu1
I0326 15:06:39.983589  1326 net.cpp:103] Top shape: 250 24 55 55 (18150000)
I0326 15:06:39.983607  1326 net.cpp:67] Creating Layer norm1
I0326 15:06:39.983609  1326 net.cpp:394] norm1 <- conv1
I0326 15:06:39.983614  1326 net.cpp:356] norm1 -> norm1
I0326 15:06:39.983620  1326 net.cpp:96] Setting up norm1
I0326 15:06:39.983626  1326 net.cpp:103] Top shape: 250 24 55 55 (18150000)
I0326 15:06:39.983633  1326 net.cpp:67] Creating Layer pool1
I0326 15:06:39.983635  1326 net.cpp:394] pool1 <- norm1
I0326 15:06:39.983640  1326 net.cpp:356] pool1 -> pool1
I0326 15:06:39.983645  1326 net.cpp:96] Setting up pool1
I0326 15:06:39.983671  1326 net.cpp:103] Top shape: 250 24 18 18 (1944000)
I0326 15:06:39.983680  1326 net.cpp:67] Creating Layer conv2
I0326 15:06:39.983682  1326 net.cpp:394] conv2 <- pool1
I0326 15:06:39.983687  1326 net.cpp:356] conv2 -> conv2
I0326 15:06:39.983693  1326 net.cpp:96] Setting up conv2
I0326 15:06:39.984750  1326 net.cpp:103] Top shape: 250 96 10 10 (2400000)
I0326 15:06:39.984766  1326 net.cpp:67] Creating Layer relu2
I0326 15:06:39.984769  1326 net.cpp:394] relu2 <- conv2
I0326 15:06:39.984774  1326 net.cpp:345] relu2 -> conv2 (in-place)
I0326 15:06:39.984779  1326 net.cpp:96] Setting up relu2
I0326 15:06:39.984784  1326 net.cpp:103] Top shape: 250 96 10 10 (2400000)
I0326 15:06:39.984792  1326 net.cpp:67] Creating Layer norm2
I0326 15:06:39.984822  1326 net.cpp:394] norm2 <- conv2
I0326 15:06:39.984828  1326 net.cpp:356] norm2 -> norm2
I0326 15:06:39.984844  1326 net.cpp:96] Setting up norm2
I0326 15:06:39.984858  1326 net.cpp:103] Top shape: 250 96 10 10 (2400000)
I0326 15:06:39.984865  1326 net.cpp:67] Creating Layer pool2
I0326 15:06:39.984869  1326 net.cpp:394] pool2 <- norm2
I0326 15:06:39.984874  1326 net.cpp:356] pool2 -> pool2
I0326 15:06:39.984886  1326 net.cpp:96] Setting up pool2
I0326 15:06:39.984894  1326 net.cpp:103] Top shape: 250 96 5 5 (600000)
I0326 15:06:39.984900  1326 net.cpp:67] Creating Layer conv3
I0326 15:06:39.984905  1326 net.cpp:394] conv3 <- pool2
I0326 15:06:39.984908  1326 net.cpp:356] conv3 -> conv3
I0326 15:06:39.984915  1326 net.cpp:96] Setting up conv3
I0326 15:06:39.988026  1326 net.cpp:103] Top shape: 250 256 3 3 (576000)
I0326 15:06:39.988041  1326 net.cpp:67] Creating Layer relu3
I0326 15:06:39.988045  1326 net.cpp:394] relu3 <- conv3
I0326 15:06:39.988050  1326 net.cpp:345] relu3 -> conv3 (in-place)
I0326 15:06:39.988054  1326 net.cpp:96] Setting up relu3
I0326 15:06:39.988059  1326 net.cpp:103] Top shape: 250 256 3 3 (576000)
I0326 15:06:39.988065  1326 net.cpp:67] Creating Layer conv4
I0326 15:06:39.988068  1326 net.cpp:394] conv4 <- conv3
I0326 15:06:39.988075  1326 net.cpp:356] conv4 -> conv4
I0326 15:06:39.988080  1326 net.cpp:96] Setting up conv4
I0326 15:06:39.990289  1326 net.cpp:103] Top shape: 250 384 3 3 (864000)
I0326 15:06:39.990300  1326 net.cpp:67] Creating Layer relu4
I0326 15:06:39.990303  1326 net.cpp:394] relu4 <- conv4
I0326 15:06:39.990308  1326 net.cpp:345] relu4 -> conv4 (in-place)
I0326 15:06:39.990313  1326 net.cpp:96] Setting up relu4
I0326 15:06:39.990317  1326 net.cpp:103] Top shape: 250 384 3 3 (864000)
I0326 15:06:39.990322  1326 net.cpp:67] Creating Layer pool4
I0326 15:06:39.990325  1326 net.cpp:394] pool4 <- conv4
I0326 15:06:39.990330  1326 net.cpp:356] pool4 -> pool4
I0326 15:06:39.990335  1326 net.cpp:96] Setting up pool4
I0326 15:06:39.990340  1326 net.cpp:103] Top shape: 250 384 1 1 (96000)
I0326 15:06:39.990349  1326 net.cpp:67] Creating Layer ip1
I0326 15:06:39.990355  1326 net.cpp:394] ip1 <- pool4
I0326 15:06:39.990370  1326 net.cpp:356] ip1 -> ip1
I0326 15:06:39.990380  1326 net.cpp:96] Setting up ip1
I0326 15:06:39.994283  1326 net.cpp:103] Top shape: 250 512 1 1 (128000)
I0326 15:06:39.994297  1326 net.cpp:67] Creating Layer relu5
I0326 15:06:39.994300  1326 net.cpp:394] relu5 <- ip1
I0326 15:06:39.994321  1326 net.cpp:345] relu5 -> ip1 (in-place)
I0326 15:06:39.994326  1326 net.cpp:96] Setting up relu5
I0326 15:06:39.994331  1326 net.cpp:103] Top shape: 250 512 1 1 (128000)
I0326 15:06:39.994339  1326 net.cpp:67] Creating Layer ip2
I0326 15:06:39.994343  1326 net.cpp:394] ip2 <- ip1
I0326 15:06:39.994348  1326 net.cpp:356] ip2 -> ip2
I0326 15:06:39.994369  1326 net.cpp:96] Setting up ip2
I0326 15:06:39.999869  1326 net.cpp:103] Top shape: 250 512 1 1 (128000)
I0326 15:06:39.999881  1326 net.cpp:67] Creating Layer relu6
I0326 15:06:39.999886  1326 net.cpp:394] relu6 <- ip2
I0326 15:06:39.999891  1326 net.cpp:345] relu6 -> ip2 (in-place)
I0326 15:06:39.999897  1326 net.cpp:96] Setting up relu6
I0326 15:06:39.999902  1326 net.cpp:103] Top shape: 250 512 1 1 (128000)
I0326 15:06:39.999908  1326 net.cpp:67] Creating Layer ip3
I0326 15:06:39.999912  1326 net.cpp:394] ip3 <- ip2
I0326 15:06:39.999917  1326 net.cpp:356] ip3 -> ip3
I0326 15:06:39.999922  1326 net.cpp:96] Setting up ip3
I0326 15:06:39.999984  1326 net.cpp:103] Top shape: 250 5 1 1 (1250)
I0326 15:06:39.999991  1326 net.cpp:67] Creating Layer ip3_ip3_0_split
I0326 15:06:39.999995  1326 net.cpp:394] ip3_ip3_0_split <- ip3
I0326 15:06:40.000000  1326 net.cpp:356] ip3_ip3_0_split -> ip3_ip3_0_split_0
I0326 15:06:40.000008  1326 net.cpp:356] ip3_ip3_0_split -> ip3_ip3_0_split_1
I0326 15:06:40.000013  1326 net.cpp:96] Setting up ip3_ip3_0_split
I0326 15:06:40.000018  1326 net.cpp:103] Top shape: 250 5 1 1 (1250)
I0326 15:06:40.000021  1326 net.cpp:103] Top shape: 250 5 1 1 (1250)
I0326 15:06:40.000027  1326 net.cpp:67] Creating Layer accuracy
I0326 15:06:40.000044  1326 net.cpp:394] accuracy <- ip3_ip3_0_split_0
I0326 15:06:40.000049  1326 net.cpp:394] accuracy <- label_mnist_1_split_0
I0326 15:06:40.000063  1326 net.cpp:356] accuracy -> accuracy
I0326 15:06:40.000069  1326 net.cpp:96] Setting up accuracy
I0326 15:06:40.000074  1326 net.cpp:103] Top shape: 1 1 1 1 (1)
I0326 15:06:40.000092  1326 net.cpp:67] Creating Layer loss
I0326 15:06:40.000094  1326 net.cpp:394] loss <- ip3_ip3_0_split_1
I0326 15:06:40.000097  1326 net.cpp:394] loss <- label_mnist_1_split_1
I0326 15:06:40.000102  1326 net.cpp:356] loss -> loss
I0326 15:06:40.000108  1326 net.cpp:96] Setting up loss
I0326 15:06:40.000118  1326 net.cpp:103] Top shape: 1 1 1 1 (1)
I0326 15:06:40.000121  1326 net.cpp:109]     with loss weight 1
I0326 15:06:40.000144  1326 net.cpp:170] loss needs backward computation.
I0326 15:06:40.000147  1326 net.cpp:172] accuracy does not need backward computation.
I0326 15:06:40.000150  1326 net.cpp:170] ip3_ip3_0_split needs backward computation.
I0326 15:06:40.000154  1326 net.cpp:170] ip3 needs backward computation.
I0326 15:06:40.000156  1326 net.cpp:170] relu6 needs backward computation.
…
I0326 15:06:40.000669  1326 net.cpp:275] The NetState phase (1) differed from the phase (0) specified by a rule in layer mnist
I0326 15:06:40.000767  1326 net.cpp:39] Initializing net from parameters: 
name: "RetinopathyNet"
layers {
  top: "data"
  top: "label"
  name: "mnist"
  type: DATA
  data_param {
    source: "/home/niko/datasets/DiabeticRetinopathyDetection/processed/run-normal/diabetic_retinopathy_val_lmdb"
    batch_size: 50
    backend: LMDB
  }
  include {
    phase: TEST
  }
  transform_param {
    mirror: true
    crop_size: 227
    mean_file: "/home/niko/datasets/DiabeticRetinopathyDetection/processed/run-normal/diabetic_retinopathy_mean.binaryproto"
  }
}
layers {
  bottom: "data"
  top: "conv1"
  name: "conv1"
  type: CONVOLUTION
  blobs_lr: 1
  blobs_lr: 2
  weight_decay: 1
  weight_decay: 0
  convolution_param {
    num_output: 24
    kernel_size: 11
    stride: 4
    weight_filler {
      type: "xavier"
    }
    bias_filler {
      type: "constant"
      value: 0
    }
  }
}
layers {
  bottom: "conv1"
  top: "conv1"
  name: "relu1"
  type: RELU
}
layers {
  bottom: "conv1"
  top: "norm1"
  name: "norm1"
  type: LRN
  lrn_param {
    local_size: 5
    alpha: 0.0001
    beta: 0.75
  }
}
layers {
  bottom: "norm1"
  top: "pool1"
  name: "pool1"
  type: POOLING
  pooling_param {
    pool: MAX
    kernel_size: 4
    stride: 3
  }
}
layers {
  bottom: "pool1"
  top: "conv2"
  name: "conv2"
  type: CONVOLUTION
  blobs_lr: 1
  blobs_lr: 2
  weight_decay: 1
  weight_decay: 0
  convolution_param {
    num_output: 96
    kernel_size: 9
    stride: 1
    weight_filler {
      type: "xavier"
    }
    bias_filler {
      type: "constant"
      value: 1
    }
  }
}
layers {
  bottom: "conv2"
  top: "conv2"
  name: "relu2"
  type: RELU
}
layers {
  bottom: "conv2"
  top: "norm2"
  name: "norm2"
  type: LRN
  lrn_param {
    local_size: 5
    alpha: 0.0001
    beta: 0.75
  }
}
layers {
  bottom: "norm2"
  top: "pool2"
  name: "pool2"
  type: POOLING
  pooling_param {
    pool: MAX
    kernel_size: 3
    stride: 2
  }
}
layers {
  bottom: "pool2"
  top: "conv3"
  name: "conv3"
  type: CONVOLUTION
  blobs_lr: 1
  blobs_lr: 2
  weight_decay: 1
  weight_decay: 0
  convolution_param {
    num_output: 256
    pad: 1
    kernel_size: 5
    weight_filler {
      type: "xavier"
    }
    bias_filler {
      type: "constant"
      value: 0
    }
  }
}
layers {
  bottom: "conv3"
  top: "conv3"
  name: "relu3"
  type: RELU
}
layers {
  bottom: "conv3"
  top: "conv4"
  name: "conv4"
  type: CONVOLUTION
  blobs_lr: 1
  blobs_lr: 2
  convolution_param {
    num_output: 384
    pad: 1
    kernel_size: 3
    group: 2
    weight_filler {
      type: "xavier"
    }
    bias_filler {
      type: "constant"
    }
  }
}
layers {
  bottom: "conv4"
  top: "conv4"
  name: "relu4"
  type: RELU
}
layers {
  bottom: "conv4"
  top: "pool4"
  name: "pool4"
  type: POOLING
  pooling_param {
    pool: MAX
    kernel_size: 3
    stride: 2
  }
}
layers {
  bottom: "pool4"
  top: "ip1"
  name: "ip1"
  type: INNER_PRODUCT
  blobs_lr: 1
  blobs_lr: 2
  weight_decay: 1
  weight_decay: 0
  inner_product_param {
    num_output: 512
    weight_filler {
      type: "gaussian"
      std: 0.005
    }
    bias_filler {
      type: "constant"
      value: 0.1
    }
  }
}
layers {
  bottom: "ip1"
  top: "ip1"
  name: "relu5"
  type: RELU
}
layers {
  bottom: "ip1"
  top: "ip2"
  name: "ip2"
  type: INNER_PRODUCT
  blobs_lr: 1
  blobs_lr: 2
  inner_product_param {
    num_output: 512
    weight_filler {
      type: "gaussian"
      std: 0.005
    }
    bias_filler {
      type: "constant"
      value: 0.1
    }
  }
}
layers {
  bottom: "ip2"
  top: "ip2"
  name: "relu6"
  type: RELU
}
layers {
  bottom: "ip2"
  top: "ip3"
  name: "ip3"
  type: INNER_PRODUCT
  blobs_lr: 1
  blobs_lr: 2
  weight_decay: 1
  weight_decay: 0
  inner_product_param {
    num_output: 5
    weight_filler {
      type: "gaussian"
      std: 0.01
    }
    bias_filler {
      type: "constant"
      value: 0
    }
  }
}
layers {
  bottom: "ip3"
  bottom: "label"
  top: "accuracy"
  name: "accuracy"
  type: ACCURACY
}
layers {
  bottom: "ip3"
  bottom: "label"
  top: "loss"
  name: "loss"
  type: SOFTMAX_LOSS
}
state {
  phase: TEST
}
I0326 15:06:40.000871  1326 net.cpp:67] Creating Layer mnist
I0326 15:06:40.000876  1326 net.cpp:356] mnist -> data
I0326 15:06:40.000883  1326 net.cpp:356] mnist -> label
I0326 15:06:40.000890  1326 net.cpp:96] Setting up mnist
I0326 15:06:40.000931  1326 data_layer.cpp:68] Opening lmdb /home/niko/datasets/DiabeticRetinopathyDetection/processed/run-normal/diabetic_retinopathy_val_lmdb
I0326 15:06:40.001042  1326 data_layer.cpp:128] output data size: 50,3,227,227
I0326 15:06:40.001047  1326 base_data_layer.cpp:36] Loading mean file from/home/niko/datasets/DiabeticRetinopathyDetection/processed/run-normal/diabetic_retinopathy_mean.binaryproto
I0326 15:06:40.007665  1326 net.cpp:103] Top shape: 50 3 227 227 (7729350)
I0326 15:06:40.007683  1326 net.cpp:103] Top shape: 50 1 1 1 (50)
I0326 15:06:40.007730  1326 net.cpp:67] Creating Layer label_mnist_1_split
I0326 15:06:40.007735  1326 net.cpp:394] label_mnist_1_split <- label
I0326 15:06:40.007742  1326 net.cpp:356] label_mnist_1_split -> label_mnist_1_split_0
I0326 15:06:40.007751  1326 net.cpp:356] label_mnist_1_split -> label_mnist_1_split_1
I0326 15:06:40.007757  1326 net.cpp:96] Setting up label_mnist_1_split
I0326 15:06:40.007761  1326 net.cpp:103] Top shape: 50 1 1 1 (50)
I0326 15:06:40.007766  1326 net.cpp:103] Top shape: 50 1 1 1 (50)
I0326 15:06:40.007772  1326 net.cpp:67] Creating Layer conv1
I0326 15:06:40.007776  1326 net.cpp:394] conv1 <- data
I0326 15:06:40.007781  1326 net.cpp:356] conv1 -> conv1
I0326 15:06:40.007787  1326 net.cpp:96] Setting up conv1
I0326 15:06:40.007904  1326 net.cpp:103] Top shape: 50 24 55 55 (3630000)
I0326 15:06:40.007916  1326 net.cpp:67] Creating Layer relu1
I0326 15:06:40.007920  1326 net.cpp:394] relu1 <- conv1
I0326 15:06:40.007925  1326 net.cpp:345] relu1 -> conv1 (in-place)
I0326 15:06:40.007928  1326 net.cpp:96] Setting up relu1
I0326 15:06:40.007935  1326 net.cpp:103] Top shape: 50 24 55 55 (3630000)
I0326 15:06:40.007941  1326 net.cpp:67] Creating Layer norm1
I0326 15:06:40.007944  1326 net.cpp:394] norm1 <- conv1
I0326 15:06:40.007948  1326 net.cpp:356] norm1 -> norm1
I0326 15:06:40.007954  1326 net.cpp:96] Setting up norm1
I0326 15:06:40.007958  1326 net.cpp:103] Top shape: 50 24 55 55 (3630000)
I0326 15:06:40.007964  1326 net.cpp:67] Creating Layer pool1
I0326 15:06:40.007967  1326 net.cpp:394] pool1 <- norm1
I0326 15:06:40.007972  1326 net.cpp:356] pool1 -> pool1
I0326 15:06:40.007977  1326 net.cpp:96] Setting up pool1
I0326 15:06:40.007983  1326 net.cpp:103] Top shape: 50 24 18 18 (388800)
I0326 15:06:40.007989  1326 net.cpp:67] Creating Layer conv2
I0326 15:06:40.007992  1326 net.cpp:394] conv2 <- pool1
I0326 15:06:40.007997  1326 net.cpp:356] conv2 -> conv2
I0326 15:06:40.008002  1326 net.cpp:96] Setting up conv2
I0326 15:06:40.009038  1326 net.cpp:103] Top shape: 50 96 10 10 (480000)
I0326 15:06:40.009050  1326 net.cpp:67] Creating Layer relu2
I0326 15:06:40.009053  1326 net.cpp:394] relu2 <- conv2
I0326 15:06:40.009058  1326 net.cpp:345] relu2 -> conv2 (in-place)
I0326 15:06:40.009063  1326 net.cpp:96] Setting up relu2
I0326 15:06:40.009068  1326 net.cpp:103] Top shape: 50 96 10 10 (480000)
I0326 15:06:40.009074  1326 net.cpp:67] Creating Layer norm2
I0326 15:06:40.009078  1326 net.cpp:394] norm2 <- conv2
I0326 15:06:40.009083  1326 net.cpp:356] norm2 -> norm2
I0326 15:06:40.009088  1326 net.cpp:96] Setting up norm2
I0326 15:06:40.009093  1326 net.cpp:103] Top shape: 50 96 10 10 (480000)
I0326 15:06:40.009098  1326 net.cpp:67] Creating Layer pool2
I0326 15:06:40.009100  1326 net.cpp:394] pool2 <- norm2
I0326 15:06:40.009105  1326 net.cpp:356] pool2 -> pool2
I0326 15:06:40.009110  1326 net.cpp:96] Setting up pool2
I0326 15:06:40.009116  1326 net.cpp:103] Top shape: 50 96 5 5 (120000)
I0326 15:06:40.009122  1326 net.cpp:67] Creating Layer conv3
I0326 15:06:40.009125  1326 net.cpp:394] conv3 <- pool2
I0326 15:06:40.009130  1326 net.cpp:356] conv3 -> conv3
I0326 15:06:40.009135  1326 net.cpp:96] Setting up conv3
I0326 15:06:40.016705  1326 net.cpp:103] Top shape: 50 256 3 3 (115200)
I0326 15:06:40.016732  1326 net.cpp:67] Creating Layer relu3
I0326 15:06:40.016737  1326 net.cpp:394] relu3 <- conv3
I0326 15:06:40.016742  1326 net.cpp:345] relu3 -> conv3 (in-place)
I0326 15:06:40.016747  1326 net.cpp:96] Setting up relu3
I0326 15:06:40.016752  1326 net.cpp:103] Top shape: 50 256 3 3 (115200)
I0326 15:06:40.016759  1326 net.cpp:67] Creating Layer conv4
I0326 15:06:40.016762  1326 net.cpp:394] conv4 <- conv3
I0326 15:06:40.016767  1326 net.cpp:356] conv4 -> conv4
I0326 15:06:40.016772  1326 net.cpp:96] Setting up conv4
I0326 15:06:40.019075  1326 net.cpp:103] Top shape: 50 384 3 3 (172800)
I0326 15:06:40.019088  1326 net.cpp:67] Creating Layer relu4
I0326 15:06:40.019090  1326 net.cpp:394] relu4 <- conv4
I0326 15:06:40.019096  1326 net.cpp:345] relu4 -> conv4 (in-place)
I0326 15:06:40.019101  1326 net.cpp:96] Setting up relu4
I0326 15:06:40.019127  1326 net.cpp:103] Top shape: 50 384 3 3 (172800)
I0326 15:06:40.019135  1326 net.cpp:67] Creating Layer pool4
I0326 15:06:40.019140  1326 net.cpp:394] pool4 <- conv4
I0326 15:06:40.019146  1326 net.cpp:356] pool4 -> pool4
I0326 15:06:40.019151  1326 net.cpp:96] Setting up pool4
I0326 15:06:40.019158  1326 net.cpp:103] Top shape: 50 384 1 1 (19200)
I0326 15:06:40.019166  1326 net.cpp:67] Creating Layer ip1
I0326 15:06:40.019170  1326 net.cpp:394] ip1 <- pool4
I0326 15:06:40.019176  1326 net.cpp:356] ip1 -> ip1
I0326 15:06:40.019182  1326 net.cpp:96] Setting up ip1
I0326 15:06:40.023108  1326 net.cpp:103] Top shape: 50 512 1 1 (25600)
I0326 15:06:40.023126  1326 net.cpp:67] Creating Layer relu5
I0326 15:06:40.023130  1326 net.cpp:394] relu5 <- ip1
I0326 15:06:40.023135  1326 net.cpp:345] relu5 -> ip1 (in-place)
I0326 15:06:40.023139  1326 net.cpp:96] Setting up relu5
I0326 15:06:40.023146  1326 net.cpp:103] Top shape: 50 512 1 1 (25600)
I0326 15:06:40.023152  1326 net.cpp:67] Creating Layer ip2
I0326 15:06:40.023155  1326 net.cpp:394] ip2 <- ip1
I0326 15:06:40.023161  1326 net.cpp:356] ip2 -> ip2
I0326 15:06:40.023167  1326 net.cpp:96] Setting up ip2
I0326 15:06:40.028378  1326 net.cpp:103] Top shape: 50 512 1 1 (25600)
I0326 15:06:40.028393  1326 net.cpp:67] Creating Layer relu6
I0326 15:06:40.028398  1326 net.cpp:394] relu6 <- ip2
I0326 15:06:40.028401  1326 net.cpp:345] relu6 -> ip2 (in-place)
I0326 15:06:40.028406  1326 net.cpp:96] Setting up relu6
I0326 15:06:40.028414  1326 net.cpp:103] Top shape: 50 512 1 1 (25600)
I0326 15:06:40.028419  1326 net.cpp:67] Creating Layer ip3
I0326 15:06:40.028422  1326 net.cpp:394] ip3 <- ip2
I0326 15:06:40.028429  1326 net.cpp:356] ip3 -> ip3
I0326 15:06:40.028434  1326 net.cpp:96] Setting up ip3
I0326 15:06:40.028496  1326 net.cpp:103] Top shape: 50 5 1 1 (250)
I0326 15:06:40.028504  1326 net.cpp:67] Creating Layer ip3_ip3_0_split
I0326 15:06:40.028506  1326 net.cpp:394] ip3_ip3_0_split <- ip3
I0326 15:06:40.028512  1326 net.cpp:356] ip3_ip3_0_split -> ip3_ip3_0_split_0
I0326 15:06:40.028520  1326 net.cpp:356] ip3_ip3_0_split -> ip3_ip3_0_split_1
I0326 15:06:40.028529  1326 net.cpp:96] Setting up ip3_ip3_0_split
I0326 15:06:40.028533  1326 net.cpp:103] Top shape: 50 5 1 1 (250)
I0326 15:06:40.028537  1326 net.cpp:103] Top shape: 50 5 1 1 (250)
I0326 15:06:40.028543  1326 net.cpp:67] Creating Layer accuracy
I0326 15:06:40.028547  1326 net.cpp:394] accuracy <- ip3_ip3_0_split_0
I0326 15:06:40.028550  1326 net.cpp:394] accuracy <- label_mnist_1_split_0
I0326 15:06:40.028555  1326 net.cpp:356] accuracy -> accuracy
I0326 15:06:40.028559  1326 net.cpp:96] Setting up accuracy
I0326 15:06:40.028563  1326 net.cpp:103] Top shape: 1 1 1 1 (1)
I0326 15:06:40.028570  1326 net.cpp:67] Creating Layer loss
I0326 15:06:40.028573  1326 net.cpp:394] loss <- ip3_ip3_0_split_1
I0326 15:06:40.028578  1326 net.cpp:394] loss <- label_mnist_1_split_1
I0326 15:06:40.028581  1326 net.cpp:356] loss -> loss
I0326 15:06:40.028586  1326 net.cpp:96] Setting up loss
I0326 15:06:40.028592  1326 net.cpp:103] Top shape: 1 1 1 1 (1)
I0326 15:06:40.028595  1326 net.cpp:109]     with loss weight 1
I0326 15:06:40.028609  1326 net.cpp:170] loss needs backward computation.
I0326 15:06:40.028612  1326 net.cpp:172] accuracy does not need backward computation.
I0326 15:06:40.028615  1326 net.cpp:170] ip3_ip3_0_split needs backward computation.
I0326 15:06:40.028619  1326 net.cpp:170] ip3 needs backward computation.
I0326 15:06:40.028621  1326 net.cpp:170] relu6 needs backward computation.
…
