…
I0326 20:59:36.410240 30867 net.cpp:275] The NetState phase (0) differed from the phase (1) specified by a rule in layer mnist
I0326 20:59:36.410369 30867 net.cpp:39] Initializing net from parameters: 
name: "RetinopathyNet"
layers {
  top: "data"
  top: "label"
  name: "mnist"
  type: DATA
  data_param {
    source: "/home/niko/datasets/DiabeticRetinopathyDetection/processed/run-normal/diabetic_retinopathy_train_lmdb"
    batch_size: 250
    backend: LMDB
  }
  include {
    phase: TRAIN
  }
  transform_param {
    mirror: true
    crop_size: 227
    mean_file: "/home/niko/datasets/DiabeticRetinopathyDetection/processed/run-normal/diabetic_retinopathy_mean.binaryproto"
  }
}
layers {
  bottom: "data"
  top: "conv1"
  name: "conv1"
  type: CONVOLUTION
  blobs_lr: 1
  blobs_lr: 2
  weight_decay: 1
  weight_decay: 0
  convolution_param {
    num_output: 48
    kernel_size: 11
    stride: 4
    weight_filler {
      type: "xavier"
    }
    bias_filler {
      type: "constant"
      value: 0
    }
  }
}
layers {
  bottom: "conv1"
  top: "conv1"
  name: "relu1"
  type: RELU
}
layers {
  bottom: "conv1"
  top: "norm1"
  name: "norm1"
  type: LRN
  lrn_param {
    local_size: 5
    alpha: 0.0001
    beta: 0.75
  }
}
layers {
  bottom: "norm1"
  top: "pool1"
  name: "pool1"
  type: POOLING
  pooling_param {
    pool: MAX
    kernel_size: 3
    stride: 2
  }
}
layers {
  bottom: "pool1"
  top: "conv2"
  name: "conv2"
  type: CONVOLUTION
  blobs_lr: 1
  blobs_lr: 2
  weight_decay: 1
  weight_decay: 0
  convolution_param {
    num_output: 96
    kernel_size: 9
    group: 2
    stride: 1
    weight_filler {
      type: "xavier"
    }
    bias_filler {
      type: "constant"
      value: 1
    }
  }
}
layers {
  bottom: "conv2"
  top: "conv2"
  name: "relu2"
  type: RELU
}
layers {
  bottom: "conv2"
  top: "norm2"
  name: "norm2"
  type: LRN
  lrn_param {
    local_size: 5
    alpha: 0.0001
    beta: 0.75
  }
}
layers {
  bottom: "norm2"
  top: "pool2"
  name: "pool2"
  type: POOLING
  pooling_param {
    pool: MAX
    kernel_size: 3
    stride: 2
  }
}
layers {
  bottom: "pool2"
  top: "convx"
  name: "convx"
  type: CONVOLUTION
  blobs_lr: 1
  blobs_lr: 2
  weight_decay: 1
  weight_decay: 0
  convolution_param {
    num_output: 128
    pad: 1
    kernel_size: 5
    weight_filler {
      type: "xavier"
    }
    bias_filler {
      type: "constant"
      value: 0
    }
  }
}
layers {
  bottom: "convx"
  top: "convx"
  name: "relux"
  type: RELU
}
layers {
  bottom: "convx"
  top: "poolx"
  name: "poolx"
  type: POOLING
  pooling_param {
    pool: MAX
    kernel_size: 2
    stride: 2
  }
}
layers {
  bottom: "poolx"
  top: "conv3"
  name: "conv3"
  type: CONVOLUTION
  blobs_lr: 1
  blobs_lr: 2
  weight_decay: 1
  weight_decay: 0
  convolution_param {
    num_output: 256
    pad: 1
    kernel_size: 5
    weight_filler {
      type: "xavier"
    }
    bias_filler {
      type: "constant"
      value: 0
    }
  }
}
layers {
  bottom: "conv3"
  top: "conv3"
  name: "relu3"
  type: RELU
}
layers {
  bottom: "conv3"
  top: "conv4"
  name: "conv4"
  type: CONVOLUTION
  blobs_lr: 1
  blobs_lr: 2
  convolution_param {
    num_output: 384
    pad: 1
    kernel_size: 3
    group: 2
    weight_filler {
      type: "xavier"
    }
    bias_filler {
      type: "constant"
    }
  }
}
layers {
  bottom: "conv4"
  top: "conv4"
  name: "relu4"
  type: RELU
}
layers {
  bottom: "conv4"
  top: "pool4"
  name: "pool4"
  type: POOLING
  pooling_param {
    pool: MAX
    kernel_size: 3
    stride: 2
  }
}
layers {
  bottom: "pool4"
  top: "ip1"
  name: "ip1"
  type: INNER_PRODUCT
  blobs_lr: 1
  blobs_lr: 2
  weight_decay: 1
  weight_decay: 0
  inner_product_param {
    num_output: 512
    weight_filler {
      type: "gaussian"
      std: 0.005
    }
    bias_filler {
      type: "constant"
      value: 0.1
    }
  }
}
layers {
  bottom: "ip1"
  top: "ip1"
  name: "relu5"
  type: RELU
}
layers {
  bottom: "ip1"
  top: "ip1"
  name: "dropout"
  type: DROPOUT
  dropout_param {
    dropout_ratio: 0.5
  }
}
layers {
  bottom: "ip1"
  top: "ip2"
  name: "ip2"
  type: INNER_PRODUCT
  blobs_lr: 1
  blobs_lr: 2
  inner_product_param {
    num_output: 512
    weight_filler {
      type: "gaussian"
      std: 0.005
    }
    bias_filler {
      type: "constant"
      value: 0.1
    }
  }
}
layers {
  bottom: "ip2"
  top: "ip2"
  name: "relu6"
  type: RELU
}
layers {
  bottom: "ip2"
  top: "ip2"
  name: "dropout"
  type: DROPOUT
  dropout_param {
    dropout_ratio: 0.5
  }
}
layers {
  bottom: "ip2"
  top: "ip3"
  name: "ip3"
  type: INNER_PRODUCT
  blobs_lr: 1
  blobs_lr: 2
  weight_decay: 1
  weight_decay: 0
  inner_product_param {
    num_output: 5
    weight_filler {
      type: "gaussian"
      std: 0.01
    }
    bias_filler {
      type: "constant"
      value: 0
    }
  }
}
layers {
  bottom: "ip3"
  bottom: "label"
  top: "accuracy"
  name: "accuracy"
  type: ACCURACY
}
layers {
  bottom: "ip3"
  bottom: "label"
  top: "loss"
  name: "loss"
  type: SOFTMAX_LOSS
}
state {
  phase: TRAIN
}
I0326 20:59:36.410548 30867 net.cpp:67] Creating Layer mnist
I0326 20:59:36.410557 30867 net.cpp:356] mnist -> data
I0326 20:59:36.410573 30867 net.cpp:356] mnist -> label
I0326 20:59:36.410583 30867 net.cpp:96] Setting up mnist
I0326 20:59:36.410650 30867 data_layer.cpp:68] Opening lmdb /home/niko/datasets/DiabeticRetinopathyDetection/processed/run-normal/diabetic_retinopathy_train_lmdb
I0326 20:59:36.410778 30867 data_layer.cpp:128] output data size: 250,3,227,227
I0326 20:59:36.410784 30867 base_data_layer.cpp:36] Loading mean file from/home/niko/datasets/DiabeticRetinopathyDetection/processed/run-normal/diabetic_retinopathy_mean.binaryproto
I0326 20:59:36.468323 30867 net.cpp:103] Top shape: 250 3 227 227 (38646750)
I0326 20:59:36.468343 30867 net.cpp:103] Top shape: 250 1 1 1 (250)
I0326 20:59:36.468354 30867 net.cpp:67] Creating Layer label_mnist_1_split
I0326 20:59:36.468359 30867 net.cpp:394] label_mnist_1_split <- label
I0326 20:59:36.468392 30867 net.cpp:356] label_mnist_1_split -> label_mnist_1_split_0
I0326 20:59:36.468405 30867 net.cpp:356] label_mnist_1_split -> label_mnist_1_split_1
I0326 20:59:36.468426 30867 net.cpp:96] Setting up label_mnist_1_split
I0326 20:59:36.468430 30867 net.cpp:103] Top shape: 250 1 1 1 (250)
I0326 20:59:36.468432 30867 net.cpp:103] Top shape: 250 1 1 1 (250)
I0326 20:59:36.468441 30867 net.cpp:67] Creating Layer conv1
I0326 20:59:36.468443 30867 net.cpp:394] conv1 <- data
I0326 20:59:36.468447 30867 net.cpp:356] conv1 -> conv1
I0326 20:59:36.468457 30867 net.cpp:96] Setting up conv1
I0326 20:59:36.765352 30867 net.cpp:103] Top shape: 250 48 55 55 (36300000)
I0326 20:59:36.765382 30867 net.cpp:67] Creating Layer relu1
I0326 20:59:36.765385 30867 net.cpp:394] relu1 <- conv1
I0326 20:59:36.765389 30867 net.cpp:345] relu1 -> conv1 (in-place)
I0326 20:59:36.765394 30867 net.cpp:96] Setting up relu1
I0326 20:59:36.765403 30867 net.cpp:103] Top shape: 250 48 55 55 (36300000)
I0326 20:59:36.765419 30867 net.cpp:67] Creating Layer norm1
I0326 20:59:36.765420 30867 net.cpp:394] norm1 <- conv1
I0326 20:59:36.765424 30867 net.cpp:356] norm1 -> norm1
I0326 20:59:36.765426 30867 net.cpp:96] Setting up norm1
I0326 20:59:36.765431 30867 net.cpp:103] Top shape: 250 48 55 55 (36300000)
I0326 20:59:36.765435 30867 net.cpp:67] Creating Layer pool1
I0326 20:59:36.765437 30867 net.cpp:394] pool1 <- norm1
I0326 20:59:36.765440 30867 net.cpp:356] pool1 -> pool1
I0326 20:59:36.765460 30867 net.cpp:96] Setting up pool1
I0326 20:59:36.765473 30867 net.cpp:103] Top shape: 250 48 27 27 (8748000)
I0326 20:59:36.765480 30867 net.cpp:67] Creating Layer conv2
I0326 20:59:36.765481 30867 net.cpp:394] conv2 <- pool1
I0326 20:59:36.765486 30867 net.cpp:356] conv2 -> conv2
I0326 20:59:36.765491 30867 net.cpp:96] Setting up conv2
I0326 20:59:36.766593 30867 net.cpp:103] Top shape: 250 96 19 19 (8664000)
I0326 20:59:36.766605 30867 net.cpp:67] Creating Layer relu2
I0326 20:59:36.766618 30867 net.cpp:394] relu2 <- conv2
I0326 20:59:36.766623 30867 net.cpp:345] relu2 -> conv2 (in-place)
I0326 20:59:36.766626 30867 net.cpp:96] Setting up relu2
I0326 20:59:36.766630 30867 net.cpp:103] Top shape: 250 96 19 19 (8664000)
I0326 20:59:36.766635 30867 net.cpp:67] Creating Layer norm2
I0326 20:59:36.766638 30867 net.cpp:394] norm2 <- conv2
I0326 20:59:36.766640 30867 net.cpp:356] norm2 -> norm2
I0326 20:59:36.766644 30867 net.cpp:96] Setting up norm2
I0326 20:59:36.766648 30867 net.cpp:103] Top shape: 250 96 19 19 (8664000)
I0326 20:59:36.766651 30867 net.cpp:67] Creating Layer pool2
I0326 20:59:36.766654 30867 net.cpp:394] pool2 <- norm2
I0326 20:59:36.766657 30867 net.cpp:356] pool2 -> pool2
I0326 20:59:36.766660 30867 net.cpp:96] Setting up pool2
I0326 20:59:36.766665 30867 net.cpp:103] Top shape: 250 96 9 9 (1944000)
I0326 20:59:36.766669 30867 net.cpp:67] Creating Layer convx
I0326 20:59:36.766672 30867 net.cpp:394] convx <- pool2
I0326 20:59:36.766675 30867 net.cpp:356] convx -> convx
I0326 20:59:36.766680 30867 net.cpp:96] Setting up convx
I0326 20:59:36.768249 30867 net.cpp:103] Top shape: 250 128 7 7 (1568000)
I0326 20:59:36.768257 30867 net.cpp:67] Creating Layer relux
I0326 20:59:36.768270 30867 net.cpp:394] relux <- convx
I0326 20:59:36.768273 30867 net.cpp:345] relux -> convx (in-place)
I0326 20:59:36.768277 30867 net.cpp:96] Setting up relux
I0326 20:59:36.768281 30867 net.cpp:103] Top shape: 250 128 7 7 (1568000)
I0326 20:59:36.768286 30867 net.cpp:67] Creating Layer poolx
I0326 20:59:36.768288 30867 net.cpp:394] poolx <- convx
I0326 20:59:36.768291 30867 net.cpp:356] poolx -> poolx
I0326 20:59:36.768295 30867 net.cpp:96] Setting up poolx
I0326 20:59:36.768298 30867 net.cpp:103] Top shape: 250 128 4 4 (512000)
I0326 20:59:36.768303 30867 net.cpp:67] Creating Layer conv3
I0326 20:59:36.768306 30867 net.cpp:394] conv3 <- poolx
I0326 20:59:36.768308 30867 net.cpp:356] conv3 -> conv3
I0326 20:59:36.768312 30867 net.cpp:96] Setting up conv3
I0326 20:59:36.772478 30867 net.cpp:103] Top shape: 250 256 2 2 (256000)
I0326 20:59:36.772486 30867 net.cpp:67] Creating Layer relu3
I0326 20:59:36.772488 30867 net.cpp:394] relu3 <- conv3
I0326 20:59:36.772492 30867 net.cpp:345] relu3 -> conv3 (in-place)
I0326 20:59:36.772496 30867 net.cpp:96] Setting up relu3
I0326 20:59:36.772510 30867 net.cpp:103] Top shape: 250 256 2 2 (256000)
I0326 20:59:36.772513 30867 net.cpp:67] Creating Layer conv4
I0326 20:59:36.772516 30867 net.cpp:394] conv4 <- conv3
I0326 20:59:36.772519 30867 net.cpp:356] conv4 -> conv4
I0326 20:59:36.772523 30867 net.cpp:96] Setting up conv4
I0326 20:59:36.774912 30867 net.cpp:103] Top shape: 250 384 2 2 (384000)
I0326 20:59:36.774926 30867 net.cpp:67] Creating Layer relu4
I0326 20:59:36.774940 30867 net.cpp:394] relu4 <- conv4
I0326 20:59:36.774943 30867 net.cpp:345] relu4 -> conv4 (in-place)
I0326 20:59:36.774948 30867 net.cpp:96] Setting up relu4
I0326 20:59:36.774951 30867 net.cpp:103] Top shape: 250 384 2 2 (384000)
I0326 20:59:36.774955 30867 net.cpp:67] Creating Layer pool4
I0326 20:59:36.774957 30867 net.cpp:394] pool4 <- conv4
I0326 20:59:36.774960 30867 net.cpp:356] pool4 -> pool4
I0326 20:59:36.774963 30867 net.cpp:96] Setting up pool4
I0326 20:59:36.774968 30867 net.cpp:103] Top shape: 250 384 1 1 (96000)
I0326 20:59:36.774973 30867 net.cpp:67] Creating Layer ip1
I0326 20:59:36.774976 30867 net.cpp:394] ip1 <- pool4
I0326 20:59:36.774979 30867 net.cpp:356] ip1 -> ip1
I0326 20:59:36.774983 30867 net.cpp:96] Setting up ip1
I0326 20:59:36.779294 30867 net.cpp:103] Top shape: 250 512 1 1 (128000)
I0326 20:59:36.779333 30867 net.cpp:67] Creating Layer relu5
I0326 20:59:36.779338 30867 net.cpp:394] relu5 <- ip1
I0326 20:59:36.779346 30867 net.cpp:345] relu5 -> ip1 (in-place)
I0326 20:59:36.779364 30867 net.cpp:96] Setting up relu5
I0326 20:59:36.779372 30867 net.cpp:103] Top shape: 250 512 1 1 (128000)
I0326 20:59:36.779379 30867 net.cpp:67] Creating Layer dropout
I0326 20:59:36.779382 30867 net.cpp:394] dropout <- ip1
I0326 20:59:36.779387 30867 net.cpp:345] dropout -> ip1 (in-place)
I0326 20:59:36.779394 30867 net.cpp:96] Setting up dropout
I0326 20:59:36.781133 30867 net.cpp:103] Top shape: 250 512 1 1 (128000)
I0326 20:59:36.781154 30867 net.cpp:67] Creating Layer ip2
I0326 20:59:36.781157 30867 net.cpp:394] ip2 <- ip1
I0326 20:59:36.781162 30867 net.cpp:356] ip2 -> ip2
I0326 20:59:36.781182 30867 net.cpp:96] Setting up ip2
I0326 20:59:36.786485 30867 net.cpp:103] Top shape: 250 512 1 1 (128000)
I0326 20:59:36.786494 30867 net.cpp:67] Creating Layer relu6
I0326 20:59:36.786497 30867 net.cpp:394] relu6 <- ip2
I0326 20:59:36.786511 30867 net.cpp:345] relu6 -> ip2 (in-place)
I0326 20:59:36.786514 30867 net.cpp:96] Setting up relu6
I0326 20:59:36.786519 30867 net.cpp:103] Top shape: 250 512 1 1 (128000)
I0326 20:59:36.786531 30867 net.cpp:67] Creating Layer dropout
I0326 20:59:36.786533 30867 net.cpp:394] dropout <- ip2
I0326 20:59:36.786536 30867 net.cpp:345] dropout -> ip2 (in-place)
I0326 20:59:36.786540 30867 net.cpp:96] Setting up dropout
I0326 20:59:36.786542 30867 net.cpp:103] Top shape: 250 512 1 1 (128000)
I0326 20:59:36.786547 30867 net.cpp:67] Creating Layer ip3
I0326 20:59:36.786550 30867 net.cpp:394] ip3 <- ip2
I0326 20:59:36.786562 30867 net.cpp:356] ip3 -> ip3
I0326 20:59:36.786566 30867 net.cpp:96] Setting up ip3
I0326 20:59:36.786664 30867 net.cpp:103] Top shape: 250 5 1 1 (1250)
I0326 20:59:36.786669 30867 net.cpp:67] Creating Layer ip3_ip3_0_split
I0326 20:59:36.786670 30867 net.cpp:394] ip3_ip3_0_split <- ip3
I0326 20:59:36.786684 30867 net.cpp:356] ip3_ip3_0_split -> ip3_ip3_0_split_0
I0326 20:59:36.786687 30867 net.cpp:356] ip3_ip3_0_split -> ip3_ip3_0_split_1
I0326 20:59:36.786700 30867 net.cpp:96] Setting up ip3_ip3_0_split
I0326 20:59:36.786702 30867 net.cpp:103] Top shape: 250 5 1 1 (1250)
I0326 20:59:36.786703 30867 net.cpp:103] Top shape: 250 5 1 1 (1250)
I0326 20:59:36.786706 30867 net.cpp:67] Creating Layer accuracy
I0326 20:59:36.786710 30867 net.cpp:394] accuracy <- ip3_ip3_0_split_0
I0326 20:59:36.786711 30867 net.cpp:394] accuracy <- label_mnist_1_split_0
I0326 20:59:36.786725 30867 net.cpp:356] accuracy -> accuracy
I0326 20:59:36.786727 30867 net.cpp:96] Setting up accuracy
I0326 20:59:36.786731 30867 net.cpp:103] Top shape: 1 1 1 1 (1)
I0326 20:59:36.786744 30867 net.cpp:67] Creating Layer loss
I0326 20:59:36.786746 30867 net.cpp:394] loss <- ip3_ip3_0_split_1
I0326 20:59:36.786749 30867 net.cpp:394] loss <- label_mnist_1_split_1
I0326 20:59:36.786752 30867 net.cpp:356] loss -> loss
I0326 20:59:36.786756 30867 net.cpp:96] Setting up loss
I0326 20:59:36.786764 30867 net.cpp:103] Top shape: 1 1 1 1 (1)
I0326 20:59:36.786767 30867 net.cpp:109]     with loss weight 1
I0326 20:59:36.786795 30867 net.cpp:170] loss needs backward computation.
I0326 20:59:36.786798 30867 net.cpp:172] accuracy does not need backward computation.
I0326 20:59:36.786799 30867 net.cpp:170] ip3_ip3_0_split needs backward computation.
I0326 20:59:36.786802 30867 net.cpp:170] ip3 needs backward computation.
I0326 20:59:36.786803 30867 net.cpp:170] dropout needs backward computation.
…
I0326 20:59:36.787442 30867 net.cpp:275] The NetState phase (1) differed from the phase (0) specified by a rule in layer mnist
I0326 20:59:36.787547 30867 net.cpp:39] Initializing net from parameters: 
name: "RetinopathyNet"
layers {
  top: "data"
  top: "label"
  name: "mnist"
  type: DATA
  data_param {
    source: "/home/niko/datasets/DiabeticRetinopathyDetection/processed/run-normal/diabetic_retinopathy_val_lmdb"
    batch_size: 50
    backend: LMDB
  }
  include {
    phase: TEST
  }
  transform_param {
    mirror: true
    crop_size: 227
    mean_file: "/home/niko/datasets/DiabeticRetinopathyDetection/processed/run-normal/diabetic_retinopathy_mean.binaryproto"
  }
}
layers {
  bottom: "data"
  top: "conv1"
  name: "conv1"
  type: CONVOLUTION
  blobs_lr: 1
  blobs_lr: 2
  weight_decay: 1
  weight_decay: 0
  convolution_param {
    num_output: 48
    kernel_size: 11
    stride: 4
    weight_filler {
      type: "xavier"
    }
    bias_filler {
      type: "constant"
      value: 0
    }
  }
}
layers {
  bottom: "conv1"
  top: "conv1"
  name: "relu1"
  type: RELU
}
layers {
  bottom: "conv1"
  top: "norm1"
  name: "norm1"
  type: LRN
  lrn_param {
    local_size: 5
    alpha: 0.0001
    beta: 0.75
  }
}
layers {
  bottom: "norm1"
  top: "pool1"
  name: "pool1"
  type: POOLING
  pooling_param {
    pool: MAX
    kernel_size: 3
    stride: 2
  }
}
layers {
  bottom: "pool1"
  top: "conv2"
  name: "conv2"
  type: CONVOLUTION
  blobs_lr: 1
  blobs_lr: 2
  weight_decay: 1
  weight_decay: 0
  convolution_param {
    num_output: 96
    kernel_size: 9
    group: 2
    stride: 1
    weight_filler {
      type: "xavier"
    }
    bias_filler {
      type: "constant"
      value: 1
    }
  }
}
layers {
  bottom: "conv2"
  top: "conv2"
  name: "relu2"
  type: RELU
}
layers {
  bottom: "conv2"
  top: "norm2"
  name: "norm2"
  type: LRN
  lrn_param {
    local_size: 5
    alpha: 0.0001
    beta: 0.75
  }
}
layers {
  bottom: "norm2"
  top: "pool2"
  name: "pool2"
  type: POOLING
  pooling_param {
    pool: MAX
    kernel_size: 3
    stride: 2
  }
}
layers {
  bottom: "pool2"
  top: "convx"
  name: "convx"
  type: CONVOLUTION
  blobs_lr: 1
  blobs_lr: 2
  weight_decay: 1
  weight_decay: 0
  convolution_param {
    num_output: 128
    pad: 1
    kernel_size: 5
    weight_filler {
      type: "xavier"
    }
    bias_filler {
      type: "constant"
      value: 0
    }
  }
}
layers {
  bottom: "convx"
  top: "convx"
  name: "relux"
  type: RELU
}
layers {
  bottom: "convx"
  top: "poolx"
  name: "poolx"
  type: POOLING
  pooling_param {
    pool: MAX
    kernel_size: 2
    stride: 2
  }
}
layers {
  bottom: "poolx"
  top: "conv3"
  name: "conv3"
  type: CONVOLUTION
  blobs_lr: 1
  blobs_lr: 2
  weight_decay: 1
  weight_decay: 0
  convolution_param {
    num_output: 256
    pad: 1
    kernel_size: 5
    weight_filler {
      type: "xavier"
    }
    bias_filler {
      type: "constant"
      value: 0
    }
  }
}
layers {
  bottom: "conv3"
  top: "conv3"
  name: "relu3"
  type: RELU
}
layers {
  bottom: "conv3"
  top: "conv4"
  name: "conv4"
  type: CONVOLUTION
  blobs_lr: 1
  blobs_lr: 2
  convolution_param {
    num_output: 384
    pad: 1
    kernel_size: 3
    group: 2
    weight_filler {
      type: "xavier"
    }
    bias_filler {
      type: "constant"
    }
  }
}
layers {
  bottom: "conv4"
  top: "conv4"
  name: "relu4"
  type: RELU
}
layers {
  bottom: "conv4"
  top: "pool4"
  name: "pool4"
  type: POOLING
  pooling_param {
    pool: MAX
    kernel_size: 3
    stride: 2
  }
}
layers {
  bottom: "pool4"
  top: "ip1"
  name: "ip1"
  type: INNER_PRODUCT
  blobs_lr: 1
  blobs_lr: 2
  weight_decay: 1
  weight_decay: 0
  inner_product_param {
    num_output: 512
    weight_filler {
      type: "gaussian"
      std: 0.005
    }
    bias_filler {
      type: "constant"
      value: 0.1
    }
  }
}
layers {
  bottom: "ip1"
  top: "ip1"
  name: "relu5"
  type: RELU
}
layers {
  bottom: "ip1"
  top: "ip1"
  name: "dropout"
  type: DROPOUT
  dropout_param {
    dropout_ratio: 0.5
  }
}
layers {
  bottom: "ip1"
  top: "ip2"
  name: "ip2"
  type: INNER_PRODUCT
  blobs_lr: 1
  blobs_lr: 2
  inner_product_param {
    num_output: 512
    weight_filler {
      type: "gaussian"
      std: 0.005
    }
    bias_filler {
      type: "constant"
      value: 0.1
    }
  }
}
layers {
  bottom: "ip2"
  top: "ip2"
  name: "relu6"
  type: RELU
}
layers {
  bottom: "ip2"
  top: "ip2"
  name: "dropout"
  type: DROPOUT
  dropout_param {
    dropout_ratio: 0.5
  }
}
layers {
  bottom: "ip2"
  top: "ip3"
  name: "ip3"
  type: INNER_PRODUCT
  blobs_lr: 1
  blobs_lr: 2
  weight_decay: 1
  weight_decay: 0
  inner_product_param {
    num_output: 5
    weight_filler {
      type: "gaussian"
      std: 0.01
    }
    bias_filler {
      type: "constant"
      value: 0
    }
  }
}
layers {
  bottom: "ip3"
  bottom: "label"
  top: "accuracy"
  name: "accuracy"
  type: ACCURACY
}
layers {
  bottom: "ip3"
  bottom: "label"
  top: "loss"
  name: "loss"
  type: SOFTMAX_LOSS
}
state {
  phase: TEST
}
I0326 20:59:36.787622 30867 net.cpp:67] Creating Layer mnist
I0326 20:59:36.787627 30867 net.cpp:356] mnist -> data
I0326 20:59:36.787631 30867 net.cpp:356] mnist -> label
I0326 20:59:36.787636 30867 net.cpp:96] Setting up mnist
I0326 20:59:36.802103 30867 data_layer.cpp:68] Opening lmdb /home/niko/datasets/DiabeticRetinopathyDetection/processed/run-normal/diabetic_retinopathy_val_lmdb
I0326 20:59:36.802242 30867 data_layer.cpp:128] output data size: 50,3,227,227
I0326 20:59:36.802248 30867 base_data_layer.cpp:36] Loading mean file from/home/niko/datasets/DiabeticRetinopathyDetection/processed/run-normal/diabetic_retinopathy_mean.binaryproto
I0326 20:59:36.808835 30867 net.cpp:103] Top shape: 50 3 227 227 (7729350)
I0326 20:59:36.808854 30867 net.cpp:103] Top shape: 50 1 1 1 (50)
I0326 20:59:36.808871 30867 net.cpp:67] Creating Layer label_mnist_1_split
I0326 20:59:36.808874 30867 net.cpp:394] label_mnist_1_split <- label
I0326 20:59:36.808879 30867 net.cpp:356] label_mnist_1_split -> label_mnist_1_split_0
I0326 20:59:36.808886 30867 net.cpp:356] label_mnist_1_split -> label_mnist_1_split_1
I0326 20:59:36.808889 30867 net.cpp:96] Setting up label_mnist_1_split
I0326 20:59:36.808893 30867 net.cpp:103] Top shape: 50 1 1 1 (50)
I0326 20:59:36.808905 30867 net.cpp:103] Top shape: 50 1 1 1 (50)
I0326 20:59:36.808910 30867 net.cpp:67] Creating Layer conv1
I0326 20:59:36.808939 30867 net.cpp:394] conv1 <- data
I0326 20:59:36.808943 30867 net.cpp:356] conv1 -> conv1
I0326 20:59:36.808950 30867 net.cpp:96] Setting up conv1
I0326 20:59:36.809120 30867 net.cpp:103] Top shape: 50 48 55 55 (7260000)
I0326 20:59:36.809140 30867 net.cpp:67] Creating Layer relu1
I0326 20:59:36.809142 30867 net.cpp:394] relu1 <- conv1
I0326 20:59:36.809145 30867 net.cpp:345] relu1 -> conv1 (in-place)
I0326 20:59:36.809149 30867 net.cpp:96] Setting up relu1
I0326 20:59:36.809151 30867 net.cpp:103] Top shape: 50 48 55 55 (7260000)
I0326 20:59:36.809156 30867 net.cpp:67] Creating Layer norm1
I0326 20:59:36.809169 30867 net.cpp:394] norm1 <- conv1
I0326 20:59:36.809170 30867 net.cpp:356] norm1 -> norm1
I0326 20:59:36.809173 30867 net.cpp:96] Setting up norm1
I0326 20:59:36.809176 30867 net.cpp:103] Top shape: 50 48 55 55 (7260000)
I0326 20:59:36.809188 30867 net.cpp:67] Creating Layer pool1
I0326 20:59:36.809190 30867 net.cpp:394] pool1 <- norm1
I0326 20:59:36.809193 30867 net.cpp:356] pool1 -> pool1
I0326 20:59:36.809196 30867 net.cpp:96] Setting up pool1
I0326 20:59:36.809211 30867 net.cpp:103] Top shape: 50 48 27 27 (1749600)
I0326 20:59:36.809214 30867 net.cpp:67] Creating Layer conv2
I0326 20:59:36.809216 30867 net.cpp:394] conv2 <- pool1
I0326 20:59:36.809228 30867 net.cpp:356] conv2 -> conv2
I0326 20:59:36.809232 30867 net.cpp:96] Setting up conv2
I0326 20:59:36.810168 30867 net.cpp:103] Top shape: 50 96 19 19 (1732800)
I0326 20:59:36.810185 30867 net.cpp:67] Creating Layer relu2
I0326 20:59:36.810187 30867 net.cpp:394] relu2 <- conv2
I0326 20:59:36.810190 30867 net.cpp:345] relu2 -> conv2 (in-place)
I0326 20:59:36.810194 30867 net.cpp:96] Setting up relu2
I0326 20:59:36.810196 30867 net.cpp:103] Top shape: 50 96 19 19 (1732800)
I0326 20:59:36.810201 30867 net.cpp:67] Creating Layer norm2
I0326 20:59:36.810214 30867 net.cpp:394] norm2 <- conv2
I0326 20:59:36.810215 30867 net.cpp:356] norm2 -> norm2
I0326 20:59:36.810220 30867 net.cpp:96] Setting up norm2
I0326 20:59:36.810222 30867 net.cpp:103] Top shape: 50 96 19 19 (1732800)
I0326 20:59:36.810235 30867 net.cpp:67] Creating Layer pool2
I0326 20:59:36.810237 30867 net.cpp:394] pool2 <- norm2
I0326 20:59:36.810240 30867 net.cpp:356] pool2 -> pool2
I0326 20:59:36.810253 30867 net.cpp:96] Setting up pool2
I0326 20:59:36.810256 30867 net.cpp:103] Top shape: 50 96 9 9 (388800)
I0326 20:59:36.810261 30867 net.cpp:67] Creating Layer convx
I0326 20:59:36.810272 30867 net.cpp:394] convx <- pool2
I0326 20:59:36.810274 30867 net.cpp:356] convx -> convx
I0326 20:59:36.810278 30867 net.cpp:96] Setting up convx
I0326 20:59:36.811841 30867 net.cpp:103] Top shape: 50 128 7 7 (313600)
I0326 20:59:36.811861 30867 net.cpp:67] Creating Layer relux
I0326 20:59:36.811862 30867 net.cpp:394] relux <- convx
I0326 20:59:36.811866 30867 net.cpp:345] relux -> convx (in-place)
I0326 20:59:36.811869 30867 net.cpp:96] Setting up relux
I0326 20:59:36.811872 30867 net.cpp:103] Top shape: 50 128 7 7 (313600)
I0326 20:59:36.811877 30867 net.cpp:67] Creating Layer poolx
I0326 20:59:36.811878 30867 net.cpp:394] poolx <- convx
I0326 20:59:36.811892 30867 net.cpp:356] poolx -> poolx
I0326 20:59:36.811895 30867 net.cpp:96] Setting up poolx
I0326 20:59:36.811908 30867 net.cpp:103] Top shape: 50 128 4 4 (102400)
I0326 20:59:36.811913 30867 net.cpp:67] Creating Layer conv3
I0326 20:59:36.811915 30867 net.cpp:394] conv3 <- poolx
I0326 20:59:36.811929 30867 net.cpp:356] conv3 -> conv3
I0326 20:59:36.811933 30867 net.cpp:96] Setting up conv3
I0326 20:59:36.816238 30867 net.cpp:103] Top shape: 50 256 2 2 (51200)
I0326 20:59:36.816263 30867 net.cpp:67] Creating Layer relu3
I0326 20:59:36.816267 30867 net.cpp:394] relu3 <- conv3
I0326 20:59:36.816272 30867 net.cpp:345] relu3 -> conv3 (in-place)
I0326 20:59:36.816275 30867 net.cpp:96] Setting up relu3
I0326 20:59:36.816279 30867 net.cpp:103] Top shape: 50 256 2 2 (51200)
I0326 20:59:36.816298 30867 net.cpp:67] Creating Layer conv4
I0326 20:59:36.816300 30867 net.cpp:394] conv4 <- conv3
I0326 20:59:36.816304 30867 net.cpp:356] conv4 -> conv4
I0326 20:59:36.816334 30867 net.cpp:96] Setting up conv4
I0326 20:59:36.818616 30867 net.cpp:103] Top shape: 50 384 2 2 (76800)
I0326 20:59:36.818640 30867 net.cpp:67] Creating Layer relu4
I0326 20:59:36.818645 30867 net.cpp:394] relu4 <- conv4
I0326 20:59:36.818646 30867 net.cpp:345] relu4 -> conv4 (in-place)
I0326 20:59:36.818651 30867 net.cpp:96] Setting up relu4
I0326 20:59:36.818665 30867 net.cpp:103] Top shape: 50 384 2 2 (76800)
I0326 20:59:36.818670 30867 net.cpp:67] Creating Layer pool4
I0326 20:59:36.818672 30867 net.cpp:394] pool4 <- conv4
I0326 20:59:36.818684 30867 net.cpp:356] pool4 -> pool4
I0326 20:59:36.818687 30867 net.cpp:96] Setting up pool4
I0326 20:59:36.818693 30867 net.cpp:103] Top shape: 50 384 1 1 (19200)
I0326 20:59:36.818707 30867 net.cpp:67] Creating Layer ip1
I0326 20:59:36.818709 30867 net.cpp:394] ip1 <- pool4
I0326 20:59:36.818713 30867 net.cpp:356] ip1 -> ip1
I0326 20:59:36.818727 30867 net.cpp:96] Setting up ip1
I0326 20:59:36.822708 30867 net.cpp:103] Top shape: 50 512 1 1 (25600)
I0326 20:59:36.822726 30867 net.cpp:67] Creating Layer relu5
I0326 20:59:36.822729 30867 net.cpp:394] relu5 <- ip1
I0326 20:59:36.822732 30867 net.cpp:345] relu5 -> ip1 (in-place)
I0326 20:59:36.822736 30867 net.cpp:96] Setting up relu5
I0326 20:59:36.822741 30867 net.cpp:103] Top shape: 50 512 1 1 (25600)
I0326 20:59:36.822744 30867 net.cpp:67] Creating Layer dropout
I0326 20:59:36.822757 30867 net.cpp:394] dropout <- ip1
I0326 20:59:36.822760 30867 net.cpp:345] dropout -> ip1 (in-place)
I0326 20:59:36.822763 30867 net.cpp:96] Setting up dropout
I0326 20:59:36.822765 30867 net.cpp:103] Top shape: 50 512 1 1 (25600)
I0326 20:59:36.822778 30867 net.cpp:67] Creating Layer ip2
I0326 20:59:36.822782 30867 net.cpp:394] ip2 <- ip1
I0326 20:59:36.822794 30867 net.cpp:356] ip2 -> ip2
I0326 20:59:36.822799 30867 net.cpp:96] Setting up ip2
I0326 20:59:36.828470 30867 net.cpp:103] Top shape: 50 512 1 1 (25600)
I0326 20:59:36.828501 30867 net.cpp:67] Creating Layer relu6
I0326 20:59:36.828505 30867 net.cpp:394] relu6 <- ip2
I0326 20:59:36.828510 30867 net.cpp:345] relu6 -> ip2 (in-place)
I0326 20:59:36.828516 30867 net.cpp:96] Setting up relu6
I0326 20:59:36.828526 30867 net.cpp:103] Top shape: 50 512 1 1 (25600)
I0326 20:59:36.828532 30867 net.cpp:67] Creating Layer dropout
I0326 20:59:36.828536 30867 net.cpp:394] dropout <- ip2
I0326 20:59:36.828541 30867 net.cpp:345] dropout -> ip2 (in-place)
I0326 20:59:36.828546 30867 net.cpp:96] Setting up dropout
I0326 20:59:36.828549 30867 net.cpp:103] Top shape: 50 512 1 1 (25600)
I0326 20:59:36.828558 30867 net.cpp:67] Creating Layer ip3
I0326 20:59:36.828562 30867 net.cpp:394] ip3 <- ip2
I0326 20:59:36.828567 30867 net.cpp:356] ip3 -> ip3
I0326 20:59:36.828573 30867 net.cpp:96] Setting up ip3
I0326 20:59:36.828649 30867 net.cpp:103] Top shape: 50 5 1 1 (250)
I0326 20:59:36.828660 30867 net.cpp:67] Creating Layer ip3_ip3_0_split
I0326 20:59:36.828673 30867 net.cpp:394] ip3_ip3_0_split <- ip3
I0326 20:59:36.828678 30867 net.cpp:356] ip3_ip3_0_split -> ip3_ip3_0_split_0
I0326 20:59:36.828685 30867 net.cpp:356] ip3_ip3_0_split -> ip3_ip3_0_split_1
I0326 20:59:36.828691 30867 net.cpp:96] Setting up ip3_ip3_0_split
I0326 20:59:36.828697 30867 net.cpp:103] Top shape: 50 5 1 1 (250)
I0326 20:59:36.828701 30867 net.cpp:103] Top shape: 50 5 1 1 (250)
I0326 20:59:36.828707 30867 net.cpp:67] Creating Layer accuracy
I0326 20:59:36.828711 30867 net.cpp:394] accuracy <- ip3_ip3_0_split_0
I0326 20:59:36.828716 30867 net.cpp:394] accuracy <- label_mnist_1_split_0
I0326 20:59:36.828723 30867 net.cpp:356] accuracy -> accuracy
I0326 20:59:36.828728 30867 net.cpp:96] Setting up accuracy
I0326 20:59:36.828732 30867 net.cpp:103] Top shape: 1 1 1 1 (1)
I0326 20:59:36.828739 30867 net.cpp:67] Creating Layer loss
I0326 20:59:36.828754 30867 net.cpp:394] loss <- ip3_ip3_0_split_1
I0326 20:59:36.828758 30867 net.cpp:394] loss <- label_mnist_1_split_1
I0326 20:59:36.828773 30867 net.cpp:356] loss -> loss
I0326 20:59:36.828778 30867 net.cpp:96] Setting up loss
I0326 20:59:36.828784 30867 net.cpp:103] Top shape: 1 1 1 1 (1)
I0326 20:59:36.828804 30867 net.cpp:109]     with loss weight 1
I0326 20:59:36.828815 30867 net.cpp:170] loss needs backward computation.
I0326 20:59:36.828819 30867 net.cpp:172] accuracy does not need backward computation.
I0326 20:59:36.828824 30867 net.cpp:170] ip3_ip3_0_split needs backward computation.
I0326 20:59:36.828826 30867 net.cpp:170] ip3 needs backward computation.
I0326 20:59:36.828830 30867 net.cpp:170] dropout needs backward computation.
…
