…
I0323 22:03:32.649703 19196 net.cpp:275] The NetState phase (0) differed from the phase (1) specified by a rule in layer mnist
I0323 22:03:32.649796 19196 net.cpp:39] Initializing net from parameters: 
name: "RetinopathyNet"
layers {
  top: "data"
  top: "label"
  name: "mnist"
  type: DATA
  data_param {
    source: "/home/niko/datasets/DiabeticRetinopathyDetection/processed/run-normal/diabetic_retinopathy_train_lmdb"
    batch_size: 250
    backend: LMDB
  }
  include {
    phase: TRAIN
  }
  transform_param {
    mirror: true
    crop_size: 200
    mean_file: "/home/niko/datasets/DiabeticRetinopathyDetection/processed/run-normal/diabetic_retinopathy_mean.binaryproto"
  }
}
layers {
  bottom: "data"
  top: "conv1"
  name: "conv1"
  type: CONVOLUTION
  blobs_lr: 1
  blobs_lr: 2
  weight_decay: 1
  weight_decay: 0
  convolution_param {
    num_output: 40
    kernel_size: 7
    stride: 2
    weight_filler {
      type: "xavier"
    }
    bias_filler {
      type: "constant"
      value: 0
    }
  }
}
layers {
  bottom: "conv1"
  top: "conv1"
  name: "relu1"
  type: RELU
}
layers {
  bottom: "conv1"
  top: "norm1"
  name: "norm1"
  type: LRN
  lrn_param {
    local_size: 5
    alpha: 0.0001
    beta: 0.75
  }
}
layers {
  bottom: "norm1"
  top: "pool1"
  name: "pool1"
  type: POOLING
  pooling_param {
    pool: MAX
    kernel_size: 2
    stride: 2
  }
}
layers {
  bottom: "pool1"
  top: "conv2"
  name: "conv2"
  type: CONVOLUTION
  blobs_lr: 1
  blobs_lr: 2
  weight_decay: 1
  weight_decay: 0
  convolution_param {
    num_output: 96
    kernel_size: 7
    stride: 2
    weight_filler {
      type: "xavier"
    }
    bias_filler {
      type: "constant"
      value: 1
    }
  }
}
layers {
  bottom: "conv2"
  top: "conv2"
  name: "relu2"
  type: RELU
}
layers {
  bottom: "conv2"
  top: "norm2"
  name: "norm2"
  type: LRN
  lrn_param {
    local_size: 5
    alpha: 0.0001
    beta: 0.75
  }
}
layers {
  bottom: "norm2"
  top: "pool2"
  name: "pool2"
  type: POOLING
  pooling_param {
    pool: MAX
    kernel_size: 3
    stride: 2
  }
}
layers {
  bottom: "pool2"
  top: "conv3"
  name: "conv3"
  type: CONVOLUTION
  blobs_lr: 1
  blobs_lr: 2
  weight_decay: 1
  weight_decay: 0
  convolution_param {
    num_output: 256
    pad: 1
    kernel_size: 5
    weight_filler {
      type: "xavier"
    }
    bias_filler {
      type: "constant"
      value: 0
    }
  }
}
layers {
  bottom: "conv3"
  top: "conv3"
  name: "relu3"
  type: RELU
}
layers {
  bottom: "conv3"
  top: "conv4"
  name: "conv4"
  type: CONVOLUTION
  blobs_lr: 1
  blobs_lr: 2
  convolution_param {
    num_output: 384
    pad: 1
    kernel_size: 3
    group: 2
    weight_filler {
      type: "xavier"
    }
    bias_filler {
      type: "constant"
    }
  }
}
layers {
  bottom: "conv4"
  top: "conv4"
  name: "relu4"
  type: RELU
}
layers {
  bottom: "conv4"
  top: "pool4"
  name: "pool4"
  type: POOLING
  pooling_param {
    pool: MAX
    kernel_size: 3
    stride: 2
  }
}
layers {
  bottom: "pool4"
  top: "ip1"
  name: "ip1"
  type: INNER_PRODUCT
  blobs_lr: 1
  blobs_lr: 2
  weight_decay: 1
  weight_decay: 0
  inner_product_param {
    num_output: 512
    weight_filler {
      type: "gaussian"
      std: 0.005
    }
    bias_filler {
      type: "constant"
      value: 0.1
    }
  }
}
layers {
  bottom: "ip1"
  top: "ip1"
  name: "relu5"
  type: SIGMOID
}
layers {
  bottom: "ip1"
  top: "ip2"
  name: "ip2"
  type: INNER_PRODUCT
  blobs_lr: 1
  blobs_lr: 2
  inner_product_param {
    num_output: 512
    weight_filler {
      type: "gaussian"
      std: 0.005
    }
    bias_filler {
      type: "constant"
      value: 0.1
    }
  }
}
layers {
  bottom: "ip2"
  top: "ip2"
  name: "relu6"
  type: SIGMOID
}
layers {
  bottom: "ip2"
  top: "ip3"
  name: "ip3"
  type: INNER_PRODUCT
  blobs_lr: 1
  blobs_lr: 2
  weight_decay: 1
  weight_decay: 0
  inner_product_param {
    num_output: 5
    weight_filler {
      type: "gaussian"
      std: 0.01
    }
    bias_filler {
      type: "constant"
      value: 0
    }
  }
}
layers {
  bottom: "ip3"
  bottom: "label"
  top: "accuracy"
  name: "accuracy"
  type: ACCURACY
}
layers {
  bottom: "ip3"
  bottom: "label"
  top: "loss"
  name: "loss"
  type: SOFTMAX_LOSS
}
state {
  phase: TRAIN
}
I0323 22:03:32.649898 19196 net.cpp:67] Creating Layer mnist
I0323 22:03:32.649902 19196 net.cpp:356] mnist -> data
I0323 22:03:32.649912 19196 net.cpp:356] mnist -> label
I0323 22:03:32.649920 19196 net.cpp:96] Setting up mnist
I0323 22:03:32.649971 19196 data_layer.cpp:68] Opening lmdb /home/niko/datasets/DiabeticRetinopathyDetection/processed/run-normal/diabetic_retinopathy_train_lmdb
I0323 22:03:32.650039 19196 data_layer.cpp:128] output data size: 250,3,200,200
I0323 22:03:32.650043 19196 base_data_layer.cpp:36] Loading mean file from/home/niko/datasets/DiabeticRetinopathyDetection/processed/run-normal/diabetic_retinopathy_mean.binaryproto
I0323 22:03:32.671665 19196 net.cpp:103] Top shape: 250 3 200 200 (30000000)
I0323 22:03:32.671690 19196 net.cpp:103] Top shape: 250 1 1 1 (250)
I0323 22:03:32.671699 19196 net.cpp:67] Creating Layer label_mnist_1_split
I0323 22:03:32.671701 19196 net.cpp:394] label_mnist_1_split <- label
I0323 22:03:32.671713 19196 net.cpp:356] label_mnist_1_split -> label_mnist_1_split_0
I0323 22:03:32.671720 19196 net.cpp:356] label_mnist_1_split -> label_mnist_1_split_1
I0323 22:03:32.671725 19196 net.cpp:96] Setting up label_mnist_1_split
I0323 22:03:32.671728 19196 net.cpp:103] Top shape: 250 1 1 1 (250)
I0323 22:03:32.671730 19196 net.cpp:103] Top shape: 250 1 1 1 (250)
I0323 22:03:32.671736 19196 net.cpp:67] Creating Layer conv1
I0323 22:03:32.671737 19196 net.cpp:394] conv1 <- data
I0323 22:03:32.671741 19196 net.cpp:356] conv1 -> conv1
I0323 22:03:32.671746 19196 net.cpp:96] Setting up conv1
I0323 22:03:32.965788 19196 net.cpp:103] Top shape: 250 40 97 97 (94090000)
I0323 22:03:32.965816 19196 net.cpp:67] Creating Layer relu1
I0323 22:03:32.965821 19196 net.cpp:394] relu1 <- conv1
I0323 22:03:32.965824 19196 net.cpp:345] relu1 -> conv1 (in-place)
I0323 22:03:32.965829 19196 net.cpp:96] Setting up relu1
I0323 22:03:32.965834 19196 net.cpp:103] Top shape: 250 40 97 97 (94090000)
I0323 22:03:32.965838 19196 net.cpp:67] Creating Layer norm1
I0323 22:03:32.965840 19196 net.cpp:394] norm1 <- conv1
I0323 22:03:32.965843 19196 net.cpp:356] norm1 -> norm1
I0323 22:03:32.965848 19196 net.cpp:96] Setting up norm1
I0323 22:03:32.965862 19196 net.cpp:103] Top shape: 250 40 97 97 (94090000)
I0323 22:03:32.965865 19196 net.cpp:67] Creating Layer pool1
I0323 22:03:32.965867 19196 net.cpp:394] pool1 <- norm1
I0323 22:03:32.965883 19196 net.cpp:356] pool1 -> pool1
I0323 22:03:32.965885 19196 net.cpp:96] Setting up pool1
I0323 22:03:32.965904 19196 net.cpp:103] Top shape: 250 40 49 49 (24010000)
I0323 22:03:32.965910 19196 net.cpp:67] Creating Layer conv2
I0323 22:03:32.965912 19196 net.cpp:394] conv2 <- pool1
I0323 22:03:32.965915 19196 net.cpp:356] conv2 -> conv2
I0323 22:03:32.965920 19196 net.cpp:96] Setting up conv2
I0323 22:03:32.967017 19196 net.cpp:103] Top shape: 250 96 22 22 (11616000)
I0323 22:03:32.967028 19196 net.cpp:67] Creating Layer relu2
I0323 22:03:32.967031 19196 net.cpp:394] relu2 <- conv2
I0323 22:03:32.967033 19196 net.cpp:345] relu2 -> conv2 (in-place)
I0323 22:03:32.967036 19196 net.cpp:96] Setting up relu2
I0323 22:03:32.967039 19196 net.cpp:103] Top shape: 250 96 22 22 (11616000)
I0323 22:03:32.967042 19196 net.cpp:67] Creating Layer norm2
I0323 22:03:32.967070 19196 net.cpp:394] norm2 <- conv2
I0323 22:03:32.967108 19196 net.cpp:356] norm2 -> norm2
I0323 22:03:32.967115 19196 net.cpp:96] Setting up norm2
I0323 22:03:32.967120 19196 net.cpp:103] Top shape: 250 96 22 22 (11616000)
I0323 22:03:32.967134 19196 net.cpp:67] Creating Layer pool2
I0323 22:03:32.967136 19196 net.cpp:394] pool2 <- norm2
I0323 22:03:32.967140 19196 net.cpp:356] pool2 -> pool2
I0323 22:03:32.967154 19196 net.cpp:96] Setting up pool2
I0323 22:03:32.967157 19196 net.cpp:103] Top shape: 250 96 11 11 (2904000)
I0323 22:03:32.967161 19196 net.cpp:67] Creating Layer conv3
I0323 22:03:32.967172 19196 net.cpp:394] conv3 <- pool2
I0323 22:03:32.967177 19196 net.cpp:356] conv3 -> conv3
I0323 22:03:32.967190 19196 net.cpp:96] Setting up conv3
I0323 22:03:32.970329 19196 net.cpp:103] Top shape: 250 256 9 9 (5184000)
I0323 22:03:32.970336 19196 net.cpp:67] Creating Layer relu3
I0323 22:03:32.970338 19196 net.cpp:394] relu3 <- conv3
I0323 22:03:32.970341 19196 net.cpp:345] relu3 -> conv3 (in-place)
I0323 22:03:32.970343 19196 net.cpp:96] Setting up relu3
I0323 22:03:32.970346 19196 net.cpp:103] Top shape: 250 256 9 9 (5184000)
I0323 22:03:32.970350 19196 net.cpp:67] Creating Layer conv4
I0323 22:03:32.970352 19196 net.cpp:394] conv4 <- conv3
I0323 22:03:32.970355 19196 net.cpp:356] conv4 -> conv4
I0323 22:03:32.970360 19196 net.cpp:96] Setting up conv4
I0323 22:03:32.972682 19196 net.cpp:103] Top shape: 250 384 9 9 (7776000)
I0323 22:03:32.972690 19196 net.cpp:67] Creating Layer relu4
I0323 22:03:32.972692 19196 net.cpp:394] relu4 <- conv4
I0323 22:03:32.972695 19196 net.cpp:345] relu4 -> conv4 (in-place)
I0323 22:03:32.972698 19196 net.cpp:96] Setting up relu4
I0323 22:03:32.972700 19196 net.cpp:103] Top shape: 250 384 9 9 (7776000)
I0323 22:03:32.972703 19196 net.cpp:67] Creating Layer pool4
I0323 22:03:32.972705 19196 net.cpp:394] pool4 <- conv4
I0323 22:03:32.972707 19196 net.cpp:356] pool4 -> pool4
I0323 22:03:32.972710 19196 net.cpp:96] Setting up pool4
I0323 22:03:32.972713 19196 net.cpp:103] Top shape: 250 384 4 4 (1536000)
I0323 22:03:32.972729 19196 net.cpp:67] Creating Layer ip1
I0323 22:03:32.972731 19196 net.cpp:394] ip1 <- pool4
I0323 22:03:32.972733 19196 net.cpp:356] ip1 -> ip1
I0323 22:03:32.972738 19196 net.cpp:96] Setting up ip1
I0323 22:03:33.040187 19196 net.cpp:103] Top shape: 250 512 1 1 (128000)
I0323 22:03:33.040212 19196 net.cpp:67] Creating Layer relu5
I0323 22:03:33.040215 19196 net.cpp:394] relu5 <- ip1
I0323 22:03:33.040220 19196 net.cpp:345] relu5 -> ip1 (in-place)
I0323 22:03:33.040223 19196 net.cpp:96] Setting up relu5
I0323 22:03:33.040235 19196 net.cpp:103] Top shape: 250 512 1 1 (128000)
I0323 22:03:33.040251 19196 net.cpp:67] Creating Layer ip2
I0323 22:03:33.040252 19196 net.cpp:394] ip2 <- ip1
I0323 22:03:33.040256 19196 net.cpp:356] ip2 -> ip2
I0323 22:03:33.040258 19196 net.cpp:96] Setting up ip2
I0323 22:03:33.045567 19196 net.cpp:103] Top shape: 250 512 1 1 (128000)
I0323 22:03:33.045575 19196 net.cpp:67] Creating Layer relu6
I0323 22:03:33.045578 19196 net.cpp:394] relu6 <- ip2
I0323 22:03:33.045579 19196 net.cpp:345] relu6 -> ip2 (in-place)
I0323 22:03:33.045583 19196 net.cpp:96] Setting up relu6
I0323 22:03:33.045586 19196 net.cpp:103] Top shape: 250 512 1 1 (128000)
I0323 22:03:33.045590 19196 net.cpp:67] Creating Layer ip3
I0323 22:03:33.045593 19196 net.cpp:394] ip3 <- ip2
I0323 22:03:33.045595 19196 net.cpp:356] ip3 -> ip3
I0323 22:03:33.045599 19196 net.cpp:96] Setting up ip3
I0323 22:03:33.045694 19196 net.cpp:103] Top shape: 250 5 1 1 (1250)
I0323 22:03:33.045699 19196 net.cpp:67] Creating Layer ip3_ip3_0_split
I0323 22:03:33.045702 19196 net.cpp:394] ip3_ip3_0_split <- ip3
I0323 22:03:33.045716 19196 net.cpp:356] ip3_ip3_0_split -> ip3_ip3_0_split_0
I0323 22:03:33.045719 19196 net.cpp:356] ip3_ip3_0_split -> ip3_ip3_0_split_1
I0323 22:03:33.045732 19196 net.cpp:96] Setting up ip3_ip3_0_split
I0323 22:03:33.045735 19196 net.cpp:103] Top shape: 250 5 1 1 (1250)
I0323 22:03:33.045737 19196 net.cpp:103] Top shape: 250 5 1 1 (1250)
I0323 22:03:33.045739 19196 net.cpp:67] Creating Layer accuracy
I0323 22:03:33.045758 19196 net.cpp:394] accuracy <- ip3_ip3_0_split_0
I0323 22:03:33.045761 19196 net.cpp:394] accuracy <- label_mnist_1_split_0
I0323 22:03:33.045766 19196 net.cpp:356] accuracy -> accuracy
I0323 22:03:33.045769 19196 net.cpp:96] Setting up accuracy
I0323 22:03:33.045775 19196 net.cpp:103] Top shape: 1 1 1 1 (1)
I0323 22:03:33.045779 19196 net.cpp:67] Creating Layer loss
I0323 22:03:33.045781 19196 net.cpp:394] loss <- ip3_ip3_0_split_1
I0323 22:03:33.045783 19196 net.cpp:394] loss <- label_mnist_1_split_1
I0323 22:03:33.045785 19196 net.cpp:356] loss -> loss
I0323 22:03:33.045799 19196 net.cpp:96] Setting up loss
I0323 22:03:33.045804 19196 net.cpp:103] Top shape: 1 1 1 1 (1)
I0323 22:03:33.045806 19196 net.cpp:109]     with loss weight 1
I0323 22:03:33.045853 19196 net.cpp:170] loss needs backward computation.
I0323 22:03:33.045855 19196 net.cpp:172] accuracy does not need backward computation.
I0323 22:03:33.045858 19196 net.cpp:170] ip3_ip3_0_split needs backward computation.
I0323 22:03:33.045860 19196 net.cpp:170] ip3 needs backward computation.
I0323 22:03:33.045861 19196 net.cpp:170] relu6 needs backward computation.
…
I0323 22:03:33.046406 19196 net.cpp:275] The NetState phase (1) differed from the phase (0) specified by a rule in layer mnist
I0323 22:03:33.046500 19196 net.cpp:39] Initializing net from parameters: 
name: "RetinopathyNet"
layers {
  top: "data"
  top: "label"
  name: "mnist"
  type: DATA
  data_param {
    source: "/home/niko/datasets/DiabeticRetinopathyDetection/processed/run-normal/diabetic_retinopathy_val_lmdb"
    batch_size: 50
    backend: LMDB
  }
  include {
    phase: TEST
  }
  transform_param {
    mirror: true
    crop_size: 200
    mean_file: "/home/niko/datasets/DiabeticRetinopathyDetection/processed/run-normal/diabetic_retinopathy_mean.binaryproto"
  }
}
layers {
  bottom: "data"
  top: "conv1"
  name: "conv1"
  type: CONVOLUTION
  blobs_lr: 1
  blobs_lr: 2
  weight_decay: 1
  weight_decay: 0
  convolution_param {
    num_output: 40
    kernel_size: 7
    stride: 2
    weight_filler {
      type: "xavier"
    }
    bias_filler {
      type: "constant"
      value: 0
    }
  }
}
layers {
  bottom: "conv1"
  top: "conv1"
  name: "relu1"
  type: RELU
}
layers {
  bottom: "conv1"
  top: "norm1"
  name: "norm1"
  type: LRN
  lrn_param {
    local_size: 5
    alpha: 0.0001
    beta: 0.75
  }
}
layers {
  bottom: "norm1"
  top: "pool1"
  name: "pool1"
  type: POOLING
  pooling_param {
    pool: MAX
    kernel_size: 2
    stride: 2
  }
}
layers {
  bottom: "pool1"
  top: "conv2"
  name: "conv2"
  type: CONVOLUTION
  blobs_lr: 1
  blobs_lr: 2
  weight_decay: 1
  weight_decay: 0
  convolution_param {
    num_output: 96
    kernel_size: 7
    stride: 2
    weight_filler {
      type: "xavier"
    }
    bias_filler {
      type: "constant"
      value: 1
    }
  }
}
layers {
  bottom: "conv2"
  top: "conv2"
  name: "relu2"
  type: RELU
}
layers {
  bottom: "conv2"
  top: "norm2"
  name: "norm2"
  type: LRN
  lrn_param {
    local_size: 5
    alpha: 0.0001
    beta: 0.75
  }
}
layers {
  bottom: "norm2"
  top: "pool2"
  name: "pool2"
  type: POOLING
  pooling_param {
    pool: MAX
    kernel_size: 3
    stride: 2
  }
}
layers {
  bottom: "pool2"
  top: "conv3"
  name: "conv3"
  type: CONVOLUTION
  blobs_lr: 1
  blobs_lr: 2
  weight_decay: 1
  weight_decay: 0
  convolution_param {
    num_output: 256
    pad: 1
    kernel_size: 5
    weight_filler {
      type: "xavier"
    }
    bias_filler {
      type: "constant"
      value: 0
    }
  }
}
layers {
  bottom: "conv3"
  top: "conv3"
  name: "relu3"
  type: RELU
}
layers {
  bottom: "conv3"
  top: "conv4"
  name: "conv4"
  type: CONVOLUTION
  blobs_lr: 1
  blobs_lr: 2
  convolution_param {
    num_output: 384
    pad: 1
    kernel_size: 3
    group: 2
    weight_filler {
      type: "xavier"
    }
    bias_filler {
      type: "constant"
    }
  }
}
layers {
  bottom: "conv4"
  top: "conv4"
  name: "relu4"
  type: RELU
}
layers {
  bottom: "conv4"
  top: "pool4"
  name: "pool4"
  type: POOLING
  pooling_param {
    pool: MAX
    kernel_size: 3
    stride: 2
  }
}
layers {
  bottom: "pool4"
  top: "ip1"
  name: "ip1"
  type: INNER_PRODUCT
  blobs_lr: 1
  blobs_lr: 2
  weight_decay: 1
  weight_decay: 0
  inner_product_param {
    num_output: 512
    weight_filler {
      type: "gaussian"
      std: 0.005
    }
    bias_filler {
      type: "constant"
      value: 0.1
    }
  }
}
layers {
  bottom: "ip1"
  top: "ip1"
  name: "relu5"
  type: SIGMOID
}
layers {
  bottom: "ip1"
  top: "ip2"
  name: "ip2"
  type: INNER_PRODUCT
  blobs_lr: 1
  blobs_lr: 2
  inner_product_param {
    num_output: 512
    weight_filler {
      type: "gaussian"
      std: 0.005
    }
    bias_filler {
      type: "constant"
      value: 0.1
    }
  }
}
layers {
  bottom: "ip2"
  top: "ip2"
  name: "relu6"
  type: SIGMOID
}
layers {
  bottom: "ip2"
  top: "ip3"
  name: "ip3"
  type: INNER_PRODUCT
  blobs_lr: 1
  blobs_lr: 2
  weight_decay: 1
  weight_decay: 0
  inner_product_param {
    num_output: 5
    weight_filler {
      type: "gaussian"
      std: 0.01
    }
    bias_filler {
      type: "constant"
      value: 0
    }
  }
}
layers {
  bottom: "ip3"
  bottom: "label"
  top: "accuracy"
  name: "accuracy"
  type: ACCURACY
}
layers {
  bottom: "ip3"
  bottom: "label"
  top: "loss"
  name: "loss"
  type: SOFTMAX_LOSS
}
state {
  phase: TEST
}
I0323 22:03:33.046567 19196 net.cpp:67] Creating Layer mnist
I0323 22:03:33.046571 19196 net.cpp:356] mnist -> data
I0323 22:03:33.046576 19196 net.cpp:356] mnist -> label
I0323 22:03:33.046579 19196 net.cpp:96] Setting up mnist
I0323 22:03:33.046612 19196 data_layer.cpp:68] Opening lmdb /home/niko/datasets/DiabeticRetinopathyDetection/processed/run-normal/diabetic_retinopathy_val_lmdb
I0323 22:03:33.046707 19196 data_layer.cpp:128] output data size: 50,3,200,200
I0323 22:03:33.046711 19196 base_data_layer.cpp:36] Loading mean file from/home/niko/datasets/DiabeticRetinopathyDetection/processed/run-normal/diabetic_retinopathy_mean.binaryproto
I0323 22:03:33.058639 19196 net.cpp:103] Top shape: 50 3 200 200 (6000000)
I0323 22:03:33.058655 19196 net.cpp:103] Top shape: 50 1 1 1 (50)
I0323 22:03:33.058683 19196 net.cpp:67] Creating Layer label_mnist_1_split
I0323 22:03:33.058686 19196 net.cpp:394] label_mnist_1_split <- label
I0323 22:03:33.058691 19196 net.cpp:356] label_mnist_1_split -> label_mnist_1_split_0
I0323 22:03:33.058696 19196 net.cpp:356] label_mnist_1_split -> label_mnist_1_split_1
I0323 22:03:33.058699 19196 net.cpp:96] Setting up label_mnist_1_split
I0323 22:03:33.058702 19196 net.cpp:103] Top shape: 50 1 1 1 (50)
I0323 22:03:33.058704 19196 net.cpp:103] Top shape: 50 1 1 1 (50)
I0323 22:03:33.058711 19196 net.cpp:67] Creating Layer conv1
I0323 22:03:33.058713 19196 net.cpp:394] conv1 <- data
I0323 22:03:33.058727 19196 net.cpp:356] conv1 -> conv1
I0323 22:03:33.058732 19196 net.cpp:96] Setting up conv1
I0323 22:03:33.058863 19196 net.cpp:103] Top shape: 50 40 97 97 (18818000)
I0323 22:03:33.058883 19196 net.cpp:67] Creating Layer relu1
I0323 22:03:33.058886 19196 net.cpp:394] relu1 <- conv1
I0323 22:03:33.058888 19196 net.cpp:345] relu1 -> conv1 (in-place)
I0323 22:03:33.058890 19196 net.cpp:96] Setting up relu1
I0323 22:03:33.058893 19196 net.cpp:103] Top shape: 50 40 97 97 (18818000)
I0323 22:03:33.058898 19196 net.cpp:67] Creating Layer norm1
I0323 22:03:33.058902 19196 net.cpp:394] norm1 <- conv1
I0323 22:03:33.058915 19196 net.cpp:356] norm1 -> norm1
I0323 22:03:33.058920 19196 net.cpp:96] Setting up norm1
I0323 22:03:33.058924 19196 net.cpp:103] Top shape: 50 40 97 97 (18818000)
I0323 22:03:33.058938 19196 net.cpp:67] Creating Layer pool1
I0323 22:03:33.058943 19196 net.cpp:394] pool1 <- norm1
I0323 22:03:33.058958 19196 net.cpp:356] pool1 -> pool1
I0323 22:03:33.058961 19196 net.cpp:96] Setting up pool1
I0323 22:03:33.058965 19196 net.cpp:103] Top shape: 50 40 49 49 (4802000)
I0323 22:03:33.058970 19196 net.cpp:67] Creating Layer conv2
I0323 22:03:33.058974 19196 net.cpp:394] conv2 <- pool1
I0323 22:03:33.058975 19196 net.cpp:356] conv2 -> conv2
I0323 22:03:33.058979 19196 net.cpp:96] Setting up conv2
I0323 22:03:33.060014 19196 net.cpp:103] Top shape: 50 96 22 22 (2323200)
I0323 22:03:33.060034 19196 net.cpp:67] Creating Layer relu2
I0323 22:03:33.060037 19196 net.cpp:394] relu2 <- conv2
I0323 22:03:33.060040 19196 net.cpp:345] relu2 -> conv2 (in-place)
I0323 22:03:33.060042 19196 net.cpp:96] Setting up relu2
I0323 22:03:33.060045 19196 net.cpp:103] Top shape: 50 96 22 22 (2323200)
I0323 22:03:33.060051 19196 net.cpp:67] Creating Layer norm2
I0323 22:03:33.060062 19196 net.cpp:394] norm2 <- conv2
I0323 22:03:33.060065 19196 net.cpp:356] norm2 -> norm2
I0323 22:03:33.060068 19196 net.cpp:96] Setting up norm2
I0323 22:03:33.060071 19196 net.cpp:103] Top shape: 50 96 22 22 (2323200)
I0323 22:03:33.060083 19196 net.cpp:67] Creating Layer pool2
I0323 22:03:33.060084 19196 net.cpp:394] pool2 <- norm2
I0323 22:03:33.060087 19196 net.cpp:356] pool2 -> pool2
I0323 22:03:33.060091 19196 net.cpp:96] Setting up pool2
I0323 22:03:33.060104 19196 net.cpp:103] Top shape: 50 96 11 11 (580800)
I0323 22:03:33.060108 19196 net.cpp:67] Creating Layer conv3
I0323 22:03:33.060109 19196 net.cpp:394] conv3 <- pool2
I0323 22:03:33.060112 19196 net.cpp:356] conv3 -> conv3
I0323 22:03:33.060124 19196 net.cpp:96] Setting up conv3
I0323 22:03:33.063410 19196 net.cpp:103] Top shape: 50 256 9 9 (1036800)
I0323 22:03:33.063436 19196 net.cpp:67] Creating Layer relu3
I0323 22:03:33.063437 19196 net.cpp:394] relu3 <- conv3
I0323 22:03:33.063441 19196 net.cpp:345] relu3 -> conv3 (in-place)
I0323 22:03:33.063444 19196 net.cpp:96] Setting up relu3
I0323 22:03:33.063447 19196 net.cpp:103] Top shape: 50 256 9 9 (1036800)
I0323 22:03:33.063452 19196 net.cpp:67] Creating Layer conv4
I0323 22:03:33.063454 19196 net.cpp:394] conv4 <- conv3
I0323 22:03:33.063457 19196 net.cpp:356] conv4 -> conv4
I0323 22:03:33.063472 19196 net.cpp:96] Setting up conv4
I0323 22:03:33.065788 19196 net.cpp:103] Top shape: 50 384 9 9 (1555200)
I0323 22:03:33.065806 19196 net.cpp:67] Creating Layer relu4
I0323 22:03:33.065809 19196 net.cpp:394] relu4 <- conv4
I0323 22:03:33.065812 19196 net.cpp:345] relu4 -> conv4 (in-place)
I0323 22:03:33.065815 19196 net.cpp:96] Setting up relu4
I0323 22:03:33.065834 19196 net.cpp:103] Top shape: 50 384 9 9 (1555200)
I0323 22:03:33.065847 19196 net.cpp:67] Creating Layer pool4
I0323 22:03:33.065850 19196 net.cpp:394] pool4 <- conv4
I0323 22:03:33.065851 19196 net.cpp:356] pool4 -> pool4
I0323 22:03:33.065863 19196 net.cpp:96] Setting up pool4
I0323 22:03:33.065870 19196 net.cpp:103] Top shape: 50 384 4 4 (307200)
I0323 22:03:33.065875 19196 net.cpp:67] Creating Layer ip1
I0323 22:03:33.065886 19196 net.cpp:394] ip1 <- pool4
I0323 22:03:33.065888 19196 net.cpp:356] ip1 -> ip1
I0323 22:03:33.065892 19196 net.cpp:96] Setting up ip1
I0323 22:03:33.135468 19196 net.cpp:103] Top shape: 50 512 1 1 (25600)
I0323 22:03:33.135493 19196 net.cpp:67] Creating Layer relu5
I0323 22:03:33.135496 19196 net.cpp:394] relu5 <- ip1
I0323 22:03:33.135501 19196 net.cpp:345] relu5 -> ip1 (in-place)
I0323 22:03:33.135505 19196 net.cpp:96] Setting up relu5
I0323 22:03:33.135515 19196 net.cpp:103] Top shape: 50 512 1 1 (25600)
I0323 22:03:33.135520 19196 net.cpp:67] Creating Layer ip2
I0323 22:03:33.135532 19196 net.cpp:394] ip2 <- ip1
I0323 22:03:33.135535 19196 net.cpp:356] ip2 -> ip2
I0323 22:03:33.135540 19196 net.cpp:96] Setting up ip2
I0323 22:03:33.141016 19196 net.cpp:103] Top shape: 50 512 1 1 (25600)
I0323 22:03:33.141031 19196 net.cpp:67] Creating Layer relu6
I0323 22:03:33.141033 19196 net.cpp:394] relu6 <- ip2
I0323 22:03:33.141037 19196 net.cpp:345] relu6 -> ip2 (in-place)
I0323 22:03:33.141039 19196 net.cpp:96] Setting up relu6
I0323 22:03:33.141042 19196 net.cpp:103] Top shape: 50 512 1 1 (25600)
I0323 22:03:33.141047 19196 net.cpp:67] Creating Layer ip3
I0323 22:03:33.141049 19196 net.cpp:394] ip3 <- ip2
I0323 22:03:33.141062 19196 net.cpp:356] ip3 -> ip3
I0323 22:03:33.141064 19196 net.cpp:96] Setting up ip3
I0323 22:03:33.141132 19196 net.cpp:103] Top shape: 50 5 1 1 (250)
I0323 22:03:33.141137 19196 net.cpp:67] Creating Layer ip3_ip3_0_split
I0323 22:03:33.141149 19196 net.cpp:394] ip3_ip3_0_split <- ip3
I0323 22:03:33.141151 19196 net.cpp:356] ip3_ip3_0_split -> ip3_ip3_0_split_0
I0323 22:03:33.141157 19196 net.cpp:356] ip3_ip3_0_split -> ip3_ip3_0_split_1
I0323 22:03:33.141160 19196 net.cpp:96] Setting up ip3_ip3_0_split
I0323 22:03:33.141163 19196 net.cpp:103] Top shape: 50 5 1 1 (250)
I0323 22:03:33.141165 19196 net.cpp:103] Top shape: 50 5 1 1 (250)
I0323 22:03:33.141168 19196 net.cpp:67] Creating Layer accuracy
I0323 22:03:33.141170 19196 net.cpp:394] accuracy <- ip3_ip3_0_split_0
I0323 22:03:33.141172 19196 net.cpp:394] accuracy <- label_mnist_1_split_0
I0323 22:03:33.141175 19196 net.cpp:356] accuracy -> accuracy
I0323 22:03:33.141180 19196 net.cpp:96] Setting up accuracy
I0323 22:03:33.141191 19196 net.cpp:103] Top shape: 1 1 1 1 (1)
I0323 22:03:33.141193 19196 net.cpp:67] Creating Layer loss
I0323 22:03:33.141196 19196 net.cpp:394] loss <- ip3_ip3_0_split_1
I0323 22:03:33.141197 19196 net.cpp:394] loss <- label_mnist_1_split_1
I0323 22:03:33.141212 19196 net.cpp:356] loss -> loss
I0323 22:03:33.141216 19196 net.cpp:96] Setting up loss
I0323 22:03:33.141218 19196 net.cpp:103] Top shape: 1 1 1 1 (1)
I0323 22:03:33.141229 19196 net.cpp:109]     with loss weight 1
I0323 22:03:33.141238 19196 net.cpp:170] loss needs backward computation.
I0323 22:03:33.141252 19196 net.cpp:172] accuracy does not need backward computation.
I0323 22:03:33.141254 19196 net.cpp:170] ip3_ip3_0_split needs backward computation.
I0323 22:03:33.141257 19196 net.cpp:170] ip3 needs backward computation.
I0323 22:03:33.141259 19196 net.cpp:170] relu6 needs backward computation.
…
