…
I0323 10:57:30.074599 22687 net.cpp:275] The NetState phase (0) differed from the phase (1) specified by a rule in layer mnist
I0323 10:57:30.074813 22687 net.cpp:39] Initializing net from parameters: 
name: "LeNet"
layers {
  top: "data"
  top: "label"
  name: "mnist"
  type: DATA
  data_param {
    source: "/home/niko/datasets/DiabeticRetinopathyDetection/processed/run-contrast-2/diabetic_retinopathy_train_lmdb"
    batch_size: 250
    backend: LMDB
  }
  include {
    phase: TRAIN
  }
  transform_param {
    mirror: true
    crop_size: 227
    mean_file: "/home/niko/datasets/DiabeticRetinopathyDetection/processed/run-contrast-2/diabetic_retinopathy_mean.binaryproto"
  }
}
layers {
  bottom: "data"
  top: "conv1"
  name: "conv1"
  type: CONVOLUTION
  blobs_lr: 1
  blobs_lr: 2
  weight_decay: 1
  weight_decay: 0
  convolution_param {
    num_output: 24
    kernel_size: 11
    stride: 4
    weight_filler {
      type: "xavier"
    }
    bias_filler {
      type: "constant"
      value: 0
    }
  }
}
layers {
  bottom: "conv1"
  top: "conv1"
  name: "relu1"
  type: RELU
}
layers {
  bottom: "conv1"
  top: "norm1"
  name: "norm1"
  type: LRN
  lrn_param {
    local_size: 5
    alpha: 0.0001
    beta: 0.75
  }
}
layers {
  bottom: "norm1"
  top: "pool1"
  name: "pool1"
  type: POOLING
  pooling_param {
    pool: MAX
    kernel_size: 2
    stride: 2
  }
}
layers {
  bottom: "pool1"
  top: "conv2"
  name: "conv2"
  type: CONVOLUTION
  blobs_lr: 1
  blobs_lr: 2
  weight_decay: 1
  weight_decay: 0
  convolution_param {
    num_output: 96
    kernel_size: 9
    stride: 1
    weight_filler {
      type: "xavier"
    }
    bias_filler {
      type: "constant"
      value: 1
    }
  }
}
layers {
  bottom: "conv2"
  top: "conv2"
  name: "relu2"
  type: RELU
}
layers {
  bottom: "conv2"
  top: "norm2"
  name: "norm2"
  type: LRN
  lrn_param {
    local_size: 5
    alpha: 0.0001
    beta: 0.75
  }
}
layers {
  bottom: "norm2"
  top: "pool2"
  name: "pool2"
  type: POOLING
  pooling_param {
    pool: MAX
    kernel_size: 3
    stride: 2
  }
}
layers {
  bottom: "pool2"
  top: "conv3"
  name: "conv3"
  type: CONVOLUTION
  blobs_lr: 1
  blobs_lr: 2
  weight_decay: 1
  weight_decay: 0
  convolution_param {
    num_output: 256
    pad: 1
    kernel_size: 5
    weight_filler {
      type: "xavier"
    }
    bias_filler {
      type: "constant"
      value: 0
    }
  }
}
layers {
  bottom: "conv3"
  top: "conv3"
  name: "relu3"
  type: RELU
}
layers {
  bottom: "conv3"
  top: "conv4"
  name: "conv4"
  type: CONVOLUTION
  blobs_lr: 1
  blobs_lr: 2
  convolution_param {
    num_output: 384
    pad: 1
    kernel_size: 3
    group: 2
    weight_filler {
      type: "xavier"
    }
    bias_filler {
      type: "constant"
    }
  }
}
layers {
  bottom: "conv4"
  top: "conv4"
  name: "relu4"
  type: RELU
}
layers {
  bottom: "conv4"
  top: "pool4"
  name: "pool4"
  type: POOLING
  pooling_param {
    pool: MAX
    kernel_size: 3
    stride: 2
  }
}
layers {
  bottom: "pool4"
  top: "ip1"
  name: "ip1"
  type: INNER_PRODUCT
  blobs_lr: 1
  blobs_lr: 2
  weight_decay: 1
  weight_decay: 0
  inner_product_param {
    num_output: 512
    weight_filler {
      type: "gaussian"
      std: 0.005
    }
    bias_filler {
      type: "constant"
      value: 0.1
    }
  }
}
layers {
  bottom: "ip1"
  top: "ip1"
  name: "relu5"
  type: SIGMOID
}
layers {
  bottom: "ip1"
  top: "ip2"
  name: "ip2"
  type: INNER_PRODUCT
  blobs_lr: 1
  blobs_lr: 2
  inner_product_param {
    num_output: 512
    weight_filler {
      type: "gaussian"
      std: 0.005
    }
    bias_filler {
      type: "constant"
      value: 0.1
    }
  }
}
layers {
  bottom: "ip2"
  top: "ip2"
  name: "relu6"
  type: SIGMOID
}
layers {
  bottom: "ip2"
  top: "ip3"
  name: "ip3"
  type: INNER_PRODUCT
  blobs_lr: 1
  blobs_lr: 2
  weight_decay: 1
  weight_decay: 0
  inner_product_param {
    num_output: 5
    weight_filler {
      type: "gaussian"
      std: 0.01
    }
    bias_filler {
      type: "constant"
      value: 0
    }
  }
}
layers {
  bottom: "ip3"
  bottom: "label"
  top: "accuracy"
  name: "accuracy"
  type: ACCURACY
}
layers {
  bottom: "ip3"
  bottom: "label"
  top: "loss"
  name: "loss"
  type: SOFTMAX_LOSS
}
state {
  phase: TRAIN
}
I0323 10:57:30.075470 22687 net.cpp:67] Creating Layer mnist
I0323 10:57:30.075491 22687 net.cpp:356] mnist -> data
I0323 10:57:30.075507 22687 net.cpp:356] mnist -> label
I0323 10:57:30.075520 22687 net.cpp:96] Setting up mnist
I0323 10:57:30.127706 22687 data_layer.cpp:68] Opening lmdb /home/niko/datasets/DiabeticRetinopathyDetection/processed/run-contrast-2/diabetic_retinopathy_train_lmdb
I0323 10:57:30.170043 22687 data_layer.cpp:128] output data size: 250,3,227,227
I0323 10:57:30.170078 22687 base_data_layer.cpp:36] Loading mean file from/home/niko/datasets/DiabeticRetinopathyDetection/processed/run-contrast-2/diabetic_retinopathy_mean.binaryproto
I0323 10:57:30.330559 22687 net.cpp:103] Top shape: 250 3 227 227 (38646750)
I0323 10:57:30.330603 22687 net.cpp:103] Top shape: 250 1 1 1 (250)
I0323 10:57:30.330615 22687 net.cpp:67] Creating Layer label_mnist_1_split
I0323 10:57:30.330621 22687 net.cpp:394] label_mnist_1_split <- label
I0323 10:57:30.330651 22687 net.cpp:356] label_mnist_1_split -> label_mnist_1_split_0
I0323 10:57:30.330663 22687 net.cpp:356] label_mnist_1_split -> label_mnist_1_split_1
I0323 10:57:30.330703 22687 net.cpp:96] Setting up label_mnist_1_split
I0323 10:57:30.330723 22687 net.cpp:103] Top shape: 250 1 1 1 (250)
I0323 10:57:30.330726 22687 net.cpp:103] Top shape: 250 1 1 1 (250)
I0323 10:57:30.330734 22687 net.cpp:67] Creating Layer conv1
I0323 10:57:30.330740 22687 net.cpp:394] conv1 <- data
I0323 10:57:30.330745 22687 net.cpp:356] conv1 -> conv1
I0323 10:57:30.330762 22687 net.cpp:96] Setting up conv1
I0323 10:57:30.781301 22687 net.cpp:103] Top shape: 250 24 55 55 (18150000)
I0323 10:57:30.781339 22687 net.cpp:67] Creating Layer relu1
I0323 10:57:30.781343 22687 net.cpp:394] relu1 <- conv1
I0323 10:57:30.781348 22687 net.cpp:345] relu1 -> conv1 (in-place)
I0323 10:57:30.781353 22687 net.cpp:96] Setting up relu1
I0323 10:57:30.781358 22687 net.cpp:103] Top shape: 250 24 55 55 (18150000)
I0323 10:57:30.781363 22687 net.cpp:67] Creating Layer norm1
I0323 10:57:30.781364 22687 net.cpp:394] norm1 <- conv1
I0323 10:57:30.781368 22687 net.cpp:356] norm1 -> norm1
I0323 10:57:30.781371 22687 net.cpp:96] Setting up norm1
I0323 10:57:30.781375 22687 net.cpp:103] Top shape: 250 24 55 55 (18150000)
I0323 10:57:30.781379 22687 net.cpp:67] Creating Layer pool1
I0323 10:57:30.781380 22687 net.cpp:394] pool1 <- norm1
I0323 10:57:30.781383 22687 net.cpp:356] pool1 -> pool1
I0323 10:57:30.781386 22687 net.cpp:96] Setting up pool1
I0323 10:57:30.781397 22687 net.cpp:103] Top shape: 250 24 28 28 (4704000)
I0323 10:57:30.781404 22687 net.cpp:67] Creating Layer conv2
I0323 10:57:30.781404 22687 net.cpp:394] conv2 <- pool1
I0323 10:57:30.781409 22687 net.cpp:356] conv2 -> conv2
I0323 10:57:30.781412 22687 net.cpp:96] Setting up conv2
I0323 10:57:30.782531 22687 net.cpp:103] Top shape: 250 96 20 20 (9600000)
I0323 10:57:30.782541 22687 net.cpp:67] Creating Layer relu2
I0323 10:57:30.782544 22687 net.cpp:394] relu2 <- conv2
I0323 10:57:30.782547 22687 net.cpp:345] relu2 -> conv2 (in-place)
I0323 10:57:30.782551 22687 net.cpp:96] Setting up relu2
I0323 10:57:30.782552 22687 net.cpp:103] Top shape: 250 96 20 20 (9600000)
I0323 10:57:30.782557 22687 net.cpp:67] Creating Layer norm2
I0323 10:57:30.782584 22687 net.cpp:394] norm2 <- conv2
I0323 10:57:30.782598 22687 net.cpp:356] norm2 -> norm2
I0323 10:57:30.782603 22687 net.cpp:96] Setting up norm2
I0323 10:57:30.782605 22687 net.cpp:103] Top shape: 250 96 20 20 (9600000)
I0323 10:57:30.782608 22687 net.cpp:67] Creating Layer pool2
I0323 10:57:30.782610 22687 net.cpp:394] pool2 <- norm2
I0323 10:57:30.782613 22687 net.cpp:356] pool2 -> pool2
I0323 10:57:30.782616 22687 net.cpp:96] Setting up pool2
I0323 10:57:30.782619 22687 net.cpp:103] Top shape: 250 96 10 10 (2400000)
I0323 10:57:30.782624 22687 net.cpp:67] Creating Layer conv3
I0323 10:57:30.782624 22687 net.cpp:394] conv3 <- pool2
I0323 10:57:30.782629 22687 net.cpp:356] conv3 -> conv3
I0323 10:57:30.782640 22687 net.cpp:96] Setting up conv3
I0323 10:57:30.786250 22687 net.cpp:103] Top shape: 250 256 8 8 (4096000)
I0323 10:57:30.786268 22687 net.cpp:67] Creating Layer relu3
I0323 10:57:30.786273 22687 net.cpp:394] relu3 <- conv3
I0323 10:57:30.786278 22687 net.cpp:345] relu3 -> conv3 (in-place)
I0323 10:57:30.786293 22687 net.cpp:96] Setting up relu3
I0323 10:57:30.786298 22687 net.cpp:103] Top shape: 250 256 8 8 (4096000)
I0323 10:57:30.786306 22687 net.cpp:67] Creating Layer conv4
I0323 10:57:30.786311 22687 net.cpp:394] conv4 <- conv3
I0323 10:57:30.786319 22687 net.cpp:356] conv4 -> conv4
I0323 10:57:30.786325 22687 net.cpp:96] Setting up conv4
I0323 10:57:30.789402 22687 net.cpp:103] Top shape: 250 384 8 8 (6144000)
I0323 10:57:30.789424 22687 net.cpp:67] Creating Layer relu4
I0323 10:57:30.789428 22687 net.cpp:394] relu4 <- conv4
I0323 10:57:30.789433 22687 net.cpp:345] relu4 -> conv4 (in-place)
I0323 10:57:30.789438 22687 net.cpp:96] Setting up relu4
I0323 10:57:30.789453 22687 net.cpp:103] Top shape: 250 384 8 8 (6144000)
I0323 10:57:30.789460 22687 net.cpp:67] Creating Layer pool4
I0323 10:57:30.789463 22687 net.cpp:394] pool4 <- conv4
I0323 10:57:30.789468 22687 net.cpp:356] pool4 -> pool4
I0323 10:57:30.789474 22687 net.cpp:96] Setting up pool4
I0323 10:57:30.789479 22687 net.cpp:103] Top shape: 250 384 4 4 (1536000)
I0323 10:57:30.789487 22687 net.cpp:67] Creating Layer ip1
I0323 10:57:30.789491 22687 net.cpp:394] ip1 <- pool4
I0323 10:57:30.789496 22687 net.cpp:356] ip1 -> ip1
I0323 10:57:30.789501 22687 net.cpp:96] Setting up ip1
I0323 10:57:30.879148 22687 net.cpp:103] Top shape: 250 512 1 1 (128000)
I0323 10:57:30.879184 22687 net.cpp:67] Creating Layer relu5
I0323 10:57:30.879189 22687 net.cpp:394] relu5 <- ip1
I0323 10:57:30.879205 22687 net.cpp:345] relu5 -> ip1 (in-place)
I0323 10:57:30.879211 22687 net.cpp:96] Setting up relu5
I0323 10:57:30.879227 22687 net.cpp:103] Top shape: 250 512 1 1 (128000)
I0323 10:57:30.879235 22687 net.cpp:67] Creating Layer ip2
I0323 10:57:30.879238 22687 net.cpp:394] ip2 <- ip1
I0323 10:57:30.879245 22687 net.cpp:356] ip2 -> ip2
I0323 10:57:30.879253 22687 net.cpp:96] Setting up ip2
I0323 10:57:30.886790 22687 net.cpp:103] Top shape: 250 512 1 1 (128000)
I0323 10:57:30.886811 22687 net.cpp:67] Creating Layer relu6
I0323 10:57:30.886816 22687 net.cpp:394] relu6 <- ip2
I0323 10:57:30.886821 22687 net.cpp:345] relu6 -> ip2 (in-place)
I0323 10:57:30.886826 22687 net.cpp:96] Setting up relu6
I0323 10:57:30.886847 22687 net.cpp:103] Top shape: 250 512 1 1 (128000)
I0323 10:57:30.886854 22687 net.cpp:67] Creating Layer ip3
I0323 10:57:30.886857 22687 net.cpp:394] ip3 <- ip2
I0323 10:57:30.886862 22687 net.cpp:356] ip3 -> ip3
I0323 10:57:30.886872 22687 net.cpp:96] Setting up ip3
I0323 10:57:30.886965 22687 net.cpp:103] Top shape: 250 5 1 1 (1250)
I0323 10:57:30.886973 22687 net.cpp:67] Creating Layer ip3_ip3_0_split
I0323 10:57:30.886976 22687 net.cpp:394] ip3_ip3_0_split <- ip3
I0323 10:57:30.886981 22687 net.cpp:356] ip3_ip3_0_split -> ip3_ip3_0_split_0
I0323 10:57:30.886989 22687 net.cpp:356] ip3_ip3_0_split -> ip3_ip3_0_split_1
I0323 10:57:30.887004 22687 net.cpp:96] Setting up ip3_ip3_0_split
I0323 10:57:30.887008 22687 net.cpp:103] Top shape: 250 5 1 1 (1250)
I0323 10:57:30.887012 22687 net.cpp:103] Top shape: 250 5 1 1 (1250)
I0323 10:57:30.887017 22687 net.cpp:67] Creating Layer accuracy
I0323 10:57:30.887037 22687 net.cpp:394] accuracy <- ip3_ip3_0_split_0
I0323 10:57:30.887050 22687 net.cpp:394] accuracy <- label_mnist_1_split_0
I0323 10:57:30.887056 22687 net.cpp:356] accuracy -> accuracy
I0323 10:57:30.887070 22687 net.cpp:96] Setting up accuracy
I0323 10:57:30.887076 22687 net.cpp:103] Top shape: 1 1 1 1 (1)
I0323 10:57:30.887084 22687 net.cpp:67] Creating Layer loss
I0323 10:57:30.887085 22687 net.cpp:394] loss <- ip3_ip3_0_split_1
I0323 10:57:30.887089 22687 net.cpp:394] loss <- label_mnist_1_split_1
I0323 10:57:30.887094 22687 net.cpp:356] loss -> loss
I0323 10:57:30.887099 22687 net.cpp:96] Setting up loss
I0323 10:57:30.887107 22687 net.cpp:103] Top shape: 1 1 1 1 (1)
I0323 10:57:30.887111 22687 net.cpp:109]     with loss weight 1
I0323 10:57:30.888983 22687 net.cpp:170] loss needs backward computation.
I0323 10:57:30.889005 22687 net.cpp:172] accuracy does not need backward computation.
I0323 10:57:30.889008 22687 net.cpp:170] ip3_ip3_0_split needs backward computation.
I0323 10:57:30.889011 22687 net.cpp:170] ip3 needs backward computation.
I0323 10:57:30.889024 22687 net.cpp:170] relu6 needs backward computation.
…
I0323 10:57:30.889850 22687 net.cpp:275] The NetState phase (1) differed from the phase (0) specified by a rule in layer mnist
I0323 10:57:30.890007 22687 net.cpp:39] Initializing net from parameters: 
name: "LeNet"
layers {
  top: "data"
  top: "label"
  name: "mnist"
  type: DATA
  data_param {
    source: "/home/niko/datasets/DiabeticRetinopathyDetection/processed/run-contrast-2/diabetic_retinopathy_val_lmdb"
    batch_size: 50
    backend: LMDB
  }
  include {
    phase: TEST
  }
  transform_param {
    mirror: true
    crop_size: 227
    mean_file: "/home/niko/datasets/DiabeticRetinopathyDetection/processed/run-contrast-2/diabetic_retinopathy_mean.binaryproto"
  }
}
layers {
  bottom: "data"
  top: "conv1"
  name: "conv1"
  type: CONVOLUTION
  blobs_lr: 1
  blobs_lr: 2
  weight_decay: 1
  weight_decay: 0
  convolution_param {
    num_output: 24
    kernel_size: 11
    stride: 4
    weight_filler {
      type: "xavier"
    }
    bias_filler {
      type: "constant"
      value: 0
    }
  }
}
layers {
  bottom: "conv1"
  top: "conv1"
  name: "relu1"
  type: RELU
}
layers {
  bottom: "conv1"
  top: "norm1"
  name: "norm1"
  type: LRN
  lrn_param {
    local_size: 5
    alpha: 0.0001
    beta: 0.75
  }
}
layers {
  bottom: "norm1"
  top: "pool1"
  name: "pool1"
  type: POOLING
  pooling_param {
    pool: MAX
    kernel_size: 2
    stride: 2
  }
}
layers {
  bottom: "pool1"
  top: "conv2"
  name: "conv2"
  type: CONVOLUTION
  blobs_lr: 1
  blobs_lr: 2
  weight_decay: 1
  weight_decay: 0
  convolution_param {
    num_output: 96
    kernel_size: 9
    stride: 1
    weight_filler {
      type: "xavier"
    }
    bias_filler {
      type: "constant"
      value: 1
    }
  }
}
layers {
  bottom: "conv2"
  top: "conv2"
  name: "relu2"
  type: RELU
}
layers {
  bottom: "conv2"
  top: "norm2"
  name: "norm2"
  type: LRN
  lrn_param {
    local_size: 5
    alpha: 0.0001
    beta: 0.75
  }
}
layers {
  bottom: "norm2"
  top: "pool2"
  name: "pool2"
  type: POOLING
  pooling_param {
    pool: MAX
    kernel_size: 3
    stride: 2
  }
}
layers {
  bottom: "pool2"
  top: "conv3"
  name: "conv3"
  type: CONVOLUTION
  blobs_lr: 1
  blobs_lr: 2
  weight_decay: 1
  weight_decay: 0
  convolution_param {
    num_output: 256
    pad: 1
    kernel_size: 5
    weight_filler {
      type: "xavier"
    }
    bias_filler {
      type: "constant"
      value: 0
    }
  }
}
layers {
  bottom: "conv3"
  top: "conv3"
  name: "relu3"
  type: RELU
}
layers {
  bottom: "conv3"
  top: "conv4"
  name: "conv4"
  type: CONVOLUTION
  blobs_lr: 1
  blobs_lr: 2
  convolution_param {
    num_output: 384
    pad: 1
    kernel_size: 3
    group: 2
    weight_filler {
      type: "xavier"
    }
    bias_filler {
      type: "constant"
    }
  }
}
layers {
  bottom: "conv4"
  top: "conv4"
  name: "relu4"
  type: RELU
}
layers {
  bottom: "conv4"
  top: "pool4"
  name: "pool4"
  type: POOLING
  pooling_param {
    pool: MAX
    kernel_size: 3
    stride: 2
  }
}
layers {
  bottom: "pool4"
  top: "ip1"
  name: "ip1"
  type: INNER_PRODUCT
  blobs_lr: 1
  blobs_lr: 2
  weight_decay: 1
  weight_decay: 0
  inner_product_param {
    num_output: 512
    weight_filler {
      type: "gaussian"
      std: 0.005
    }
    bias_filler {
      type: "constant"
      value: 0.1
    }
  }
}
layers {
  bottom: "ip1"
  top: "ip1"
  name: "relu5"
  type: SIGMOID
}
layers {
  bottom: "ip1"
  top: "ip2"
  name: "ip2"
  type: INNER_PRODUCT
  blobs_lr: 1
  blobs_lr: 2
  inner_product_param {
    num_output: 512
    weight_filler {
      type: "gaussian"
      std: 0.005
    }
    bias_filler {
      type: "constant"
      value: 0.1
    }
  }
}
layers {
  bottom: "ip2"
  top: "ip2"
  name: "relu6"
  type: SIGMOID
}
layers {
  bottom: "ip2"
  top: "ip3"
  name: "ip3"
  type: INNER_PRODUCT
  blobs_lr: 1
  blobs_lr: 2
  weight_decay: 1
  weight_decay: 0
  inner_product_param {
    num_output: 5
    weight_filler {
      type: "gaussian"
      std: 0.01
    }
    bias_filler {
      type: "constant"
      value: 0
    }
  }
}
layers {
  bottom: "ip3"
  bottom: "label"
  top: "accuracy"
  name: "accuracy"
  type: ACCURACY
}
layers {
  bottom: "ip3"
  bottom: "label"
  top: "loss"
  name: "loss"
  type: SOFTMAX_LOSS
}
state {
  phase: TEST
}
I0323 10:57:30.890117 22687 net.cpp:67] Creating Layer mnist
I0323 10:57:30.890123 22687 net.cpp:356] mnist -> data
I0323 10:57:30.890131 22687 net.cpp:356] mnist -> label
I0323 10:57:30.890137 22687 net.cpp:96] Setting up mnist
I0323 10:57:30.961220 22687 data_layer.cpp:68] Opening lmdb /home/niko/datasets/DiabeticRetinopathyDetection/processed/run-contrast-2/diabetic_retinopathy_val_lmdb
I0323 10:57:31.005189 22687 data_layer.cpp:128] output data size: 50,3,227,227
I0323 10:57:31.005218 22687 base_data_layer.cpp:36] Loading mean file from/home/niko/datasets/DiabeticRetinopathyDetection/processed/run-contrast-2/diabetic_retinopathy_mean.binaryproto
I0323 10:57:31.069178 22687 net.cpp:103] Top shape: 50 3 227 227 (7729350)
I0323 10:57:31.069198 22687 net.cpp:103] Top shape: 50 1 1 1 (50)
I0323 10:57:31.069243 22687 net.cpp:67] Creating Layer label_mnist_1_split
I0323 10:57:31.069262 22687 net.cpp:394] label_mnist_1_split <- label
I0323 10:57:31.069270 22687 net.cpp:356] label_mnist_1_split -> label_mnist_1_split_0
I0323 10:57:31.069280 22687 net.cpp:356] label_mnist_1_split -> label_mnist_1_split_1
I0323 10:57:31.069288 22687 net.cpp:96] Setting up label_mnist_1_split
I0323 10:57:31.069293 22687 net.cpp:103] Top shape: 50 1 1 1 (50)
I0323 10:57:31.069296 22687 net.cpp:103] Top shape: 50 1 1 1 (50)
I0323 10:57:31.069304 22687 net.cpp:67] Creating Layer conv1
I0323 10:57:31.069308 22687 net.cpp:394] conv1 <- data
I0323 10:57:31.069314 22687 net.cpp:356] conv1 -> conv1
I0323 10:57:31.069321 22687 net.cpp:96] Setting up conv1
I0323 10:57:31.069484 22687 net.cpp:103] Top shape: 50 24 55 55 (3630000)
I0323 10:57:31.069509 22687 net.cpp:67] Creating Layer relu1
I0323 10:57:31.069512 22687 net.cpp:394] relu1 <- conv1
I0323 10:57:31.069517 22687 net.cpp:345] relu1 -> conv1 (in-place)
I0323 10:57:31.069522 22687 net.cpp:96] Setting up relu1
I0323 10:57:31.069530 22687 net.cpp:103] Top shape: 50 24 55 55 (3630000)
I0323 10:57:31.069536 22687 net.cpp:67] Creating Layer norm1
I0323 10:57:31.069538 22687 net.cpp:394] norm1 <- conv1
I0323 10:57:31.069543 22687 net.cpp:356] norm1 -> norm1
I0323 10:57:31.069548 22687 net.cpp:96] Setting up norm1
I0323 10:57:31.069552 22687 net.cpp:103] Top shape: 50 24 55 55 (3630000)
I0323 10:57:31.069558 22687 net.cpp:67] Creating Layer pool1
I0323 10:57:31.069562 22687 net.cpp:394] pool1 <- norm1
I0323 10:57:31.069566 22687 net.cpp:356] pool1 -> pool1
I0323 10:57:31.069571 22687 net.cpp:96] Setting up pool1
I0323 10:57:31.069578 22687 net.cpp:103] Top shape: 50 24 28 28 (940800)
I0323 10:57:31.069586 22687 net.cpp:67] Creating Layer conv2
I0323 10:57:31.069588 22687 net.cpp:394] conv2 <- pool1
I0323 10:57:31.069593 22687 net.cpp:356] conv2 -> conv2
I0323 10:57:31.069599 22687 net.cpp:96] Setting up conv2
I0323 10:57:31.071061 22687 net.cpp:103] Top shape: 50 96 20 20 (1920000)
I0323 10:57:31.071089 22687 net.cpp:67] Creating Layer relu2
I0323 10:57:31.071094 22687 net.cpp:394] relu2 <- conv2
I0323 10:57:31.071097 22687 net.cpp:345] relu2 -> conv2 (in-place)
I0323 10:57:31.071104 22687 net.cpp:96] Setting up relu2
I0323 10:57:31.071110 22687 net.cpp:103] Top shape: 50 96 20 20 (1920000)
I0323 10:57:31.071116 22687 net.cpp:67] Creating Layer norm2
I0323 10:57:31.071120 22687 net.cpp:394] norm2 <- conv2
I0323 10:57:31.071125 22687 net.cpp:356] norm2 -> norm2
I0323 10:57:31.071130 22687 net.cpp:96] Setting up norm2
I0323 10:57:31.071135 22687 net.cpp:103] Top shape: 50 96 20 20 (1920000)
I0323 10:57:31.071141 22687 net.cpp:67] Creating Layer pool2
I0323 10:57:31.071143 22687 net.cpp:394] pool2 <- norm2
I0323 10:57:31.071147 22687 net.cpp:356] pool2 -> pool2
I0323 10:57:31.071162 22687 net.cpp:96] Setting up pool2
I0323 10:57:31.071169 22687 net.cpp:103] Top shape: 50 96 10 10 (480000)
I0323 10:57:31.071177 22687 net.cpp:67] Creating Layer conv3
I0323 10:57:31.071179 22687 net.cpp:394] conv3 <- pool2
I0323 10:57:31.071184 22687 net.cpp:356] conv3 -> conv3
I0323 10:57:31.071190 22687 net.cpp:96] Setting up conv3
I0323 10:57:31.075533 22687 net.cpp:103] Top shape: 50 256 8 8 (819200)
I0323 10:57:31.075573 22687 net.cpp:67] Creating Layer relu3
I0323 10:57:31.075579 22687 net.cpp:394] relu3 <- conv3
I0323 10:57:31.075585 22687 net.cpp:345] relu3 -> conv3 (in-place)
I0323 10:57:31.075593 22687 net.cpp:96] Setting up relu3
I0323 10:57:31.075599 22687 net.cpp:103] Top shape: 50 256 8 8 (819200)
I0323 10:57:31.075608 22687 net.cpp:67] Creating Layer conv4
I0323 10:57:31.075611 22687 net.cpp:394] conv4 <- conv3
I0323 10:57:31.075618 22687 net.cpp:356] conv4 -> conv4
I0323 10:57:31.075625 22687 net.cpp:96] Setting up conv4
I0323 10:57:31.078739 22687 net.cpp:103] Top shape: 50 384 8 8 (1228800)
I0323 10:57:31.078755 22687 net.cpp:67] Creating Layer relu4
I0323 10:57:31.078768 22687 net.cpp:394] relu4 <- conv4
I0323 10:57:31.078774 22687 net.cpp:345] relu4 -> conv4 (in-place)
I0323 10:57:31.078780 22687 net.cpp:96] Setting up relu4
I0323 10:57:31.078806 22687 net.cpp:103] Top shape: 50 384 8 8 (1228800)
I0323 10:57:31.078816 22687 net.cpp:67] Creating Layer pool4
I0323 10:57:31.078821 22687 net.cpp:394] pool4 <- conv4
I0323 10:57:31.078835 22687 net.cpp:356] pool4 -> pool4
I0323 10:57:31.078841 22687 net.cpp:96] Setting up pool4
I0323 10:57:31.078850 22687 net.cpp:103] Top shape: 50 384 4 4 (307200)
I0323 10:57:31.078860 22687 net.cpp:67] Creating Layer ip1
I0323 10:57:31.078865 22687 net.cpp:394] ip1 <- pool4
I0323 10:57:31.078869 22687 net.cpp:356] ip1 -> ip1
I0323 10:57:31.078876 22687 net.cpp:96] Setting up ip1
I0323 10:57:31.168855 22687 net.cpp:103] Top shape: 50 512 1 1 (25600)
I0323 10:57:31.168886 22687 net.cpp:67] Creating Layer relu5
I0323 10:57:31.168891 22687 net.cpp:394] relu5 <- ip1
I0323 10:57:31.168897 22687 net.cpp:345] relu5 -> ip1 (in-place)
I0323 10:57:31.168915 22687 net.cpp:96] Setting up relu5
I0323 10:57:31.168926 22687 net.cpp:103] Top shape: 50 512 1 1 (25600)
I0323 10:57:31.168937 22687 net.cpp:67] Creating Layer ip2
I0323 10:57:31.168942 22687 net.cpp:394] ip2 <- ip1
I0323 10:57:31.168947 22687 net.cpp:356] ip2 -> ip2
I0323 10:57:31.168953 22687 net.cpp:96] Setting up ip2
I0323 10:57:31.176408 22687 net.cpp:103] Top shape: 50 512 1 1 (25600)
I0323 10:57:31.176434 22687 net.cpp:67] Creating Layer relu6
I0323 10:57:31.176437 22687 net.cpp:394] relu6 <- ip2
I0323 10:57:31.176445 22687 net.cpp:345] relu6 -> ip2 (in-place)
I0323 10:57:31.176460 22687 net.cpp:96] Setting up relu6
I0323 10:57:31.176472 22687 net.cpp:103] Top shape: 50 512 1 1 (25600)
I0323 10:57:31.176481 22687 net.cpp:67] Creating Layer ip3
I0323 10:57:31.176486 22687 net.cpp:394] ip3 <- ip2
I0323 10:57:31.176491 22687 net.cpp:356] ip3 -> ip3
I0323 10:57:31.176501 22687 net.cpp:96] Setting up ip3
I0323 10:57:31.176594 22687 net.cpp:103] Top shape: 50 5 1 1 (250)
I0323 10:57:31.176602 22687 net.cpp:67] Creating Layer ip3_ip3_0_split
I0323 10:57:31.176605 22687 net.cpp:394] ip3_ip3_0_split <- ip3
I0323 10:57:31.176610 22687 net.cpp:356] ip3_ip3_0_split -> ip3_ip3_0_split_0
I0323 10:57:31.176630 22687 net.cpp:356] ip3_ip3_0_split -> ip3_ip3_0_split_1
I0323 10:57:31.176635 22687 net.cpp:96] Setting up ip3_ip3_0_split
I0323 10:57:31.176640 22687 net.cpp:103] Top shape: 50 5 1 1 (250)
I0323 10:57:31.176645 22687 net.cpp:103] Top shape: 50 5 1 1 (250)
I0323 10:57:31.176648 22687 net.cpp:67] Creating Layer accuracy
I0323 10:57:31.176651 22687 net.cpp:394] accuracy <- ip3_ip3_0_split_0
I0323 10:57:31.176656 22687 net.cpp:394] accuracy <- label_mnist_1_split_0
I0323 10:57:31.176661 22687 net.cpp:356] accuracy -> accuracy
I0323 10:57:31.176664 22687 net.cpp:96] Setting up accuracy
I0323 10:57:31.176667 22687 net.cpp:103] Top shape: 1 1 1 1 (1)
I0323 10:57:31.176676 22687 net.cpp:67] Creating Layer loss
I0323 10:57:31.176678 22687 net.cpp:394] loss <- ip3_ip3_0_split_1
I0323 10:57:31.176682 22687 net.cpp:394] loss <- label_mnist_1_split_1
I0323 10:57:31.176687 22687 net.cpp:356] loss -> loss
I0323 10:57:31.176692 22687 net.cpp:96] Setting up loss
I0323 10:57:31.176699 22687 net.cpp:103] Top shape: 1 1 1 1 (1)
I0323 10:57:31.176703 22687 net.cpp:109]     with loss weight 1
I0323 10:57:31.176714 22687 net.cpp:170] loss needs backward computation.
I0323 10:57:31.176717 22687 net.cpp:172] accuracy does not need backward computation.
I0323 10:57:31.176720 22687 net.cpp:170] ip3_ip3_0_split needs backward computation.
I0323 10:57:31.176723 22687 net.cpp:170] ip3 needs backward computation.
I0323 10:57:31.176726 22687 net.cpp:170] relu6 needs backward computation.
…
