…
I0322 13:13:19.232130 23060 net.cpp:275] The NetState phase (0) differed from the phase (1) specified by a rule in layer mnist
I0322 13:13:19.232251 23060 net.cpp:39] Initializing net from parameters: 
name: "LeNet"
layers {
  top: "data"
  top: "label"
  name: "mnist"
  type: DATA
  data_param {
    source: "/home/niko/datasets/DiabeticRetinopathyDetection/processed/run-normal/diabetic_retinopathy_train_lmdb"
    batch_size: 250
    backend: LMDB
  }
  include {
    phase: TRAIN
  }
  transform_param {
    mirror: true
    crop_size: 227
    mean_file: "/home/niko/datasets/DiabeticRetinopathyDetection/processed/run-normal/diabetic_retinopathy_mean.binaryproto"
  }
}
layers {
  bottom: "data"
  top: "conv1"
  name: "conv1"
  type: CONVOLUTION
  blobs_lr: 1
  blobs_lr: 2
  weight_decay: 1
  weight_decay: 0
  convolution_param {
    num_output: 24
    kernel_size: 11
    stride: 4
    weight_filler {
      type: "xavier"
    }
    bias_filler {
      type: "constant"
      value: 0
    }
  }
}
layers {
  bottom: "conv1"
  top: "conv1"
  name: "relu1"
  type: RELU
}
layers {
  bottom: "conv1"
  top: "norm1"
  name: "norm1"
  type: LRN
  lrn_param {
    local_size: 5
    alpha: 0.0001
    beta: 0.75
  }
}
layers {
  bottom: "norm1"
  top: "pool1"
  name: "pool1"
  type: POOLING
  pooling_param {
    pool: MAX
    kernel_size: 2
    stride: 2
  }
}
layers {
  bottom: "pool1"
  top: "conv2"
  name: "conv2"
  type: CONVOLUTION
  blobs_lr: 1
  blobs_lr: 2
  weight_decay: 1
  weight_decay: 0
  convolution_param {
    num_output: 96
    kernel_size: 9
    stride: 1
    weight_filler {
      type: "xavier"
    }
    bias_filler {
      type: "constant"
      value: 1
    }
  }
}
layers {
  bottom: "conv2"
  top: "conv2"
  name: "relu2"
  type: RELU
}
layers {
  bottom: "conv2"
  top: "norm2"
  name: "norm2"
  type: LRN
  lrn_param {
    local_size: 5
    alpha: 0.0001
    beta: 0.75
  }
}
layers {
  bottom: "norm2"
  top: "pool2"
  name: "pool2"
  type: POOLING
  pooling_param {
    pool: MAX
    kernel_size: 3
    stride: 2
  }
}
layers {
  bottom: "pool2"
  top: "conv3"
  name: "conv3"
  type: CONVOLUTION
  blobs_lr: 1
  blobs_lr: 2
  weight_decay: 1
  weight_decay: 0
  convolution_param {
    num_output: 256
    pad: 1
    kernel_size: 5
    weight_filler {
      type: "xavier"
    }
    bias_filler {
      type: "constant"
      value: 0
    }
  }
}
layers {
  bottom: "conv3"
  top: "conv3"
  name: "relu3"
  type: RELU
}
layers {
  bottom: "conv3"
  top: "conv4"
  name: "conv4"
  type: CONVOLUTION
  blobs_lr: 1
  blobs_lr: 2
  convolution_param {
    num_output: 384
    pad: 1
    kernel_size: 3
    group: 2
    weight_filler {
      type: "xavier"
    }
    bias_filler {
      type: "constant"
    }
  }
}
layers {
  bottom: "conv4"
  top: "conv4"
  name: "relu4"
  type: RELU
}
layers {
  bottom: "conv4"
  top: "pool4"
  name: "pool4"
  type: POOLING
  pooling_param {
    pool: MAX
    kernel_size: 3
    stride: 2
  }
}
layers {
  bottom: "pool4"
  top: "ip1"
  name: "ip1"
  type: INNER_PRODUCT
  blobs_lr: 1
  blobs_lr: 2
  weight_decay: 1
  weight_decay: 0
  inner_product_param {
    num_output: 512
    weight_filler {
      type: "gaussian"
      std: 0.005
    }
    bias_filler {
      type: "constant"
      value: 0.1
    }
  }
}
layers {
  bottom: "ip1"
  top: "ip1"
  name: "relu5"
  type: SIGMOID
}
layers {
  bottom: "ip1"
  top: "ip2"
  name: "ip2"
  type: INNER_PRODUCT
  blobs_lr: 1
  blobs_lr: 2
  inner_product_param {
    num_output: 512
    weight_filler {
      type: "gaussian"
      std: 0.005
    }
    bias_filler {
      type: "constant"
      value: 0.1
    }
  }
}
layers {
  bottom: "ip2"
  top: "ip2"
  name: "relu6"
  type: SIGMOID
}
layers {
  bottom: "ip2"
  top: "ip3"
  name: "ip3"
  type: INNER_PRODUCT
  blobs_lr: 1
  blobs_lr: 2
  weight_decay: 1
  weight_decay: 0
  inner_product_param {
    num_output: 5
    weight_filler {
      type: "gaussian"
      std: 0.01
    }
    bias_filler {
      type: "constant"
      value: 0
    }
  }
}
layers {
  bottom: "ip3"
  bottom: "label"
  top: "accuracy"
  name: "accuracy"
  type: ACCURACY
}
layers {
  bottom: "ip3"
  bottom: "label"
  top: "loss"
  name: "loss"
  type: SOFTMAX_LOSS
}
state {
  phase: TRAIN
}
I0322 13:13:19.232378 23060 net.cpp:67] Creating Layer mnist
I0322 13:13:19.232385 23060 net.cpp:356] mnist -> data
I0322 13:13:19.232419 23060 net.cpp:356] mnist -> label
I0322 13:13:19.232439 23060 net.cpp:96] Setting up mnist
I0322 13:13:19.232502 23060 data_layer.cpp:68] Opening lmdb /home/niko/datasets/DiabeticRetinopathyDetection/processed/run-normal/diabetic_retinopathy_train_lmdb
I0322 13:13:19.258566 23060 data_layer.cpp:128] output data size: 250,3,227,227
I0322 13:13:19.258584 23060 base_data_layer.cpp:36] Loading mean file from/home/niko/datasets/DiabeticRetinopathyDetection/processed/run-normal/diabetic_retinopathy_mean.binaryproto
I0322 13:13:19.312024 23060 net.cpp:103] Top shape: 250 3 227 227 (38646750)
I0322 13:13:19.312053 23060 net.cpp:103] Top shape: 250 1 1 1 (250)
I0322 13:13:19.312063 23060 net.cpp:67] Creating Layer label_mnist_1_split
I0322 13:13:19.312067 23060 net.cpp:394] label_mnist_1_split <- label
I0322 13:13:19.312088 23060 net.cpp:356] label_mnist_1_split -> label_mnist_1_split_0
I0322 13:13:19.312110 23060 net.cpp:356] label_mnist_1_split -> label_mnist_1_split_1
I0322 13:13:19.312127 23060 net.cpp:96] Setting up label_mnist_1_split
I0322 13:13:19.312134 23060 net.cpp:103] Top shape: 250 1 1 1 (250)
I0322 13:13:19.312139 23060 net.cpp:103] Top shape: 250 1 1 1 (250)
I0322 13:13:19.312158 23060 net.cpp:67] Creating Layer conv1
I0322 13:13:19.312161 23060 net.cpp:394] conv1 <- data
I0322 13:13:19.312166 23060 net.cpp:356] conv1 -> conv1
I0322 13:13:19.312175 23060 net.cpp:96] Setting up conv1
I0322 13:13:19.639050 23060 net.cpp:103] Top shape: 250 24 55 55 (18150000)
I0322 13:13:19.639081 23060 net.cpp:67] Creating Layer relu1
I0322 13:13:19.639086 23060 net.cpp:394] relu1 <- conv1
I0322 13:13:19.639092 23060 net.cpp:345] relu1 -> conv1 (in-place)
I0322 13:13:19.639098 23060 net.cpp:96] Setting up relu1
I0322 13:13:19.639106 23060 net.cpp:103] Top shape: 250 24 55 55 (18150000)
I0322 13:13:19.639113 23060 net.cpp:67] Creating Layer norm1
I0322 13:13:19.639117 23060 net.cpp:394] norm1 <- conv1
I0322 13:13:19.639122 23060 net.cpp:356] norm1 -> norm1
I0322 13:13:19.639127 23060 net.cpp:96] Setting up norm1
I0322 13:13:19.639132 23060 net.cpp:103] Top shape: 250 24 55 55 (18150000)
I0322 13:13:19.639138 23060 net.cpp:67] Creating Layer pool1
I0322 13:13:19.639142 23060 net.cpp:394] pool1 <- norm1
I0322 13:13:19.639145 23060 net.cpp:356] pool1 -> pool1
I0322 13:13:19.639150 23060 net.cpp:96] Setting up pool1
I0322 13:13:19.639166 23060 net.cpp:103] Top shape: 250 24 28 28 (4704000)
I0322 13:13:19.639174 23060 net.cpp:67] Creating Layer conv2
I0322 13:13:19.639178 23060 net.cpp:394] conv2 <- pool1
I0322 13:13:19.639181 23060 net.cpp:356] conv2 -> conv2
I0322 13:13:19.639189 23060 net.cpp:96] Setting up conv2
I0322 13:13:19.640275 23060 net.cpp:103] Top shape: 250 96 20 20 (9600000)
I0322 13:13:19.640286 23060 net.cpp:67] Creating Layer relu2
I0322 13:13:19.640290 23060 net.cpp:394] relu2 <- conv2
I0322 13:13:19.640301 23060 net.cpp:345] relu2 -> conv2 (in-place)
I0322 13:13:19.640307 23060 net.cpp:96] Setting up relu2
I0322 13:13:19.640313 23060 net.cpp:103] Top shape: 250 96 20 20 (9600000)
I0322 13:13:19.640319 23060 net.cpp:67] Creating Layer norm2
I0322 13:13:19.640324 23060 net.cpp:394] norm2 <- conv2
I0322 13:13:19.640359 23060 net.cpp:356] norm2 -> norm2
I0322 13:13:19.640375 23060 net.cpp:96] Setting up norm2
I0322 13:13:19.640380 23060 net.cpp:103] Top shape: 250 96 20 20 (9600000)
I0322 13:13:19.640394 23060 net.cpp:67] Creating Layer pool2
I0322 13:13:19.640398 23060 net.cpp:394] pool2 <- norm2
I0322 13:13:19.640403 23060 net.cpp:356] pool2 -> pool2
I0322 13:13:19.640408 23060 net.cpp:96] Setting up pool2
I0322 13:13:19.640422 23060 net.cpp:103] Top shape: 250 96 10 10 (2400000)
I0322 13:13:19.640430 23060 net.cpp:67] Creating Layer conv3
I0322 13:13:19.640435 23060 net.cpp:394] conv3 <- pool2
I0322 13:13:19.640441 23060 net.cpp:356] conv3 -> conv3
I0322 13:13:19.640447 23060 net.cpp:96] Setting up conv3
I0322 13:13:19.643584 23060 net.cpp:103] Top shape: 250 256 8 8 (4096000)
I0322 13:13:19.643599 23060 net.cpp:67] Creating Layer relu3
I0322 13:13:19.643602 23060 net.cpp:394] relu3 <- conv3
I0322 13:13:19.643606 23060 net.cpp:345] relu3 -> conv3 (in-place)
I0322 13:13:19.643612 23060 net.cpp:96] Setting up relu3
I0322 13:13:19.643617 23060 net.cpp:103] Top shape: 250 256 8 8 (4096000)
I0322 13:13:19.643625 23060 net.cpp:67] Creating Layer conv4
I0322 13:13:19.643632 23060 net.cpp:394] conv4 <- conv3
I0322 13:13:19.643637 23060 net.cpp:356] conv4 -> conv4
I0322 13:13:19.643643 23060 net.cpp:96] Setting up conv4
I0322 13:13:19.645923 23060 net.cpp:103] Top shape: 250 384 8 8 (6144000)
I0322 13:13:19.645936 23060 net.cpp:67] Creating Layer relu4
I0322 13:13:19.645938 23060 net.cpp:394] relu4 <- conv4
I0322 13:13:19.645943 23060 net.cpp:345] relu4 -> conv4 (in-place)
I0322 13:13:19.645952 23060 net.cpp:96] Setting up relu4
I0322 13:13:19.645957 23060 net.cpp:103] Top shape: 250 384 8 8 (6144000)
I0322 13:13:19.645966 23060 net.cpp:67] Creating Layer pool4
I0322 13:13:19.645969 23060 net.cpp:394] pool4 <- conv4
I0322 13:13:19.645973 23060 net.cpp:356] pool4 -> pool4
I0322 13:13:19.645978 23060 net.cpp:96] Setting up pool4
I0322 13:13:19.645984 23060 net.cpp:103] Top shape: 250 384 4 4 (1536000)
I0322 13:13:19.645992 23060 net.cpp:67] Creating Layer ip1
I0322 13:13:19.645998 23060 net.cpp:394] ip1 <- pool4
I0322 13:13:19.646002 23060 net.cpp:356] ip1 -> ip1
I0322 13:13:19.646008 23060 net.cpp:96] Setting up ip1
I0322 13:13:19.709476 23060 net.cpp:103] Top shape: 250 512 1 1 (128000)
I0322 13:13:19.709504 23060 net.cpp:67] Creating Layer relu5
I0322 13:13:19.709518 23060 net.cpp:394] relu5 <- ip1
I0322 13:13:19.709524 23060 net.cpp:345] relu5 -> ip1 (in-place)
I0322 13:13:19.709530 23060 net.cpp:96] Setting up relu5
I0322 13:13:19.709543 23060 net.cpp:103] Top shape: 250 512 1 1 (128000)
I0322 13:13:19.709550 23060 net.cpp:67] Creating Layer ip2
I0322 13:13:19.709553 23060 net.cpp:394] ip2 <- ip1
I0322 13:13:19.709560 23060 net.cpp:356] ip2 -> ip2
I0322 13:13:19.709568 23060 net.cpp:96] Setting up ip2
I0322 13:13:19.714838 23060 net.cpp:103] Top shape: 250 512 1 1 (128000)
I0322 13:13:19.714849 23060 net.cpp:67] Creating Layer relu6
I0322 13:13:19.714853 23060 net.cpp:394] relu6 <- ip2
I0322 13:13:19.714866 23060 net.cpp:345] relu6 -> ip2 (in-place)
I0322 13:13:19.714871 23060 net.cpp:96] Setting up relu6
I0322 13:13:19.714877 23060 net.cpp:103] Top shape: 250 512 1 1 (128000)
I0322 13:13:19.714884 23060 net.cpp:67] Creating Layer ip3
I0322 13:13:19.714889 23060 net.cpp:394] ip3 <- ip2
I0322 13:13:19.714893 23060 net.cpp:356] ip3 -> ip3
I0322 13:13:19.714900 23060 net.cpp:96] Setting up ip3
I0322 13:13:19.714972 23060 net.cpp:103] Top shape: 250 5 1 1 (1250)
I0322 13:13:19.714979 23060 net.cpp:67] Creating Layer ip3_ip3_0_split
I0322 13:13:19.714982 23060 net.cpp:394] ip3_ip3_0_split <- ip3
I0322 13:13:19.714998 23060 net.cpp:356] ip3_ip3_0_split -> ip3_ip3_0_split_0
I0322 13:13:19.715008 23060 net.cpp:356] ip3_ip3_0_split -> ip3_ip3_0_split_1
I0322 13:13:19.715015 23060 net.cpp:96] Setting up ip3_ip3_0_split
I0322 13:13:19.715023 23060 net.cpp:103] Top shape: 250 5 1 1 (1250)
I0322 13:13:19.715025 23060 net.cpp:103] Top shape: 250 5 1 1 (1250)
I0322 13:13:19.715030 23060 net.cpp:67] Creating Layer accuracy
I0322 13:13:19.715051 23060 net.cpp:394] accuracy <- ip3_ip3_0_split_0
I0322 13:13:19.715065 23060 net.cpp:394] accuracy <- label_mnist_1_split_0
I0322 13:13:19.715072 23060 net.cpp:356] accuracy -> accuracy
I0322 13:13:19.715087 23060 net.cpp:96] Setting up accuracy
I0322 13:13:19.715093 23060 net.cpp:103] Top shape: 1 1 1 1 (1)
I0322 13:13:19.715101 23060 net.cpp:67] Creating Layer loss
I0322 13:13:19.715107 23060 net.cpp:394] loss <- ip3_ip3_0_split_1
I0322 13:13:19.715111 23060 net.cpp:394] loss <- label_mnist_1_split_1
I0322 13:13:19.715116 23060 net.cpp:356] loss -> loss
I0322 13:13:19.715122 23060 net.cpp:96] Setting up loss
I0322 13:13:19.715132 23060 net.cpp:103] Top shape: 1 1 1 1 (1)
I0322 13:13:19.715137 23060 net.cpp:109]     with loss weight 1
I0322 13:13:19.715162 23060 net.cpp:170] loss needs backward computation.
I0322 13:13:19.715174 23060 net.cpp:172] accuracy does not need backward computation.
I0322 13:13:19.715178 23060 net.cpp:170] ip3_ip3_0_split needs backward computation.
I0322 13:13:19.715180 23060 net.cpp:170] ip3 needs backward computation.
I0322 13:13:19.715191 23060 net.cpp:170] relu6 needs backward computation.
…
I0322 13:13:19.715734 23060 net.cpp:275] The NetState phase (1) differed from the phase (0) specified by a rule in layer mnist
I0322 13:13:19.715833 23060 net.cpp:39] Initializing net from parameters: 
name: "LeNet"
layers {
  top: "data"
  top: "label"
  name: "mnist"
  type: DATA
  data_param {
    source: "/home/niko/datasets/DiabeticRetinopathyDetection/processed/run-normal/diabetic_retinopathy_val_lmdb"
    batch_size: 50
    backend: LMDB
  }
  include {
    phase: TEST
  }
  transform_param {
    mirror: true
    crop_size: 227
    mean_file: "/home/niko/datasets/DiabeticRetinopathyDetection/processed/run-normal/diabetic_retinopathy_mean.binaryproto"
  }
}
layers {
  bottom: "data"
  top: "conv1"
  name: "conv1"
  type: CONVOLUTION
  blobs_lr: 1
  blobs_lr: 2
  weight_decay: 1
  weight_decay: 0
  convolution_param {
    num_output: 24
    kernel_size: 11
    stride: 4
    weight_filler {
      type: "xavier"
    }
    bias_filler {
      type: "constant"
      value: 0
    }
  }
}
layers {
  bottom: "conv1"
  top: "conv1"
  name: "relu1"
  type: RELU
}
layers {
  bottom: "conv1"
  top: "norm1"
  name: "norm1"
  type: LRN
  lrn_param {
    local_size: 5
    alpha: 0.0001
    beta: 0.75
  }
}
layers {
  bottom: "norm1"
  top: "pool1"
  name: "pool1"
  type: POOLING
  pooling_param {
    pool: MAX
    kernel_size: 2
    stride: 2
  }
}
layers {
  bottom: "pool1"
  top: "conv2"
  name: "conv2"
  type: CONVOLUTION
  blobs_lr: 1
  blobs_lr: 2
  weight_decay: 1
  weight_decay: 0
  convolution_param {
    num_output: 96
    kernel_size: 9
    stride: 1
    weight_filler {
      type: "xavier"
    }
    bias_filler {
      type: "constant"
      value: 1
    }
  }
}
layers {
  bottom: "conv2"
  top: "conv2"
  name: "relu2"
  type: RELU
}
layers {
  bottom: "conv2"
  top: "norm2"
  name: "norm2"
  type: LRN
  lrn_param {
    local_size: 5
    alpha: 0.0001
    beta: 0.75
  }
}
layers {
  bottom: "norm2"
  top: "pool2"
  name: "pool2"
  type: POOLING
  pooling_param {
    pool: MAX
    kernel_size: 3
    stride: 2
  }
}
layers {
  bottom: "pool2"
  top: "conv3"
  name: "conv3"
  type: CONVOLUTION
  blobs_lr: 1
  blobs_lr: 2
  weight_decay: 1
  weight_decay: 0
  convolution_param {
    num_output: 256
    pad: 1
    kernel_size: 5
    weight_filler {
      type: "xavier"
    }
    bias_filler {
      type: "constant"
      value: 0
    }
  }
}
layers {
  bottom: "conv3"
  top: "conv3"
  name: "relu3"
  type: RELU
}
layers {
  bottom: "conv3"
  top: "conv4"
  name: "conv4"
  type: CONVOLUTION
  blobs_lr: 1
  blobs_lr: 2
  convolution_param {
    num_output: 384
    pad: 1
    kernel_size: 3
    group: 2
    weight_filler {
      type: "xavier"
    }
    bias_filler {
      type: "constant"
    }
  }
}
layers {
  bottom: "conv4"
  top: "conv4"
  name: "relu4"
  type: RELU
}
layers {
  bottom: "conv4"
  top: "pool4"
  name: "pool4"
  type: POOLING
  pooling_param {
    pool: MAX
    kernel_size: 3
    stride: 2
  }
}
layers {
  bottom: "pool4"
  top: "ip1"
  name: "ip1"
  type: INNER_PRODUCT
  blobs_lr: 1
  blobs_lr: 2
  weight_decay: 1
  weight_decay: 0
  inner_product_param {
    num_output: 512
    weight_filler {
      type: "gaussian"
      std: 0.005
    }
    bias_filler {
      type: "constant"
      value: 0.1
    }
  }
}
layers {
  bottom: "ip1"
  top: "ip1"
  name: "relu5"
  type: SIGMOID
}
layers {
  bottom: "ip1"
  top: "ip2"
  name: "ip2"
  type: INNER_PRODUCT
  blobs_lr: 1
  blobs_lr: 2
  inner_product_param {
    num_output: 512
    weight_filler {
      type: "gaussian"
      std: 0.005
    }
    bias_filler {
      type: "constant"
      value: 0.1
    }
  }
}
layers {
  bottom: "ip2"
  top: "ip2"
  name: "relu6"
  type: SIGMOID
}
layers {
  bottom: "ip2"
  top: "ip3"
  name: "ip3"
  type: INNER_PRODUCT
  blobs_lr: 1
  blobs_lr: 2
  weight_decay: 1
  weight_decay: 0
  inner_product_param {
    num_output: 5
    weight_filler {
      type: "gaussian"
      std: 0.01
    }
    bias_filler {
      type: "constant"
      value: 0
    }
  }
}
layers {
  bottom: "ip3"
  bottom: "label"
  top: "accuracy"
  name: "accuracy"
  type: ACCURACY
}
layers {
  bottom: "ip3"
  bottom: "label"
  top: "loss"
  name: "loss"
  type: SOFTMAX_LOSS
}
state {
  phase: TEST
}
I0322 13:13:19.715939 23060 net.cpp:67] Creating Layer mnist
I0322 13:13:19.715945 23060 net.cpp:356] mnist -> data
I0322 13:13:19.715952 23060 net.cpp:356] mnist -> label
I0322 13:13:19.715958 23060 net.cpp:96] Setting up mnist
I0322 13:13:19.737844 23060 data_layer.cpp:68] Opening lmdb /home/niko/datasets/DiabeticRetinopathyDetection/processed/run-normal/diabetic_retinopathy_val_lmdb
I0322 13:13:19.759753 23060 data_layer.cpp:128] output data size: 50,3,227,227
I0322 13:13:19.759774 23060 base_data_layer.cpp:36] Loading mean file from/home/niko/datasets/DiabeticRetinopathyDetection/processed/run-normal/diabetic_retinopathy_mean.binaryproto
I0322 13:13:19.767559 23060 net.cpp:103] Top shape: 50 3 227 227 (7729350)
I0322 13:13:19.767585 23060 net.cpp:103] Top shape: 50 1 1 1 (50)
I0322 13:13:19.767609 23060 net.cpp:67] Creating Layer label_mnist_1_split
I0322 13:13:19.767654 23060 net.cpp:394] label_mnist_1_split <- label
I0322 13:13:19.767671 23060 net.cpp:356] label_mnist_1_split -> label_mnist_1_split_0
I0322 13:13:19.767683 23060 net.cpp:356] label_mnist_1_split -> label_mnist_1_split_1
I0322 13:13:19.767688 23060 net.cpp:96] Setting up label_mnist_1_split
I0322 13:13:19.767693 23060 net.cpp:103] Top shape: 50 1 1 1 (50)
I0322 13:13:19.767696 23060 net.cpp:103] Top shape: 50 1 1 1 (50)
I0322 13:13:19.767704 23060 net.cpp:67] Creating Layer conv1
I0322 13:13:19.767707 23060 net.cpp:394] conv1 <- data
I0322 13:13:19.767714 23060 net.cpp:356] conv1 -> conv1
I0322 13:13:19.767729 23060 net.cpp:96] Setting up conv1
I0322 13:13:19.767853 23060 net.cpp:103] Top shape: 50 24 55 55 (3630000)
I0322 13:13:19.767866 23060 net.cpp:67] Creating Layer relu1
I0322 13:13:19.767869 23060 net.cpp:394] relu1 <- conv1
I0322 13:13:19.767874 23060 net.cpp:345] relu1 -> conv1 (in-place)
I0322 13:13:19.767879 23060 net.cpp:96] Setting up relu1
I0322 13:13:19.767884 23060 net.cpp:103] Top shape: 50 24 55 55 (3630000)
I0322 13:13:19.767891 23060 net.cpp:67] Creating Layer norm1
I0322 13:13:19.767896 23060 net.cpp:394] norm1 <- conv1
I0322 13:13:19.767901 23060 net.cpp:356] norm1 -> norm1
I0322 13:13:19.767906 23060 net.cpp:96] Setting up norm1
I0322 13:13:19.767911 23060 net.cpp:103] Top shape: 50 24 55 55 (3630000)
I0322 13:13:19.767916 23060 net.cpp:67] Creating Layer pool1
I0322 13:13:19.767920 23060 net.cpp:394] pool1 <- norm1
I0322 13:13:19.767923 23060 net.cpp:356] pool1 -> pool1
I0322 13:13:19.767930 23060 net.cpp:96] Setting up pool1
I0322 13:13:19.767936 23060 net.cpp:103] Top shape: 50 24 28 28 (940800)
I0322 13:13:19.767945 23060 net.cpp:67] Creating Layer conv2
I0322 13:13:19.767949 23060 net.cpp:394] conv2 <- pool1
I0322 13:13:19.767954 23060 net.cpp:356] conv2 -> conv2
I0322 13:13:19.767961 23060 net.cpp:96] Setting up conv2
I0322 13:13:19.769104 23060 net.cpp:103] Top shape: 50 96 20 20 (1920000)
I0322 13:13:19.769120 23060 net.cpp:67] Creating Layer relu2
I0322 13:13:19.769124 23060 net.cpp:394] relu2 <- conv2
I0322 13:13:19.769140 23060 net.cpp:345] relu2 -> conv2 (in-place)
I0322 13:13:19.769146 23060 net.cpp:96] Setting up relu2
I0322 13:13:19.769151 23060 net.cpp:103] Top shape: 50 96 20 20 (1920000)
I0322 13:13:19.769158 23060 net.cpp:67] Creating Layer norm2
I0322 13:13:19.769161 23060 net.cpp:394] norm2 <- conv2
I0322 13:13:19.769166 23060 net.cpp:356] norm2 -> norm2
I0322 13:13:19.769172 23060 net.cpp:96] Setting up norm2
I0322 13:13:19.769177 23060 net.cpp:103] Top shape: 50 96 20 20 (1920000)
I0322 13:13:19.769182 23060 net.cpp:67] Creating Layer pool2
I0322 13:13:19.769186 23060 net.cpp:394] pool2 <- norm2
I0322 13:13:19.769198 23060 net.cpp:356] pool2 -> pool2
I0322 13:13:19.769203 23060 net.cpp:96] Setting up pool2
I0322 13:13:19.769209 23060 net.cpp:103] Top shape: 50 96 10 10 (480000)
I0322 13:13:19.769217 23060 net.cpp:67] Creating Layer conv3
I0322 13:13:19.769220 23060 net.cpp:394] conv3 <- pool2
I0322 13:13:19.769225 23060 net.cpp:356] conv3 -> conv3
I0322 13:13:19.769230 23060 net.cpp:96] Setting up conv3
I0322 13:13:19.773197 23060 net.cpp:103] Top shape: 50 256 8 8 (819200)
I0322 13:13:19.773231 23060 net.cpp:67] Creating Layer relu3
I0322 13:13:19.773236 23060 net.cpp:394] relu3 <- conv3
I0322 13:13:19.773241 23060 net.cpp:345] relu3 -> conv3 (in-place)
I0322 13:13:19.773247 23060 net.cpp:96] Setting up relu3
I0322 13:13:19.773252 23060 net.cpp:103] Top shape: 50 256 8 8 (819200)
I0322 13:13:19.773268 23060 net.cpp:67] Creating Layer conv4
I0322 13:13:19.773270 23060 net.cpp:394] conv4 <- conv3
I0322 13:13:19.773275 23060 net.cpp:356] conv4 -> conv4
I0322 13:13:19.773280 23060 net.cpp:96] Setting up conv4
I0322 13:13:19.776057 23060 net.cpp:103] Top shape: 50 384 8 8 (1228800)
I0322 13:13:19.776068 23060 net.cpp:67] Creating Layer relu4
I0322 13:13:19.776070 23060 net.cpp:394] relu4 <- conv4
I0322 13:13:19.776073 23060 net.cpp:345] relu4 -> conv4 (in-place)
I0322 13:13:19.776077 23060 net.cpp:96] Setting up relu4
I0322 13:13:19.776093 23060 net.cpp:103] Top shape: 50 384 8 8 (1228800)
I0322 13:13:19.776099 23060 net.cpp:67] Creating Layer pool4
I0322 13:13:19.776111 23060 net.cpp:394] pool4 <- conv4
I0322 13:13:19.776114 23060 net.cpp:356] pool4 -> pool4
I0322 13:13:19.776118 23060 net.cpp:96] Setting up pool4
I0322 13:13:19.776121 23060 net.cpp:103] Top shape: 50 384 4 4 (307200)
I0322 13:13:19.776125 23060 net.cpp:67] Creating Layer ip1
I0322 13:13:19.776129 23060 net.cpp:394] ip1 <- pool4
I0322 13:13:19.776142 23060 net.cpp:356] ip1 -> ip1
I0322 13:13:19.776146 23060 net.cpp:96] Setting up ip1
I0322 13:13:19.845602 23060 net.cpp:103] Top shape: 50 512 1 1 (25600)
I0322 13:13:19.845629 23060 net.cpp:67] Creating Layer relu5
I0322 13:13:19.845633 23060 net.cpp:394] relu5 <- ip1
I0322 13:13:19.845638 23060 net.cpp:345] relu5 -> ip1 (in-place)
I0322 13:13:19.845641 23060 net.cpp:96] Setting up relu5
I0322 13:13:19.845650 23060 net.cpp:103] Top shape: 50 512 1 1 (25600)
I0322 13:13:19.845665 23060 net.cpp:67] Creating Layer ip2
I0322 13:13:19.845667 23060 net.cpp:394] ip2 <- ip1
I0322 13:13:19.845670 23060 net.cpp:356] ip2 -> ip2
I0322 13:13:19.845684 23060 net.cpp:96] Setting up ip2
I0322 13:13:19.850977 23060 net.cpp:103] Top shape: 50 512 1 1 (25600)
I0322 13:13:19.850985 23060 net.cpp:67] Creating Layer relu6
I0322 13:13:19.850986 23060 net.cpp:394] relu6 <- ip2
I0322 13:13:19.850988 23060 net.cpp:345] relu6 -> ip2 (in-place)
I0322 13:13:19.850991 23060 net.cpp:96] Setting up relu6
I0322 13:13:19.850993 23060 net.cpp:103] Top shape: 50 512 1 1 (25600)
I0322 13:13:19.850998 23060 net.cpp:67] Creating Layer ip3
I0322 13:13:19.850999 23060 net.cpp:394] ip3 <- ip2
I0322 13:13:19.851002 23060 net.cpp:356] ip3 -> ip3
I0322 13:13:19.851006 23060 net.cpp:96] Setting up ip3
I0322 13:13:19.851083 23060 net.cpp:103] Top shape: 50 5 1 1 (250)
I0322 13:13:19.851089 23060 net.cpp:67] Creating Layer ip3_ip3_0_split
I0322 13:13:19.851090 23060 net.cpp:394] ip3_ip3_0_split <- ip3
I0322 13:13:19.851093 23060 net.cpp:356] ip3_ip3_0_split -> ip3_ip3_0_split_0
I0322 13:13:19.851097 23060 net.cpp:356] ip3_ip3_0_split -> ip3_ip3_0_split_1
I0322 13:13:19.851101 23060 net.cpp:96] Setting up ip3_ip3_0_split
I0322 13:13:19.851104 23060 net.cpp:103] Top shape: 50 5 1 1 (250)
I0322 13:13:19.851105 23060 net.cpp:103] Top shape: 50 5 1 1 (250)
I0322 13:13:19.851119 23060 net.cpp:67] Creating Layer accuracy
I0322 13:13:19.851120 23060 net.cpp:394] accuracy <- ip3_ip3_0_split_0
I0322 13:13:19.851122 23060 net.cpp:394] accuracy <- label_mnist_1_split_0
I0322 13:13:19.851125 23060 net.cpp:356] accuracy -> accuracy
I0322 13:13:19.851127 23060 net.cpp:96] Setting up accuracy
I0322 13:13:19.851130 23060 net.cpp:103] Top shape: 1 1 1 1 (1)
I0322 13:13:19.851133 23060 net.cpp:67] Creating Layer loss
I0322 13:13:19.851136 23060 net.cpp:394] loss <- ip3_ip3_0_split_1
I0322 13:13:19.851138 23060 net.cpp:394] loss <- label_mnist_1_split_1
I0322 13:13:19.851140 23060 net.cpp:356] loss -> loss
I0322 13:13:19.851143 23060 net.cpp:96] Setting up loss
I0322 13:13:19.851148 23060 net.cpp:103] Top shape: 1 1 1 1 (1)
I0322 13:13:19.851161 23060 net.cpp:109]     with loss weight 1
I0322 13:13:19.851168 23060 net.cpp:170] loss needs backward computation.
I0322 13:13:19.851171 23060 net.cpp:172] accuracy does not need backward computation.
I0322 13:13:19.851172 23060 net.cpp:170] ip3_ip3_0_split needs backward computation.
I0322 13:13:19.851173 23060 net.cpp:170] ip3 needs backward computation.
I0322 13:13:19.851176 23060 net.cpp:170] relu6 needs backward computation.
…
