…
I0324 22:27:00.465962  3053 net.cpp:275] The NetState phase (0) differed from the phase (1) specified by a rule in layer mnist
I0324 22:27:00.466084  3053 net.cpp:39] Initializing net from parameters: 
name: "RetinopathyNet"
layers {
  top: "data"
  top: "label"
  name: "mnist"
  type: DATA
  data_param {
    source: "/home/niko/datasets/DiabeticRetinopathyDetection/processed/run-normal/diabetic_retinopathy_train_lmdb"
    batch_size: 250
    backend: LMDB
  }
  include {
    phase: TRAIN
  }
  transform_param {
    mirror: true
    crop_size: 200
    mean_file: "/home/niko/datasets/DiabeticRetinopathyDetection/processed/run-normal/diabetic_retinopathy_mean.binaryproto"
  }
}
layers {
  bottom: "data"
  top: "conv1"
  name: "conv1"
  type: CONVOLUTION
  blobs_lr: 1
  blobs_lr: 2
  weight_decay: 1
  weight_decay: 0
  convolution_param {
    num_output: 40
    kernel_size: 7
    stride: 2
    weight_filler {
      type: "xavier"
    }
    bias_filler {
      type: "constant"
      value: 0
    }
  }
}
layers {
  bottom: "conv1"
  top: "conv1"
  name: "relu1"
  type: RELU
}
layers {
  bottom: "conv1"
  top: "norm1"
  name: "norm1"
  type: LRN
  lrn_param {
    local_size: 5
    alpha: 0.0001
    beta: 0.75
  }
}
layers {
  bottom: "norm1"
  top: "pool1"
  name: "pool1"
  type: POOLING
  pooling_param {
    pool: MAX
    kernel_size: 2
    stride: 2
  }
}
layers {
  bottom: "pool1"
  top: "conv2"
  name: "conv2"
  type: CONVOLUTION
  blobs_lr: 1
  blobs_lr: 2
  weight_decay: 1
  weight_decay: 0
  convolution_param {
    num_output: 96
    kernel_size: 7
    stride: 2
    weight_filler {
      type: "xavier"
    }
    bias_filler {
      type: "constant"
      value: 1
    }
  }
}
layers {
  bottom: "conv2"
  top: "conv2"
  name: "relu2"
  type: RELU
}
layers {
  bottom: "conv2"
  top: "norm2"
  name: "norm2"
  type: LRN
  lrn_param {
    local_size: 5
    alpha: 0.0001
    beta: 0.75
  }
}
layers {
  bottom: "norm2"
  top: "pool2"
  name: "pool2"
  type: POOLING
  pooling_param {
    pool: MAX
    kernel_size: 3
    stride: 2
  }
}
layers {
  bottom: "pool2"
  top: "conv3"
  name: "conv3"
  type: CONVOLUTION
  blobs_lr: 1
  blobs_lr: 2
  weight_decay: 1
  weight_decay: 0
  convolution_param {
    num_output: 256
    pad: 1
    kernel_size: 5
    weight_filler {
      type: "xavier"
    }
    bias_filler {
      type: "constant"
      value: 0
    }
  }
}
layers {
  bottom: "conv3"
  top: "conv3"
  name: "relu3"
  type: RELU
}
layers {
  bottom: "conv3"
  top: "conv4"
  name: "conv4"
  type: CONVOLUTION
  blobs_lr: 1
  blobs_lr: 2
  convolution_param {
    num_output: 384
    pad: 1
    kernel_size: 3
    group: 2
    weight_filler {
      type: "xavier"
    }
    bias_filler {
      type: "constant"
    }
  }
}
layers {
  bottom: "conv4"
  top: "conv4"
  name: "relu4"
  type: RELU
}
layers {
  bottom: "conv4"
  top: "pool4"
  name: "pool4"
  type: POOLING
  pooling_param {
    pool: MAX
    kernel_size: 3
    stride: 2
  }
}
layers {
  bottom: "pool4"
  top: "ip1"
  name: "ip1"
  type: INNER_PRODUCT
  blobs_lr: 1
  blobs_lr: 2
  weight_decay: 1
  weight_decay: 0
  inner_product_param {
    num_output: 512
    weight_filler {
      type: "gaussian"
      std: 0.005
    }
    bias_filler {
      type: "constant"
      value: 0.1
    }
  }
}
layers {
  bottom: "ip1"
  top: "ip1"
  name: "relu5"
  type: SIGMOID
}
layers {
  bottom: "ip1"
  top: "ip2"
  name: "ip2"
  type: INNER_PRODUCT
  blobs_lr: 1
  blobs_lr: 2
  inner_product_param {
    num_output: 512
    weight_filler {
      type: "gaussian"
      std: 0.005
    }
    bias_filler {
      type: "constant"
      value: 0.1
    }
  }
}
layers {
  bottom: "ip2"
  top: "ip2"
  name: "relu6"
  type: SIGMOID
}
layers {
  bottom: "ip2"
  top: "ip2"
  name: "dropout"
  type: DROPOUT
  dropout_param {
    dropout_ratio: 0.5
  }
}
layers {
  bottom: "ip2"
  top: "ip3"
  name: "ip3"
  type: INNER_PRODUCT
  blobs_lr: 1
  blobs_lr: 2
  weight_decay: 1
  weight_decay: 0
  inner_product_param {
    num_output: 5
    weight_filler {
      type: "gaussian"
      std: 0.01
    }
    bias_filler {
      type: "constant"
      value: 0
    }
  }
}
layers {
  bottom: "ip3"
  bottom: "label"
  top: "accuracy"
  name: "accuracy"
  type: ACCURACY
}
layers {
  bottom: "ip3"
  bottom: "label"
  top: "loss"
  name: "loss"
  type: SOFTMAX_LOSS
}
state {
  phase: TRAIN
}
I0324 22:27:00.466675  3053 net.cpp:67] Creating Layer mnist
I0324 22:27:00.466682  3053 net.cpp:356] mnist -> data
I0324 22:27:00.466693  3053 net.cpp:356] mnist -> label
I0324 22:27:00.466701  3053 net.cpp:96] Setting up mnist
I0324 22:27:00.538804  3053 data_layer.cpp:68] Opening lmdb /home/niko/datasets/DiabeticRetinopathyDetection/processed/run-normal/diabetic_retinopathy_train_lmdb
I0324 22:27:00.606721  3053 data_layer.cpp:128] output data size: 250,3,200,200
I0324 22:27:00.606741  3053 base_data_layer.cpp:36] Loading mean file from/home/niko/datasets/DiabeticRetinopathyDetection/processed/run-normal/diabetic_retinopathy_mean.binaryproto
I0324 22:27:00.709789  3053 net.cpp:103] Top shape: 250 3 200 200 (30000000)
I0324 22:27:00.709817  3053 net.cpp:103] Top shape: 250 1 1 1 (250)
I0324 22:27:00.709827  3053 net.cpp:67] Creating Layer label_mnist_1_split
I0324 22:27:00.709830  3053 net.cpp:394] label_mnist_1_split <- label
I0324 22:27:00.709843  3053 net.cpp:356] label_mnist_1_split -> label_mnist_1_split_0
I0324 22:27:00.709851  3053 net.cpp:356] label_mnist_1_split -> label_mnist_1_split_1
I0324 22:27:00.709867  3053 net.cpp:96] Setting up label_mnist_1_split
I0324 22:27:00.709871  3053 net.cpp:103] Top shape: 250 1 1 1 (250)
I0324 22:27:00.709873  3053 net.cpp:103] Top shape: 250 1 1 1 (250)
I0324 22:27:00.709887  3053 net.cpp:67] Creating Layer conv1
I0324 22:27:00.709889  3053 net.cpp:394] conv1 <- data
I0324 22:27:00.709892  3053 net.cpp:356] conv1 -> conv1
I0324 22:27:00.709897  3053 net.cpp:96] Setting up conv1
I0324 22:27:01.027900  3053 net.cpp:103] Top shape: 250 40 97 97 (94090000)
I0324 22:27:01.027925  3053 net.cpp:67] Creating Layer relu1
I0324 22:27:01.027930  3053 net.cpp:394] relu1 <- conv1
I0324 22:27:01.027935  3053 net.cpp:345] relu1 -> conv1 (in-place)
I0324 22:27:01.027940  3053 net.cpp:96] Setting up relu1
I0324 22:27:01.027956  3053 net.cpp:103] Top shape: 250 40 97 97 (94090000)
I0324 22:27:01.027962  3053 net.cpp:67] Creating Layer norm1
I0324 22:27:01.027964  3053 net.cpp:394] norm1 <- conv1
I0324 22:27:01.027969  3053 net.cpp:356] norm1 -> norm1
I0324 22:27:01.027974  3053 net.cpp:96] Setting up norm1
I0324 22:27:01.027981  3053 net.cpp:103] Top shape: 250 40 97 97 (94090000)
I0324 22:27:01.027992  3053 net.cpp:67] Creating Layer pool1
I0324 22:27:01.027995  3053 net.cpp:394] pool1 <- norm1
I0324 22:27:01.028000  3053 net.cpp:356] pool1 -> pool1
I0324 22:27:01.028005  3053 net.cpp:96] Setting up pool1
I0324 22:27:01.028020  3053 net.cpp:103] Top shape: 250 40 49 49 (24010000)
I0324 22:27:01.028036  3053 net.cpp:67] Creating Layer conv2
I0324 22:27:01.028038  3053 net.cpp:394] conv2 <- pool1
I0324 22:27:01.028041  3053 net.cpp:356] conv2 -> conv2
I0324 22:27:01.028055  3053 net.cpp:96] Setting up conv2
I0324 22:27:01.029253  3053 net.cpp:103] Top shape: 250 96 22 22 (11616000)
I0324 22:27:01.029264  3053 net.cpp:67] Creating Layer relu2
I0324 22:27:01.029266  3053 net.cpp:394] relu2 <- conv2
I0324 22:27:01.029270  3053 net.cpp:345] relu2 -> conv2 (in-place)
I0324 22:27:01.029273  3053 net.cpp:96] Setting up relu2
I0324 22:27:01.029301  3053 net.cpp:103] Top shape: 250 96 22 22 (11616000)
I0324 22:27:01.029315  3053 net.cpp:67] Creating Layer norm2
I0324 22:27:01.029319  3053 net.cpp:394] norm2 <- conv2
I0324 22:27:01.029321  3053 net.cpp:356] norm2 -> norm2
I0324 22:27:01.029325  3053 net.cpp:96] Setting up norm2
I0324 22:27:01.029327  3053 net.cpp:103] Top shape: 250 96 22 22 (11616000)
I0324 22:27:01.029330  3053 net.cpp:67] Creating Layer pool2
I0324 22:27:01.029332  3053 net.cpp:394] pool2 <- norm2
I0324 22:27:01.029335  3053 net.cpp:356] pool2 -> pool2
I0324 22:27:01.029338  3053 net.cpp:96] Setting up pool2
I0324 22:27:01.029342  3053 net.cpp:103] Top shape: 250 96 11 11 (2904000)
I0324 22:27:01.029356  3053 net.cpp:67] Creating Layer conv3
I0324 22:27:01.029357  3053 net.cpp:394] conv3 <- pool2
I0324 22:27:01.029361  3053 net.cpp:356] conv3 -> conv3
I0324 22:27:01.029363  3053 net.cpp:96] Setting up conv3
I0324 22:27:01.032196  3053 net.cpp:103] Top shape: 250 256 9 9 (5184000)
I0324 22:27:01.032204  3053 net.cpp:67] Creating Layer relu3
I0324 22:27:01.032207  3053 net.cpp:394] relu3 <- conv3
I0324 22:27:01.032210  3053 net.cpp:345] relu3 -> conv3 (in-place)
I0324 22:27:01.032213  3053 net.cpp:96] Setting up relu3
I0324 22:27:01.032217  3053 net.cpp:103] Top shape: 250 256 9 9 (5184000)
I0324 22:27:01.032219  3053 net.cpp:67] Creating Layer conv4
I0324 22:27:01.032222  3053 net.cpp:394] conv4 <- conv3
I0324 22:27:01.032234  3053 net.cpp:356] conv4 -> conv4
I0324 22:27:01.032238  3053 net.cpp:96] Setting up conv4
I0324 22:27:01.034440  3053 net.cpp:103] Top shape: 250 384 9 9 (7776000)
I0324 22:27:01.034447  3053 net.cpp:67] Creating Layer relu4
I0324 22:27:01.034450  3053 net.cpp:394] relu4 <- conv4
I0324 22:27:01.034452  3053 net.cpp:345] relu4 -> conv4 (in-place)
I0324 22:27:01.034456  3053 net.cpp:96] Setting up relu4
I0324 22:27:01.034457  3053 net.cpp:103] Top shape: 250 384 9 9 (7776000)
I0324 22:27:01.034461  3053 net.cpp:67] Creating Layer pool4
I0324 22:27:01.034462  3053 net.cpp:394] pool4 <- conv4
I0324 22:27:01.034464  3053 net.cpp:356] pool4 -> pool4
I0324 22:27:01.034477  3053 net.cpp:96] Setting up pool4
I0324 22:27:01.034481  3053 net.cpp:103] Top shape: 250 384 4 4 (1536000)
I0324 22:27:01.034485  3053 net.cpp:67] Creating Layer ip1
I0324 22:27:01.034487  3053 net.cpp:394] ip1 <- pool4
I0324 22:27:01.034490  3053 net.cpp:356] ip1 -> ip1
I0324 22:27:01.034494  3053 net.cpp:96] Setting up ip1
I0324 22:27:01.096544  3053 net.cpp:103] Top shape: 250 512 1 1 (128000)
I0324 22:27:01.096570  3053 net.cpp:67] Creating Layer relu5
I0324 22:27:01.096572  3053 net.cpp:394] relu5 <- ip1
I0324 22:27:01.096577  3053 net.cpp:345] relu5 -> ip1 (in-place)
I0324 22:27:01.096581  3053 net.cpp:96] Setting up relu5
I0324 22:27:01.096602  3053 net.cpp:103] Top shape: 250 512 1 1 (128000)
I0324 22:27:01.096606  3053 net.cpp:67] Creating Layer ip2
I0324 22:27:01.096608  3053 net.cpp:394] ip2 <- ip1
I0324 22:27:01.096612  3053 net.cpp:356] ip2 -> ip2
I0324 22:27:01.096616  3053 net.cpp:96] Setting up ip2
I0324 22:27:01.101946  3053 net.cpp:103] Top shape: 250 512 1 1 (128000)
I0324 22:27:01.101955  3053 net.cpp:67] Creating Layer relu6
I0324 22:27:01.101958  3053 net.cpp:394] relu6 <- ip2
I0324 22:27:01.101959  3053 net.cpp:345] relu6 -> ip2 (in-place)
I0324 22:27:01.101963  3053 net.cpp:96] Setting up relu6
I0324 22:27:01.101966  3053 net.cpp:103] Top shape: 250 512 1 1 (128000)
I0324 22:27:01.101969  3053 net.cpp:67] Creating Layer dropout
I0324 22:27:01.101971  3053 net.cpp:394] dropout <- ip2
I0324 22:27:01.101984  3053 net.cpp:345] dropout -> ip2 (in-place)
I0324 22:27:01.101986  3053 net.cpp:96] Setting up dropout
I0324 22:27:01.101989  3053 net.cpp:103] Top shape: 250 512 1 1 (128000)
I0324 22:27:01.101994  3053 net.cpp:67] Creating Layer ip3
I0324 22:27:01.101994  3053 net.cpp:394] ip3 <- ip2
I0324 22:27:01.101999  3053 net.cpp:356] ip3 -> ip3
I0324 22:27:01.102001  3053 net.cpp:96] Setting up ip3
I0324 22:27:01.102067  3053 net.cpp:103] Top shape: 250 5 1 1 (1250)
I0324 22:27:01.102073  3053 net.cpp:67] Creating Layer ip3_ip3_0_split
I0324 22:27:01.102089  3053 net.cpp:394] ip3_ip3_0_split <- ip3
I0324 22:27:01.102102  3053 net.cpp:356] ip3_ip3_0_split -> ip3_ip3_0_split_0
I0324 22:27:01.102108  3053 net.cpp:356] ip3_ip3_0_split -> ip3_ip3_0_split_1
I0324 22:27:01.102121  3053 net.cpp:96] Setting up ip3_ip3_0_split
I0324 22:27:01.102124  3053 net.cpp:103] Top shape: 250 5 1 1 (1250)
I0324 22:27:01.102126  3053 net.cpp:103] Top shape: 250 5 1 1 (1250)
I0324 22:27:01.102129  3053 net.cpp:67] Creating Layer accuracy
I0324 22:27:01.102131  3053 net.cpp:394] accuracy <- ip3_ip3_0_split_0
I0324 22:27:01.102133  3053 net.cpp:394] accuracy <- label_mnist_1_split_0
I0324 22:27:01.102136  3053 net.cpp:356] accuracy -> accuracy
I0324 22:27:01.102139  3053 net.cpp:96] Setting up accuracy
I0324 22:27:01.102143  3053 net.cpp:103] Top shape: 1 1 1 1 (1)
I0324 22:27:01.102155  3053 net.cpp:67] Creating Layer loss
I0324 22:27:01.102157  3053 net.cpp:394] loss <- ip3_ip3_0_split_1
I0324 22:27:01.102159  3053 net.cpp:394] loss <- label_mnist_1_split_1
I0324 22:27:01.102162  3053 net.cpp:356] loss -> loss
I0324 22:27:01.102165  3053 net.cpp:96] Setting up loss
I0324 22:27:01.102171  3053 net.cpp:103] Top shape: 1 1 1 1 (1)
I0324 22:27:01.102172  3053 net.cpp:109]     with loss weight 1
I0324 22:27:01.102205  3053 net.cpp:170] loss needs backward computation.
I0324 22:27:01.102207  3053 net.cpp:172] accuracy does not need backward computation.
I0324 22:27:01.102208  3053 net.cpp:170] ip3_ip3_0_split needs backward computation.
I0324 22:27:01.102210  3053 net.cpp:170] ip3 needs backward computation.
I0324 22:27:01.102212  3053 net.cpp:170] dropout needs backward computation.
…
I0324 22:27:01.102713  3053 net.cpp:275] The NetState phase (1) differed from the phase (0) specified by a rule in layer mnist
I0324 22:27:01.102809  3053 net.cpp:39] Initializing net from parameters: 
name: "RetinopathyNet"
layers {
  top: "data"
  top: "label"
  name: "mnist"
  type: DATA
  data_param {
    source: "/home/niko/datasets/DiabeticRetinopathyDetection/processed/run-normal/diabetic_retinopathy_val_lmdb"
    batch_size: 50
    backend: LMDB
  }
  include {
    phase: TEST
  }
  transform_param {
    mirror: true
    crop_size: 200
    mean_file: "/home/niko/datasets/DiabeticRetinopathyDetection/processed/run-normal/diabetic_retinopathy_mean.binaryproto"
  }
}
layers {
  bottom: "data"
  top: "conv1"
  name: "conv1"
  type: CONVOLUTION
  blobs_lr: 1
  blobs_lr: 2
  weight_decay: 1
  weight_decay: 0
  convolution_param {
    num_output: 40
    kernel_size: 7
    stride: 2
    weight_filler {
      type: "xavier"
    }
    bias_filler {
      type: "constant"
      value: 0
    }
  }
}
layers {
  bottom: "conv1"
  top: "conv1"
  name: "relu1"
  type: RELU
}
layers {
  bottom: "conv1"
  top: "norm1"
  name: "norm1"
  type: LRN
  lrn_param {
    local_size: 5
    alpha: 0.0001
    beta: 0.75
  }
}
layers {
  bottom: "norm1"
  top: "pool1"
  name: "pool1"
  type: POOLING
  pooling_param {
    pool: MAX
    kernel_size: 2
    stride: 2
  }
}
layers {
  bottom: "pool1"
  top: "conv2"
  name: "conv2"
  type: CONVOLUTION
  blobs_lr: 1
  blobs_lr: 2
  weight_decay: 1
  weight_decay: 0
  convolution_param {
    num_output: 96
    kernel_size: 7
    stride: 2
    weight_filler {
      type: "xavier"
    }
    bias_filler {
      type: "constant"
      value: 1
    }
  }
}
layers {
  bottom: "conv2"
  top: "conv2"
  name: "relu2"
  type: RELU
}
layers {
  bottom: "conv2"
  top: "norm2"
  name: "norm2"
  type: LRN
  lrn_param {
    local_size: 5
    alpha: 0.0001
    beta: 0.75
  }
}
layers {
  bottom: "norm2"
  top: "pool2"
  name: "pool2"
  type: POOLING
  pooling_param {
    pool: MAX
    kernel_size: 3
    stride: 2
  }
}
layers {
  bottom: "pool2"
  top: "conv3"
  name: "conv3"
  type: CONVOLUTION
  blobs_lr: 1
  blobs_lr: 2
  weight_decay: 1
  weight_decay: 0
  convolution_param {
    num_output: 256
    pad: 1
    kernel_size: 5
    weight_filler {
      type: "xavier"
    }
    bias_filler {
      type: "constant"
      value: 0
    }
  }
}
layers {
  bottom: "conv3"
  top: "conv3"
  name: "relu3"
  type: RELU
}
layers {
  bottom: "conv3"
  top: "conv4"
  name: "conv4"
  type: CONVOLUTION
  blobs_lr: 1
  blobs_lr: 2
  convolution_param {
    num_output: 384
    pad: 1
    kernel_size: 3
    group: 2
    weight_filler {
      type: "xavier"
    }
    bias_filler {
      type: "constant"
    }
  }
}
layers {
  bottom: "conv4"
  top: "conv4"
  name: "relu4"
  type: RELU
}
layers {
  bottom: "conv4"
  top: "pool4"
  name: "pool4"
  type: POOLING
  pooling_param {
    pool: MAX
    kernel_size: 3
    stride: 2
  }
}
layers {
  bottom: "pool4"
  top: "ip1"
  name: "ip1"
  type: INNER_PRODUCT
  blobs_lr: 1
  blobs_lr: 2
  weight_decay: 1
  weight_decay: 0
  inner_product_param {
    num_output: 512
    weight_filler {
      type: "gaussian"
      std: 0.005
    }
    bias_filler {
      type: "constant"
      value: 0.1
    }
  }
}
layers {
  bottom: "ip1"
  top: "ip1"
  name: "relu5"
  type: SIGMOID
}
layers {
  bottom: "ip1"
  top: "ip2"
  name: "ip2"
  type: INNER_PRODUCT
  blobs_lr: 1
  blobs_lr: 2
  inner_product_param {
    num_output: 512
    weight_filler {
      type: "gaussian"
      std: 0.005
    }
    bias_filler {
      type: "constant"
      value: 0.1
    }
  }
}
layers {
  bottom: "ip2"
  top: "ip2"
  name: "relu6"
  type: SIGMOID
}
layers {
  bottom: "ip2"
  top: "ip2"
  name: "dropout"
  type: DROPOUT
  dropout_param {
    dropout_ratio: 0.5
  }
}
layers {
  bottom: "ip2"
  top: "ip3"
  name: "ip3"
  type: INNER_PRODUCT
  blobs_lr: 1
  blobs_lr: 2
  weight_decay: 1
  weight_decay: 0
  inner_product_param {
    num_output: 5
    weight_filler {
      type: "gaussian"
      std: 0.01
    }
    bias_filler {
      type: "constant"
      value: 0
    }
  }
}
layers {
  bottom: "ip3"
  bottom: "label"
  top: "accuracy"
  name: "accuracy"
  type: ACCURACY
}
layers {
  bottom: "ip3"
  bottom: "label"
  top: "loss"
  name: "loss"
  type: SOFTMAX_LOSS
}
state {
  phase: TEST
}
I0324 22:27:01.102877  3053 net.cpp:67] Creating Layer mnist
I0324 22:27:01.102880  3053 net.cpp:356] mnist -> data
I0324 22:27:01.102885  3053 net.cpp:356] mnist -> label
I0324 22:27:01.102895  3053 net.cpp:96] Setting up mnist
I0324 22:27:01.155431  3053 data_layer.cpp:68] Opening lmdb /home/niko/datasets/DiabeticRetinopathyDetection/processed/run-normal/diabetic_retinopathy_val_lmdb
I0324 22:27:01.239485  3053 data_layer.cpp:128] output data size: 50,3,200,200
I0324 22:27:01.239496  3053 base_data_layer.cpp:36] Loading mean file from/home/niko/datasets/DiabeticRetinopathyDetection/processed/run-normal/diabetic_retinopathy_mean.binaryproto
I0324 22:27:01.242777  3053 net.cpp:103] Top shape: 50 3 200 200 (6000000)
I0324 22:27:01.242802  3053 net.cpp:103] Top shape: 50 1 1 1 (50)
I0324 22:27:01.242813  3053 net.cpp:67] Creating Layer label_mnist_1_split
I0324 22:27:01.242816  3053 net.cpp:394] label_mnist_1_split <- label
I0324 22:27:01.242820  3053 net.cpp:356] label_mnist_1_split -> label_mnist_1_split_0
I0324 22:27:01.242828  3053 net.cpp:356] label_mnist_1_split -> label_mnist_1_split_1
I0324 22:27:01.242832  3053 net.cpp:96] Setting up label_mnist_1_split
I0324 22:27:01.242835  3053 net.cpp:103] Top shape: 50 1 1 1 (50)
I0324 22:27:01.242838  3053 net.cpp:103] Top shape: 50 1 1 1 (50)
I0324 22:27:01.242853  3053 net.cpp:67] Creating Layer conv1
I0324 22:27:01.242856  3053 net.cpp:394] conv1 <- data
I0324 22:27:01.242859  3053 net.cpp:356] conv1 -> conv1
I0324 22:27:01.242863  3053 net.cpp:96] Setting up conv1
I0324 22:27:01.242988  3053 net.cpp:103] Top shape: 50 40 97 97 (18818000)
I0324 22:27:01.243008  3053 net.cpp:67] Creating Layer relu1
I0324 22:27:01.243010  3053 net.cpp:394] relu1 <- conv1
I0324 22:27:01.243013  3053 net.cpp:345] relu1 -> conv1 (in-place)
I0324 22:27:01.243016  3053 net.cpp:96] Setting up relu1
I0324 22:27:01.243019  3053 net.cpp:103] Top shape: 50 40 97 97 (18818000)
I0324 22:27:01.243024  3053 net.cpp:67] Creating Layer norm1
I0324 22:27:01.243036  3053 net.cpp:394] norm1 <- conv1
I0324 22:27:01.243038  3053 net.cpp:356] norm1 -> norm1
I0324 22:27:01.243042  3053 net.cpp:96] Setting up norm1
I0324 22:27:01.243044  3053 net.cpp:103] Top shape: 50 40 97 97 (18818000)
I0324 22:27:01.243057  3053 net.cpp:67] Creating Layer pool1
I0324 22:27:01.243058  3053 net.cpp:394] pool1 <- norm1
I0324 22:27:01.243062  3053 net.cpp:356] pool1 -> pool1
I0324 22:27:01.243063  3053 net.cpp:96] Setting up pool1
I0324 22:27:01.243067  3053 net.cpp:103] Top shape: 50 40 49 49 (4802000)
I0324 22:27:01.243072  3053 net.cpp:67] Creating Layer conv2
I0324 22:27:01.243083  3053 net.cpp:394] conv2 <- pool1
I0324 22:27:01.243087  3053 net.cpp:356] conv2 -> conv2
I0324 22:27:01.243090  3053 net.cpp:96] Setting up conv2
I0324 22:27:01.244123  3053 net.cpp:103] Top shape: 50 96 22 22 (2323200)
I0324 22:27:01.244132  3053 net.cpp:67] Creating Layer relu2
I0324 22:27:01.244134  3053 net.cpp:394] relu2 <- conv2
I0324 22:27:01.244138  3053 net.cpp:345] relu2 -> conv2 (in-place)
I0324 22:27:01.244140  3053 net.cpp:96] Setting up relu2
I0324 22:27:01.244143  3053 net.cpp:103] Top shape: 50 96 22 22 (2323200)
I0324 22:27:01.244146  3053 net.cpp:67] Creating Layer norm2
I0324 22:27:01.244148  3053 net.cpp:394] norm2 <- conv2
I0324 22:27:01.244150  3053 net.cpp:356] norm2 -> norm2
I0324 22:27:01.244155  3053 net.cpp:96] Setting up norm2
I0324 22:27:01.244168  3053 net.cpp:103] Top shape: 50 96 22 22 (2323200)
I0324 22:27:01.244171  3053 net.cpp:67] Creating Layer pool2
I0324 22:27:01.244174  3053 net.cpp:394] pool2 <- norm2
I0324 22:27:01.244176  3053 net.cpp:356] pool2 -> pool2
I0324 22:27:01.244189  3053 net.cpp:96] Setting up pool2
I0324 22:27:01.244191  3053 net.cpp:103] Top shape: 50 96 11 11 (580800)
I0324 22:27:01.244196  3053 net.cpp:67] Creating Layer conv3
I0324 22:27:01.244209  3053 net.cpp:394] conv3 <- pool2
I0324 22:27:01.244211  3053 net.cpp:356] conv3 -> conv3
I0324 22:27:01.244215  3053 net.cpp:96] Setting up conv3
I0324 22:27:01.247233  3053 net.cpp:103] Top shape: 50 256 9 9 (1036800)
I0324 22:27:01.247241  3053 net.cpp:67] Creating Layer relu3
I0324 22:27:01.247243  3053 net.cpp:394] relu3 <- conv3
I0324 22:27:01.247246  3053 net.cpp:345] relu3 -> conv3 (in-place)
I0324 22:27:01.247275  3053 net.cpp:96] Setting up relu3
I0324 22:27:01.247279  3053 net.cpp:103] Top shape: 50 256 9 9 (1036800)
I0324 22:27:01.247282  3053 net.cpp:67] Creating Layer conv4
I0324 22:27:01.247295  3053 net.cpp:394] conv4 <- conv3
I0324 22:27:01.247298  3053 net.cpp:356] conv4 -> conv4
I0324 22:27:01.247300  3053 net.cpp:96] Setting up conv4
I0324 22:27:01.249498  3053 net.cpp:103] Top shape: 50 384 9 9 (1555200)
I0324 22:27:01.249505  3053 net.cpp:67] Creating Layer relu4
I0324 22:27:01.249507  3053 net.cpp:394] relu4 <- conv4
I0324 22:27:01.249510  3053 net.cpp:345] relu4 -> conv4 (in-place)
I0324 22:27:01.249512  3053 net.cpp:96] Setting up relu4
I0324 22:27:01.249516  3053 net.cpp:103] Top shape: 50 384 9 9 (1555200)
I0324 22:27:01.249519  3053 net.cpp:67] Creating Layer pool4
I0324 22:27:01.249521  3053 net.cpp:394] pool4 <- conv4
I0324 22:27:01.249523  3053 net.cpp:356] pool4 -> pool4
I0324 22:27:01.249526  3053 net.cpp:96] Setting up pool4
I0324 22:27:01.249531  3053 net.cpp:103] Top shape: 50 384 4 4 (307200)
I0324 22:27:01.249546  3053 net.cpp:67] Creating Layer ip1
I0324 22:27:01.249547  3053 net.cpp:394] ip1 <- pool4
I0324 22:27:01.249549  3053 net.cpp:356] ip1 -> ip1
I0324 22:27:01.249562  3053 net.cpp:96] Setting up ip1
I0324 22:27:01.312147  3053 net.cpp:103] Top shape: 50 512 1 1 (25600)
I0324 22:27:01.312172  3053 net.cpp:67] Creating Layer relu5
I0324 22:27:01.312176  3053 net.cpp:394] relu5 <- ip1
I0324 22:27:01.312181  3053 net.cpp:345] relu5 -> ip1 (in-place)
I0324 22:27:01.312186  3053 net.cpp:96] Setting up relu5
I0324 22:27:01.312194  3053 net.cpp:103] Top shape: 50 512 1 1 (25600)
I0324 22:27:01.312201  3053 net.cpp:67] Creating Layer ip2
I0324 22:27:01.312212  3053 net.cpp:394] ip2 <- ip1
I0324 22:27:01.312216  3053 net.cpp:356] ip2 -> ip2
I0324 22:27:01.312221  3053 net.cpp:96] Setting up ip2
I0324 22:27:01.317421  3053 net.cpp:103] Top shape: 50 512 1 1 (25600)
I0324 22:27:01.317428  3053 net.cpp:67] Creating Layer relu6
I0324 22:27:01.317430  3053 net.cpp:394] relu6 <- ip2
I0324 22:27:01.317435  3053 net.cpp:345] relu6 -> ip2 (in-place)
I0324 22:27:01.317436  3053 net.cpp:96] Setting up relu6
I0324 22:27:01.317440  3053 net.cpp:103] Top shape: 50 512 1 1 (25600)
I0324 22:27:01.317443  3053 net.cpp:67] Creating Layer dropout
I0324 22:27:01.317445  3053 net.cpp:394] dropout <- ip2
I0324 22:27:01.317447  3053 net.cpp:345] dropout -> ip2 (in-place)
I0324 22:27:01.317450  3053 net.cpp:96] Setting up dropout
I0324 22:27:01.317453  3053 net.cpp:103] Top shape: 50 512 1 1 (25600)
I0324 22:27:01.317466  3053 net.cpp:67] Creating Layer ip3
I0324 22:27:01.317467  3053 net.cpp:394] ip3 <- ip2
I0324 22:27:01.317471  3053 net.cpp:356] ip3 -> ip3
I0324 22:27:01.317484  3053 net.cpp:96] Setting up ip3
I0324 22:27:01.317559  3053 net.cpp:103] Top shape: 50 5 1 1 (250)
I0324 22:27:01.317564  3053 net.cpp:67] Creating Layer ip3_ip3_0_split
I0324 22:27:01.317566  3053 net.cpp:394] ip3_ip3_0_split <- ip3
I0324 22:27:01.317569  3053 net.cpp:356] ip3_ip3_0_split -> ip3_ip3_0_split_0
I0324 22:27:01.317574  3053 net.cpp:356] ip3_ip3_0_split -> ip3_ip3_0_split_1
I0324 22:27:01.317576  3053 net.cpp:96] Setting up ip3_ip3_0_split
I0324 22:27:01.317579  3053 net.cpp:103] Top shape: 50 5 1 1 (250)
I0324 22:27:01.317580  3053 net.cpp:103] Top shape: 50 5 1 1 (250)
I0324 22:27:01.317584  3053 net.cpp:67] Creating Layer accuracy
I0324 22:27:01.317587  3053 net.cpp:394] accuracy <- ip3_ip3_0_split_0
I0324 22:27:01.317589  3053 net.cpp:394] accuracy <- label_mnist_1_split_0
I0324 22:27:01.317602  3053 net.cpp:356] accuracy -> accuracy
I0324 22:27:01.317605  3053 net.cpp:96] Setting up accuracy
I0324 22:27:01.317606  3053 net.cpp:103] Top shape: 1 1 1 1 (1)
I0324 22:27:01.317620  3053 net.cpp:67] Creating Layer loss
I0324 22:27:01.317622  3053 net.cpp:394] loss <- ip3_ip3_0_split_1
I0324 22:27:01.317625  3053 net.cpp:394] loss <- label_mnist_1_split_1
I0324 22:27:01.317637  3053 net.cpp:356] loss -> loss
I0324 22:27:01.317641  3053 net.cpp:96] Setting up loss
I0324 22:27:01.317643  3053 net.cpp:103] Top shape: 1 1 1 1 (1)
I0324 22:27:01.317682  3053 net.cpp:109]     with loss weight 1
I0324 22:27:01.317699  3053 net.cpp:170] loss needs backward computation.
I0324 22:27:01.317701  3053 net.cpp:172] accuracy does not need backward computation.
I0324 22:27:01.317715  3053 net.cpp:170] ip3_ip3_0_split needs backward computation.
I0324 22:27:01.317718  3053 net.cpp:170] ip3 needs backward computation.
I0324 22:27:01.317721  3053 net.cpp:170] dropout needs backward computation.
…
