…
I0326 18:06:44.711961   751 net.cpp:275] The NetState phase (0) differed from the phase (1) specified by a rule in layer mnist
I0326 18:06:44.712065   751 net.cpp:39] Initializing net from parameters: 
name: "RetinopathyNet"
layers {
  top: "data"
  top: "label"
  name: "mnist"
  type: DATA
  data_param {
    source: "/home/niko/datasets/DiabeticRetinopathyDetection/processed/run-normal/diabetic_retinopathy_train_lmdb"
    batch_size: 250
    backend: LMDB
  }
  include {
    phase: TRAIN
  }
  transform_param {
    mirror: true
    crop_size: 227
    mean_file: "/home/niko/datasets/DiabeticRetinopathyDetection/processed/run-normal/diabetic_retinopathy_mean.binaryproto"
  }
}
layers {
  bottom: "data"
  top: "conv1"
  name: "conv1"
  type: CONVOLUTION
  blobs_lr: 1
  blobs_lr: 2
  weight_decay: 1
  weight_decay: 0
  convolution_param {
    num_output: 24
    kernel_size: 11
    stride: 4
    weight_filler {
      type: "xavier"
    }
    bias_filler {
      type: "constant"
      value: 0
    }
  }
}
layers {
  bottom: "conv1"
  top: "conv1"
  name: "relu1"
  type: RELU
}
layers {
  bottom: "conv1"
  top: "norm1"
  name: "norm1"
  type: LRN
  lrn_param {
    local_size: 5
    alpha: 0.0001
    beta: 0.75
  }
}
layers {
  bottom: "norm1"
  top: "pool1"
  name: "pool1"
  type: POOLING
  pooling_param {
    pool: MAX
    kernel_size: 3
    stride: 2
  }
}
layers {
  bottom: "pool1"
  top: "conv2"
  name: "conv2"
  type: CONVOLUTION
  blobs_lr: 1
  blobs_lr: 2
  weight_decay: 1
  weight_decay: 0
  convolution_param {
    num_output: 96
    kernel_size: 9
    group: 2
    stride: 1
    weight_filler {
      type: "xavier"
    }
    bias_filler {
      type: "constant"
      value: 1
    }
  }
}
layers {
  bottom: "conv2"
  top: "conv2"
  name: "relu2"
  type: RELU
}
layers {
  bottom: "conv2"
  top: "norm2"
  name: "norm2"
  type: LRN
  lrn_param {
    local_size: 5
    alpha: 0.0001
    beta: 0.75
  }
}
layers {
  bottom: "norm2"
  top: "pool2"
  name: "pool2"
  type: POOLING
  pooling_param {
    pool: MAX
    kernel_size: 3
    stride: 2
  }
}
layers {
  bottom: "pool2"
  top: "conv3"
  name: "conv3"
  type: CONVOLUTION
  blobs_lr: 1
  blobs_lr: 2
  weight_decay: 1
  weight_decay: 0
  convolution_param {
    num_output: 256
    pad: 1
    kernel_size: 5
    weight_filler {
      type: "xavier"
    }
    bias_filler {
      type: "constant"
      value: 0
    }
  }
}
layers {
  bottom: "conv3"
  top: "conv3"
  name: "relu3"
  type: RELU
}
layers {
  bottom: "conv3"
  top: "conv4"
  name: "conv4"
  type: CONVOLUTION
  blobs_lr: 1
  blobs_lr: 2
  convolution_param {
    num_output: 384
    pad: 1
    kernel_size: 3
    group: 2
    weight_filler {
      type: "xavier"
    }
    bias_filler {
      type: "constant"
    }
  }
}
layers {
  bottom: "conv4"
  top: "conv4"
  name: "relu4"
  type: RELU
}
layers {
  bottom: "conv4"
  top: "pool4"
  name: "pool4"
  type: POOLING
  pooling_param {
    pool: MAX
    kernel_size: 3
    stride: 2
  }
}
layers {
  bottom: "pool4"
  top: "ip1"
  name: "ip1"
  type: INNER_PRODUCT
  blobs_lr: 1
  blobs_lr: 2
  weight_decay: 1
  weight_decay: 0
  inner_product_param {
    num_output: 512
    weight_filler {
      type: "gaussian"
      std: 0.005
    }
    bias_filler {
      type: "constant"
      value: 0.1
    }
  }
}
layers {
  bottom: "ip1"
  top: "ip1"
  name: "relu5"
  type: RELU
}
layers {
  bottom: "ip1"
  top: "ip2"
  name: "ip2"
  type: INNER_PRODUCT
  blobs_lr: 1
  blobs_lr: 2
  inner_product_param {
    num_output: 512
    weight_filler {
      type: "gaussian"
      std: 0.005
    }
    bias_filler {
      type: "constant"
      value: 0.1
    }
  }
}
layers {
  bottom: "ip2"
  top: "ip2"
  name: "relu6"
  type: RELU
}
layers {
  bottom: "ip2"
  top: "ip3"
  name: "ip3"
  type: INNER_PRODUCT
  blobs_lr: 1
  blobs_lr: 2
  weight_decay: 1
  weight_decay: 0
  inner_product_param {
    num_output: 5
    weight_filler {
      type: "gaussian"
      std: 0.01
    }
    bias_filler {
      type: "constant"
      value: 0
    }
  }
}
layers {
  bottom: "ip3"
  bottom: "label"
  top: "accuracy"
  name: "accuracy"
  type: ACCURACY
}
layers {
  bottom: "ip3"
  bottom: "label"
  top: "loss"
  name: "loss"
  type: SOFTMAX_LOSS
}
state {
  phase: TRAIN
}
I0326 18:06:44.712172   751 net.cpp:67] Creating Layer mnist
I0326 18:06:44.712177   751 net.cpp:356] mnist -> data
I0326 18:06:44.712188   751 net.cpp:356] mnist -> label
I0326 18:06:44.712195   751 net.cpp:96] Setting up mnist
I0326 18:06:44.739775   751 data_layer.cpp:68] Opening lmdb /home/niko/datasets/DiabeticRetinopathyDetection/processed/run-normal/diabetic_retinopathy_train_lmdb
I0326 18:06:44.766013   751 data_layer.cpp:128] output data size: 250,3,227,227
I0326 18:06:44.766034   751 base_data_layer.cpp:36] Loading mean file from/home/niko/datasets/DiabeticRetinopathyDetection/processed/run-normal/diabetic_retinopathy_mean.binaryproto
I0326 18:06:44.882848   751 net.cpp:103] Top shape: 250 3 227 227 (38646750)
I0326 18:06:44.882866   751 net.cpp:103] Top shape: 250 1 1 1 (250)
I0326 18:06:44.882876   751 net.cpp:67] Creating Layer label_mnist_1_split
I0326 18:06:44.882880   751 net.cpp:394] label_mnist_1_split <- label
I0326 18:06:44.882905   751 net.cpp:356] label_mnist_1_split -> label_mnist_1_split_0
I0326 18:06:44.882912   751 net.cpp:356] label_mnist_1_split -> label_mnist_1_split_1
I0326 18:06:44.882917   751 net.cpp:96] Setting up label_mnist_1_split
I0326 18:06:44.882932   751 net.cpp:103] Top shape: 250 1 1 1 (250)
I0326 18:06:44.882936   751 net.cpp:103] Top shape: 250 1 1 1 (250)
I0326 18:06:44.882942   751 net.cpp:67] Creating Layer conv1
I0326 18:06:44.882944   751 net.cpp:394] conv1 <- data
I0326 18:06:44.882948   751 net.cpp:356] conv1 -> conv1
I0326 18:06:44.882954   751 net.cpp:96] Setting up conv1
I0326 18:06:45.200366   751 net.cpp:103] Top shape: 250 24 55 55 (18150000)
I0326 18:06:45.200392   751 net.cpp:67] Creating Layer relu1
I0326 18:06:45.200397   751 net.cpp:394] relu1 <- conv1
I0326 18:06:45.200400   751 net.cpp:345] relu1 -> conv1 (in-place)
I0326 18:06:45.200405   751 net.cpp:96] Setting up relu1
I0326 18:06:45.200412   751 net.cpp:103] Top shape: 250 24 55 55 (18150000)
I0326 18:06:45.200426   751 net.cpp:67] Creating Layer norm1
I0326 18:06:45.200428   751 net.cpp:394] norm1 <- conv1
I0326 18:06:45.200430   751 net.cpp:356] norm1 -> norm1
I0326 18:06:45.200434   751 net.cpp:96] Setting up norm1
I0326 18:06:45.200438   751 net.cpp:103] Top shape: 250 24 55 55 (18150000)
I0326 18:06:45.200453   751 net.cpp:67] Creating Layer pool1
I0326 18:06:45.200454   751 net.cpp:394] pool1 <- norm1
I0326 18:06:45.200459   751 net.cpp:356] pool1 -> pool1
I0326 18:06:45.200464   751 net.cpp:96] Setting up pool1
I0326 18:06:45.200484   751 net.cpp:103] Top shape: 250 24 27 27 (4374000)
I0326 18:06:45.200501   751 net.cpp:67] Creating Layer conv2
I0326 18:06:45.200503   751 net.cpp:394] conv2 <- pool1
I0326 18:06:45.200508   751 net.cpp:356] conv2 -> conv2
I0326 18:06:45.200523   751 net.cpp:96] Setting up conv2
I0326 18:06:45.201303   751 net.cpp:103] Top shape: 250 96 19 19 (8664000)
I0326 18:06:45.201313   751 net.cpp:67] Creating Layer relu2
I0326 18:06:45.201318   751 net.cpp:394] relu2 <- conv2
I0326 18:06:45.201323   751 net.cpp:345] relu2 -> conv2 (in-place)
I0326 18:06:45.201328   751 net.cpp:96] Setting up relu2
I0326 18:06:45.201344   751 net.cpp:103] Top shape: 250 96 19 19 (8664000)
I0326 18:06:45.201349   751 net.cpp:67] Creating Layer norm2
I0326 18:06:45.201374   751 net.cpp:394] norm2 <- conv2
I0326 18:06:45.201390   751 net.cpp:356] norm2 -> norm2
I0326 18:06:45.201406   751 net.cpp:96] Setting up norm2
I0326 18:06:45.201411   751 net.cpp:103] Top shape: 250 96 19 19 (8664000)
I0326 18:06:45.201426   751 net.cpp:67] Creating Layer pool2
I0326 18:06:45.201431   751 net.cpp:394] pool2 <- norm2
I0326 18:06:45.201445   751 net.cpp:356] pool2 -> pool2
I0326 18:06:45.201450   751 net.cpp:96] Setting up pool2
I0326 18:06:45.201467   751 net.cpp:103] Top shape: 250 96 9 9 (1944000)
I0326 18:06:45.201472   751 net.cpp:67] Creating Layer conv3
I0326 18:06:45.201475   751 net.cpp:394] conv3 <- pool2
I0326 18:06:45.201481   751 net.cpp:356] conv3 -> conv3
I0326 18:06:45.201486   751 net.cpp:96] Setting up conv3
I0326 18:06:45.205104   751 net.cpp:103] Top shape: 250 256 7 7 (3136000)
I0326 18:06:45.205119   751 net.cpp:67] Creating Layer relu3
I0326 18:06:45.205122   751 net.cpp:394] relu3 <- conv3
I0326 18:06:45.205127   751 net.cpp:345] relu3 -> conv3 (in-place)
I0326 18:06:45.205131   751 net.cpp:96] Setting up relu3
I0326 18:06:45.205133   751 net.cpp:103] Top shape: 250 256 7 7 (3136000)
I0326 18:06:45.205147   751 net.cpp:67] Creating Layer conv4
I0326 18:06:45.205148   751 net.cpp:394] conv4 <- conv3
I0326 18:06:45.205152   751 net.cpp:356] conv4 -> conv4
I0326 18:06:45.205155   751 net.cpp:96] Setting up conv4
I0326 18:06:45.207613   751 net.cpp:103] Top shape: 250 384 7 7 (4704000)
I0326 18:06:45.207628   751 net.cpp:67] Creating Layer relu4
I0326 18:06:45.207630   751 net.cpp:394] relu4 <- conv4
I0326 18:06:45.207635   751 net.cpp:345] relu4 -> conv4 (in-place)
I0326 18:06:45.207640   751 net.cpp:96] Setting up relu4
I0326 18:06:45.207654   751 net.cpp:103] Top shape: 250 384 7 7 (4704000)
I0326 18:06:45.207659   751 net.cpp:67] Creating Layer pool4
I0326 18:06:45.207662   751 net.cpp:394] pool4 <- conv4
I0326 18:06:45.207666   751 net.cpp:356] pool4 -> pool4
I0326 18:06:45.207670   751 net.cpp:96] Setting up pool4
I0326 18:06:45.207676   751 net.cpp:103] Top shape: 250 384 3 3 (864000)
I0326 18:06:45.207684   751 net.cpp:67] Creating Layer ip1
I0326 18:06:45.207689   751 net.cpp:394] ip1 <- pool4
I0326 18:06:45.207692   751 net.cpp:356] ip1 -> ip1
I0326 18:06:45.207697   751 net.cpp:96] Setting up ip1
I0326 18:06:45.248549   751 net.cpp:103] Top shape: 250 512 1 1 (128000)
I0326 18:06:45.248572   751 net.cpp:67] Creating Layer relu5
I0326 18:06:45.248575   751 net.cpp:394] relu5 <- ip1
I0326 18:06:45.248579   751 net.cpp:345] relu5 -> ip1 (in-place)
I0326 18:06:45.248584   751 net.cpp:96] Setting up relu5
I0326 18:06:45.248594   751 net.cpp:103] Top shape: 250 512 1 1 (128000)
I0326 18:06:45.248606   751 net.cpp:67] Creating Layer ip2
I0326 18:06:45.248608   751 net.cpp:394] ip2 <- ip1
I0326 18:06:45.248612   751 net.cpp:356] ip2 -> ip2
I0326 18:06:45.248617   751 net.cpp:96] Setting up ip2
I0326 18:06:45.253875   751 net.cpp:103] Top shape: 250 512 1 1 (128000)
I0326 18:06:45.253892   751 net.cpp:67] Creating Layer relu6
I0326 18:06:45.253895   751 net.cpp:394] relu6 <- ip2
I0326 18:06:45.253897   751 net.cpp:345] relu6 -> ip2 (in-place)
I0326 18:06:45.253900   751 net.cpp:96] Setting up relu6
I0326 18:06:45.253903   751 net.cpp:103] Top shape: 250 512 1 1 (128000)
I0326 18:06:45.253907   751 net.cpp:67] Creating Layer ip3
I0326 18:06:45.253911   751 net.cpp:394] ip3 <- ip2
I0326 18:06:45.253913   751 net.cpp:356] ip3 -> ip3
I0326 18:06:45.253916   751 net.cpp:96] Setting up ip3
I0326 18:06:45.253983   751 net.cpp:103] Top shape: 250 5 1 1 (1250)
I0326 18:06:45.253988   751 net.cpp:67] Creating Layer ip3_ip3_0_split
I0326 18:06:45.253988   751 net.cpp:394] ip3_ip3_0_split <- ip3
I0326 18:06:45.253991   751 net.cpp:356] ip3_ip3_0_split -> ip3_ip3_0_split_0
I0326 18:06:45.253996   751 net.cpp:356] ip3_ip3_0_split -> ip3_ip3_0_split_1
I0326 18:06:45.254000   751 net.cpp:96] Setting up ip3_ip3_0_split
I0326 18:06:45.254003   751 net.cpp:103] Top shape: 250 5 1 1 (1250)
I0326 18:06:45.254004   751 net.cpp:103] Top shape: 250 5 1 1 (1250)
I0326 18:06:45.254030   751 net.cpp:67] Creating Layer accuracy
I0326 18:06:45.254032   751 net.cpp:394] accuracy <- ip3_ip3_0_split_0
I0326 18:06:45.254035   751 net.cpp:394] accuracy <- label_mnist_1_split_0
I0326 18:06:45.254048   751 net.cpp:356] accuracy -> accuracy
I0326 18:06:45.254052   751 net.cpp:96] Setting up accuracy
I0326 18:06:45.254056   751 net.cpp:103] Top shape: 1 1 1 1 (1)
I0326 18:06:45.254060   751 net.cpp:67] Creating Layer loss
I0326 18:06:45.254062   751 net.cpp:394] loss <- ip3_ip3_0_split_1
I0326 18:06:45.254065   751 net.cpp:394] loss <- label_mnist_1_split_1
I0326 18:06:45.254067   751 net.cpp:356] loss -> loss
I0326 18:06:45.254070   751 net.cpp:96] Setting up loss
I0326 18:06:45.254079   751 net.cpp:103] Top shape: 1 1 1 1 (1)
I0326 18:06:45.254081   751 net.cpp:109]     with loss weight 1
I0326 18:06:45.254122   751 net.cpp:170] loss needs backward computation.
I0326 18:06:45.254124   751 net.cpp:172] accuracy does not need backward computation.
I0326 18:06:45.254125   751 net.cpp:170] ip3_ip3_0_split needs backward computation.
I0326 18:06:45.254127   751 net.cpp:170] ip3 needs backward computation.
I0326 18:06:45.254129   751 net.cpp:170] relu6 needs backward computation.
…
I0326 18:06:45.254650   751 net.cpp:275] The NetState phase (1) differed from the phase (0) specified by a rule in layer mnist
I0326 18:06:45.254741   751 net.cpp:39] Initializing net from parameters: 
name: "RetinopathyNet"
layers {
  top: "data"
  top: "label"
  name: "mnist"
  type: DATA
  data_param {
    source: "/home/niko/datasets/DiabeticRetinopathyDetection/processed/run-normal/diabetic_retinopathy_val_lmdb"
    batch_size: 50
    backend: LMDB
  }
  include {
    phase: TEST
  }
  transform_param {
    mirror: true
    crop_size: 227
    mean_file: "/home/niko/datasets/DiabeticRetinopathyDetection/processed/run-normal/diabetic_retinopathy_mean.binaryproto"
  }
}
layers {
  bottom: "data"
  top: "conv1"
  name: "conv1"
  type: CONVOLUTION
  blobs_lr: 1
  blobs_lr: 2
  weight_decay: 1
  weight_decay: 0
  convolution_param {
    num_output: 24
    kernel_size: 11
    stride: 4
    weight_filler {
      type: "xavier"
    }
    bias_filler {
      type: "constant"
      value: 0
    }
  }
}
layers {
  bottom: "conv1"
  top: "conv1"
  name: "relu1"
  type: RELU
}
layers {
  bottom: "conv1"
  top: "norm1"
  name: "norm1"
  type: LRN
  lrn_param {
    local_size: 5
    alpha: 0.0001
    beta: 0.75
  }
}
layers {
  bottom: "norm1"
  top: "pool1"
  name: "pool1"
  type: POOLING
  pooling_param {
    pool: MAX
    kernel_size: 3
    stride: 2
  }
}
layers {
  bottom: "pool1"
  top: "conv2"
  name: "conv2"
  type: CONVOLUTION
  blobs_lr: 1
  blobs_lr: 2
  weight_decay: 1
  weight_decay: 0
  convolution_param {
    num_output: 96
    kernel_size: 9
    group: 2
    stride: 1
    weight_filler {
      type: "xavier"
    }
    bias_filler {
      type: "constant"
      value: 1
    }
  }
}
layers {
  bottom: "conv2"
  top: "conv2"
  name: "relu2"
  type: RELU
}
layers {
  bottom: "conv2"
  top: "norm2"
  name: "norm2"
  type: LRN
  lrn_param {
    local_size: 5
    alpha: 0.0001
    beta: 0.75
  }
}
layers {
  bottom: "norm2"
  top: "pool2"
  name: "pool2"
  type: POOLING
  pooling_param {
    pool: MAX
    kernel_size: 3
    stride: 2
  }
}
layers {
  bottom: "pool2"
  top: "conv3"
  name: "conv3"
  type: CONVOLUTION
  blobs_lr: 1
  blobs_lr: 2
  weight_decay: 1
  weight_decay: 0
  convolution_param {
    num_output: 256
    pad: 1
    kernel_size: 5
    weight_filler {
      type: "xavier"
    }
    bias_filler {
      type: "constant"
      value: 0
    }
  }
}
layers {
  bottom: "conv3"
  top: "conv3"
  name: "relu3"
  type: RELU
}
layers {
  bottom: "conv3"
  top: "conv4"
  name: "conv4"
  type: CONVOLUTION
  blobs_lr: 1
  blobs_lr: 2
  convolution_param {
    num_output: 384
    pad: 1
    kernel_size: 3
    group: 2
    weight_filler {
      type: "xavier"
    }
    bias_filler {
      type: "constant"
    }
  }
}
layers {
  bottom: "conv4"
  top: "conv4"
  name: "relu4"
  type: RELU
}
layers {
  bottom: "conv4"
  top: "pool4"
  name: "pool4"
  type: POOLING
  pooling_param {
    pool: MAX
    kernel_size: 3
    stride: 2
  }
}
layers {
  bottom: "pool4"
  top: "ip1"
  name: "ip1"
  type: INNER_PRODUCT
  blobs_lr: 1
  blobs_lr: 2
  weight_decay: 1
  weight_decay: 0
  inner_product_param {
    num_output: 512
    weight_filler {
      type: "gaussian"
      std: 0.005
    }
    bias_filler {
      type: "constant"
      value: 0.1
    }
  }
}
layers {
  bottom: "ip1"
  top: "ip1"
  name: "relu5"
  type: RELU
}
layers {
  bottom: "ip1"
  top: "ip2"
  name: "ip2"
  type: INNER_PRODUCT
  blobs_lr: 1
  blobs_lr: 2
  inner_product_param {
    num_output: 512
    weight_filler {
      type: "gaussian"
      std: 0.005
    }
    bias_filler {
      type: "constant"
      value: 0.1
    }
  }
}
layers {
  bottom: "ip2"
  top: "ip2"
  name: "relu6"
  type: RELU
}
layers {
  bottom: "ip2"
  top: "ip3"
  name: "ip3"
  type: INNER_PRODUCT
  blobs_lr: 1
  blobs_lr: 2
  weight_decay: 1
  weight_decay: 0
  inner_product_param {
    num_output: 5
    weight_filler {
      type: "gaussian"
      std: 0.01
    }
    bias_filler {
      type: "constant"
      value: 0
    }
  }
}
layers {
  bottom: "ip3"
  bottom: "label"
  top: "accuracy"
  name: "accuracy"
  type: ACCURACY
}
layers {
  bottom: "ip3"
  bottom: "label"
  top: "loss"
  name: "loss"
  type: SOFTMAX_LOSS
}
state {
  phase: TEST
}
I0326 18:06:45.254808   751 net.cpp:67] Creating Layer mnist
I0326 18:06:45.254812   751 net.cpp:356] mnist -> data
I0326 18:06:45.254817   751 net.cpp:356] mnist -> label
I0326 18:06:45.254822   751 net.cpp:96] Setting up mnist
I0326 18:06:45.264704   751 data_layer.cpp:68] Opening lmdb /home/niko/datasets/DiabeticRetinopathyDetection/processed/run-normal/diabetic_retinopathy_val_lmdb
I0326 18:06:45.275357   751 data_layer.cpp:128] output data size: 50,3,227,227
I0326 18:06:45.275367   751 base_data_layer.cpp:36] Loading mean file from/home/niko/datasets/DiabeticRetinopathyDetection/processed/run-normal/diabetic_retinopathy_mean.binaryproto
I0326 18:06:45.282179   751 net.cpp:103] Top shape: 50 3 227 227 (7729350)
I0326 18:06:45.282207   751 net.cpp:103] Top shape: 50 1 1 1 (50)
I0326 18:06:45.282254   751 net.cpp:67] Creating Layer label_mnist_1_split
I0326 18:06:45.282263   751 net.cpp:394] label_mnist_1_split <- label
I0326 18:06:45.282271   751 net.cpp:356] label_mnist_1_split -> label_mnist_1_split_0
I0326 18:06:45.282292   751 net.cpp:356] label_mnist_1_split -> label_mnist_1_split_1
I0326 18:06:45.282297   751 net.cpp:96] Setting up label_mnist_1_split
I0326 18:06:45.282301   751 net.cpp:103] Top shape: 50 1 1 1 (50)
I0326 18:06:45.282305   751 net.cpp:103] Top shape: 50 1 1 1 (50)
I0326 18:06:45.282310   751 net.cpp:67] Creating Layer conv1
I0326 18:06:45.282322   751 net.cpp:394] conv1 <- data
I0326 18:06:45.282327   751 net.cpp:356] conv1 -> conv1
I0326 18:06:45.282333   751 net.cpp:96] Setting up conv1
I0326 18:06:45.282634   751 net.cpp:103] Top shape: 50 24 55 55 (3630000)
I0326 18:06:45.282649   751 net.cpp:67] Creating Layer relu1
I0326 18:06:45.282662   751 net.cpp:394] relu1 <- conv1
I0326 18:06:45.282667   751 net.cpp:345] relu1 -> conv1 (in-place)
I0326 18:06:45.282673   751 net.cpp:96] Setting up relu1
I0326 18:06:45.282678   751 net.cpp:103] Top shape: 50 24 55 55 (3630000)
I0326 18:06:45.282685   751 net.cpp:67] Creating Layer norm1
I0326 18:06:45.282688   751 net.cpp:394] norm1 <- conv1
I0326 18:06:45.282693   751 net.cpp:356] norm1 -> norm1
I0326 18:06:45.282698   751 net.cpp:96] Setting up norm1
I0326 18:06:45.282703   751 net.cpp:103] Top shape: 50 24 55 55 (3630000)
I0326 18:06:45.282708   751 net.cpp:67] Creating Layer pool1
I0326 18:06:45.282712   751 net.cpp:394] pool1 <- norm1
I0326 18:06:45.282716   751 net.cpp:356] pool1 -> pool1
I0326 18:06:45.282721   751 net.cpp:96] Setting up pool1
I0326 18:06:45.282728   751 net.cpp:103] Top shape: 50 24 27 27 (874800)
I0326 18:06:45.282735   751 net.cpp:67] Creating Layer conv2
I0326 18:06:45.282738   751 net.cpp:394] conv2 <- pool1
I0326 18:06:45.282743   751 net.cpp:356] conv2 -> conv2
I0326 18:06:45.282749   751 net.cpp:96] Setting up conv2
I0326 18:06:45.283242   751 net.cpp:103] Top shape: 50 96 19 19 (1732800)
I0326 18:06:45.283252   751 net.cpp:67] Creating Layer relu2
I0326 18:06:45.283257   751 net.cpp:394] relu2 <- conv2
I0326 18:06:45.283262   751 net.cpp:345] relu2 -> conv2 (in-place)
I0326 18:06:45.283267   751 net.cpp:96] Setting up relu2
I0326 18:06:45.283272   751 net.cpp:103] Top shape: 50 96 19 19 (1732800)
I0326 18:06:45.283277   751 net.cpp:67] Creating Layer norm2
I0326 18:06:45.283279   751 net.cpp:394] norm2 <- conv2
I0326 18:06:45.283284   751 net.cpp:356] norm2 -> norm2
I0326 18:06:45.283290   751 net.cpp:96] Setting up norm2
I0326 18:06:45.283294   751 net.cpp:103] Top shape: 50 96 19 19 (1732800)
I0326 18:06:45.283299   751 net.cpp:67] Creating Layer pool2
I0326 18:06:45.283303   751 net.cpp:394] pool2 <- norm2
I0326 18:06:45.283308   751 net.cpp:356] pool2 -> pool2
I0326 18:06:45.283311   751 net.cpp:96] Setting up pool2
I0326 18:06:45.283318   751 net.cpp:103] Top shape: 50 96 9 9 (388800)
I0326 18:06:45.283324   751 net.cpp:67] Creating Layer conv3
I0326 18:06:45.283326   751 net.cpp:394] conv3 <- pool2
I0326 18:06:45.283331   751 net.cpp:356] conv3 -> conv3
I0326 18:06:45.283337   751 net.cpp:96] Setting up conv3
I0326 18:06:45.286351   751 net.cpp:103] Top shape: 50 256 7 7 (627200)
I0326 18:06:45.286370   751 net.cpp:67] Creating Layer relu3
I0326 18:06:45.286394   751 net.cpp:394] relu3 <- conv3
I0326 18:06:45.286399   751 net.cpp:345] relu3 -> conv3 (in-place)
I0326 18:06:45.286413   751 net.cpp:96] Setting up relu3
I0326 18:06:45.286418   751 net.cpp:103] Top shape: 50 256 7 7 (627200)
I0326 18:06:45.286424   751 net.cpp:67] Creating Layer conv4
I0326 18:06:45.286427   751 net.cpp:394] conv4 <- conv3
I0326 18:06:45.286433   751 net.cpp:356] conv4 -> conv4
I0326 18:06:45.286438   751 net.cpp:96] Setting up conv4
I0326 18:06:45.288769   751 net.cpp:103] Top shape: 50 384 7 7 (940800)
I0326 18:06:45.288780   751 net.cpp:67] Creating Layer relu4
I0326 18:06:45.288784   751 net.cpp:394] relu4 <- conv4
I0326 18:06:45.288791   751 net.cpp:345] relu4 -> conv4 (in-place)
I0326 18:06:45.288810   751 net.cpp:96] Setting up relu4
I0326 18:06:45.288816   751 net.cpp:103] Top shape: 50 384 7 7 (940800)
I0326 18:06:45.288825   751 net.cpp:67] Creating Layer pool4
I0326 18:06:45.288827   751 net.cpp:394] pool4 <- conv4
I0326 18:06:45.288833   751 net.cpp:356] pool4 -> pool4
I0326 18:06:45.288849   751 net.cpp:96] Setting up pool4
I0326 18:06:45.288861   751 net.cpp:103] Top shape: 50 384 3 3 (172800)
I0326 18:06:45.288868   751 net.cpp:67] Creating Layer ip1
I0326 18:06:45.288873   751 net.cpp:394] ip1 <- pool4
I0326 18:06:45.288879   751 net.cpp:356] ip1 -> ip1
I0326 18:06:45.288885   751 net.cpp:96] Setting up ip1
I0326 18:06:45.328218   751 net.cpp:103] Top shape: 50 512 1 1 (25600)
I0326 18:06:45.328246   751 net.cpp:67] Creating Layer relu5
I0326 18:06:45.328251   751 net.cpp:394] relu5 <- ip1
I0326 18:06:45.328258   751 net.cpp:345] relu5 -> ip1 (in-place)
I0326 18:06:45.328274   751 net.cpp:96] Setting up relu5
I0326 18:06:45.328287   751 net.cpp:103] Top shape: 50 512 1 1 (25600)
I0326 18:06:45.328295   751 net.cpp:67] Creating Layer ip2
I0326 18:06:45.328300   751 net.cpp:394] ip2 <- ip1
I0326 18:06:45.328307   751 net.cpp:356] ip2 -> ip2
I0326 18:06:45.328323   751 net.cpp:96] Setting up ip2
I0326 18:06:45.334889   751 net.cpp:103] Top shape: 50 512 1 1 (25600)
I0326 18:06:45.334924   751 net.cpp:67] Creating Layer relu6
I0326 18:06:45.334928   751 net.cpp:394] relu6 <- ip2
I0326 18:06:45.334936   751 net.cpp:345] relu6 -> ip2 (in-place)
I0326 18:06:45.334941   751 net.cpp:96] Setting up relu6
I0326 18:06:45.334983   751 net.cpp:103] Top shape: 50 512 1 1 (25600)
I0326 18:06:45.335000   751 net.cpp:67] Creating Layer ip3
I0326 18:06:45.335003   751 net.cpp:394] ip3 <- ip2
I0326 18:06:45.335007   751 net.cpp:356] ip3 -> ip3
I0326 18:06:45.335034   751 net.cpp:96] Setting up ip3
I0326 18:06:45.335142   751 net.cpp:103] Top shape: 50 5 1 1 (250)
I0326 18:06:45.335160   751 net.cpp:67] Creating Layer ip3_ip3_0_split
I0326 18:06:45.335163   751 net.cpp:394] ip3_ip3_0_split <- ip3
I0326 18:06:45.335167   751 net.cpp:356] ip3_ip3_0_split -> ip3_ip3_0_split_0
I0326 18:06:45.335176   751 net.cpp:356] ip3_ip3_0_split -> ip3_ip3_0_split_1
I0326 18:06:45.335182   751 net.cpp:96] Setting up ip3_ip3_0_split
I0326 18:06:45.335187   751 net.cpp:103] Top shape: 50 5 1 1 (250)
I0326 18:06:45.335211   751 net.cpp:103] Top shape: 50 5 1 1 (250)
I0326 18:06:45.335217   751 net.cpp:67] Creating Layer accuracy
I0326 18:06:45.335221   751 net.cpp:394] accuracy <- ip3_ip3_0_split_0
I0326 18:06:45.335223   751 net.cpp:394] accuracy <- label_mnist_1_split_0
I0326 18:06:45.335229   751 net.cpp:356] accuracy -> accuracy
I0326 18:06:45.335233   751 net.cpp:96] Setting up accuracy
I0326 18:06:45.335237   751 net.cpp:103] Top shape: 1 1 1 1 (1)
I0326 18:06:45.335254   751 net.cpp:67] Creating Layer loss
I0326 18:06:45.335258   751 net.cpp:394] loss <- ip3_ip3_0_split_1
I0326 18:06:45.335261   751 net.cpp:394] loss <- label_mnist_1_split_1
I0326 18:06:45.335275   751 net.cpp:356] loss -> loss
I0326 18:06:45.335280   751 net.cpp:96] Setting up loss
I0326 18:06:45.335295   751 net.cpp:103] Top shape: 1 1 1 1 (1)
I0326 18:06:45.335299   751 net.cpp:109]     with loss weight 1
I0326 18:06:45.335309   751 net.cpp:170] loss needs backward computation.
I0326 18:06:45.335312   751 net.cpp:172] accuracy does not need backward computation.
I0326 18:06:45.335316   751 net.cpp:170] ip3_ip3_0_split needs backward computation.
I0326 18:06:45.335319   751 net.cpp:170] ip3 needs backward computation.
I0326 18:06:45.335322   751 net.cpp:170] relu6 needs backward computation.
…
