…
I0327 06:32:28.649507  4420 net.cpp:275] The NetState phase (0) differed from the phase (1) specified by a rule in layer mnist
I0327 06:32:28.649632  4420 net.cpp:39] Initializing net from parameters: 
name: "RetinopathyNet"
layers {
  top: "data"
  top: "label"
  name: "mnist"
  type: DATA
  data_param {
    source: "/home/niko/datasets/DiabeticRetinopathyDetection/processed/run-normal/diabetic_retinopathy_train_lmdb"
    batch_size: 250
    backend: LMDB
  }
  include {
    phase: TRAIN
  }
  transform_param {
    mirror: true
    crop_size: 227
    mean_file: "/home/niko/datasets/DiabeticRetinopathyDetection/processed/run-normal/diabetic_retinopathy_mean.binaryproto"
  }
}
layers {
  bottom: "data"
  top: "conv1"
  name: "conv1"
  type: CONVOLUTION
  blobs_lr: 1
  blobs_lr: 2
  weight_decay: 1
  weight_decay: 0
  convolution_param {
    num_output: 48
    kernel_size: 7
    stride: 4
    weight_filler {
      type: "xavier"
    }
    bias_filler {
      type: "constant"
      value: 0
    }
  }
}
layers {
  bottom: "conv1"
  top: "conv1"
  name: "relu1"
  type: RELU
}
layers {
  bottom: "conv1"
  top: "norm1"
  name: "norm1"
  type: LRN
  lrn_param {
    local_size: 5
    alpha: 0.0001
    beta: 0.75
  }
}
layers {
  bottom: "norm1"
  top: "pool1"
  name: "pool1"
  type: POOLING
  pooling_param {
    pool: MAX
    kernel_size: 3
    stride: 2
  }
}
layers {
  bottom: "pool1"
  top: "conv2"
  name: "conv2"
  type: CONVOLUTION
  blobs_lr: 1
  blobs_lr: 2
  weight_decay: 1
  weight_decay: 0
  convolution_param {
    num_output: 96
    kernel_size: 7
    group: 2
    stride: 1
    weight_filler {
      type: "xavier"
    }
    bias_filler {
      type: "constant"
      value: 1
    }
  }
}
layers {
  bottom: "conv2"
  top: "conv2"
  name: "relu2"
  type: RELU
}
layers {
  bottom: "conv2"
  top: "norm2"
  name: "norm2"
  type: LRN
  lrn_param {
    local_size: 5
    alpha: 0.0001
    beta: 0.75
  }
}
layers {
  bottom: "norm2"
  top: "pool2"
  name: "pool2"
  type: POOLING
  pooling_param {
    pool: MAX
    kernel_size: 3
    stride: 2
  }
}
layers {
  bottom: "pool2"
  top: "convx"
  name: "convx"
  type: CONVOLUTION
  blobs_lr: 1
  blobs_lr: 2
  weight_decay: 1
  weight_decay: 0
  convolution_param {
    num_output: 128
    pad: 1
    kernel_size: 5
    group: 2
    weight_filler {
      type: "xavier"
    }
    bias_filler {
      type: "constant"
      value: 0
    }
  }
}
layers {
  bottom: "convx"
  top: "convx"
  name: "relux"
  type: RELU
}
layers {
  bottom: "convx"
  top: "poolx"
  name: "poolx"
  type: POOLING
  pooling_param {
    pool: MAX
    kernel_size: 2
    stride: 2
  }
}
layers {
  bottom: "poolx"
  top: "conv3"
  name: "conv3"
  type: CONVOLUTION
  blobs_lr: 1
  blobs_lr: 2
  weight_decay: 1
  weight_decay: 0
  convolution_param {
    num_output: 256
    pad: 1
    kernel_size: 5
    weight_filler {
      type: "xavier"
    }
    bias_filler {
      type: "constant"
      value: 0
    }
  }
}
layers {
  bottom: "conv3"
  top: "conv3"
  name: "relu3"
  type: RELU
}
layers {
  bottom: "conv3"
  top: "conv4"
  name: "conv4"
  type: CONVOLUTION
  blobs_lr: 1
  blobs_lr: 2
  convolution_param {
    num_output: 384
    pad: 1
    kernel_size: 3
    group: 2
    weight_filler {
      type: "xavier"
    }
    bias_filler {
      type: "constant"
    }
  }
}
layers {
  bottom: "conv4"
  top: "conv4"
  name: "relu4"
  type: RELU
}
layers {
  bottom: "conv4"
  top: "pool4"
  name: "pool4"
  type: POOLING
  pooling_param {
    pool: MAX
    kernel_size: 3
    stride: 2
  }
}
layers {
  bottom: "pool4"
  top: "ip1"
  name: "ip1"
  type: INNER_PRODUCT
  blobs_lr: 1
  blobs_lr: 2
  weight_decay: 1
  weight_decay: 0
  inner_product_param {
    num_output: 512
    weight_filler {
      type: "gaussian"
      std: 0.005
    }
    bias_filler {
      type: "constant"
      value: 0.1
    }
  }
}
layers {
  bottom: "ip1"
  top: "ip1"
  name: "relu5"
  type: RELU
}
layers {
  bottom: "ip1"
  top: "ip1"
  name: "dropout"
  type: DROPOUT
  dropout_param {
    dropout_ratio: 0.5
  }
}
layers {
  bottom: "ip1"
  top: "ip2"
  name: "ip2"
  type: INNER_PRODUCT
  blobs_lr: 1
  blobs_lr: 2
  inner_product_param {
    num_output: 512
    weight_filler {
      type: "gaussian"
      std: 0.005
    }
    bias_filler {
      type: "constant"
      value: 0.1
    }
  }
}
layers {
  bottom: "ip2"
  top: "ip2"
  name: "relu6"
  type: RELU
}
layers {
  bottom: "ip2"
  top: "ip2"
  name: "dropout"
  type: DROPOUT
  dropout_param {
    dropout_ratio: 0.5
  }
}
layers {
  bottom: "ip2"
  top: "ip3"
  name: "ip3"
  type: INNER_PRODUCT
  blobs_lr: 1
  blobs_lr: 2
  weight_decay: 1
  weight_decay: 0
  inner_product_param {
    num_output: 5
    weight_filler {
      type: "gaussian"
      std: 0.01
    }
    bias_filler {
      type: "constant"
      value: 0
    }
  }
}
layers {
  bottom: "ip3"
  bottom: "label"
  top: "accuracy"
  name: "accuracy"
  type: ACCURACY
}
layers {
  bottom: "ip3"
  bottom: "label"
  top: "loss"
  name: "loss"
  type: SOFTMAX_LOSS
}
state {
  phase: TRAIN
}
I0327 06:32:28.649771  4420 net.cpp:67] Creating Layer mnist
I0327 06:32:28.649777  4420 net.cpp:356] mnist -> data
I0327 06:32:28.649802  4420 net.cpp:356] mnist -> label
I0327 06:32:28.649819  4420 net.cpp:96] Setting up mnist
I0327 06:32:28.686985  4420 data_layer.cpp:68] Opening lmdb /home/niko/datasets/DiabeticRetinopathyDetection/processed/run-normal/diabetic_retinopathy_train_lmdb
I0327 06:32:28.713279  4420 data_layer.cpp:128] output data size: 250,3,227,227
I0327 06:32:28.713300  4420 base_data_layer.cpp:36] Loading mean file from/home/niko/datasets/DiabeticRetinopathyDetection/processed/run-normal/diabetic_retinopathy_mean.binaryproto
I0327 06:32:28.784214  4420 net.cpp:103] Top shape: 250 3 227 227 (38646750)
I0327 06:32:28.784241  4420 net.cpp:103] Top shape: 250 1 1 1 (250)
I0327 06:32:28.784251  4420 net.cpp:67] Creating Layer label_mnist_1_split
I0327 06:32:28.784256  4420 net.cpp:394] label_mnist_1_split <- label
I0327 06:32:28.784271  4420 net.cpp:356] label_mnist_1_split -> label_mnist_1_split_0
I0327 06:32:28.784281  4420 net.cpp:356] label_mnist_1_split -> label_mnist_1_split_1
I0327 06:32:28.784337  4420 net.cpp:96] Setting up label_mnist_1_split
I0327 06:32:28.784356  4420 net.cpp:103] Top shape: 250 1 1 1 (250)
I0327 06:32:28.784359  4420 net.cpp:103] Top shape: 250 1 1 1 (250)
I0327 06:32:28.784366  4420 net.cpp:67] Creating Layer conv1
I0327 06:32:28.784369  4420 net.cpp:394] conv1 <- data
I0327 06:32:28.784373  4420 net.cpp:356] conv1 -> conv1
I0327 06:32:28.784379  4420 net.cpp:96] Setting up conv1
I0327 06:32:29.109519  4420 net.cpp:103] Top shape: 250 48 56 56 (37632000)
I0327 06:32:29.109551  4420 net.cpp:67] Creating Layer relu1
I0327 06:32:29.109557  4420 net.cpp:394] relu1 <- conv1
I0327 06:32:29.109563  4420 net.cpp:345] relu1 -> conv1 (in-place)
I0327 06:32:29.109570  4420 net.cpp:96] Setting up relu1
I0327 06:32:29.109578  4420 net.cpp:103] Top shape: 250 48 56 56 (37632000)
I0327 06:32:29.109597  4420 net.cpp:67] Creating Layer norm1
I0327 06:32:29.109601  4420 net.cpp:394] norm1 <- conv1
I0327 06:32:29.109606  4420 net.cpp:356] norm1 -> norm1
I0327 06:32:29.109611  4420 net.cpp:96] Setting up norm1
I0327 06:32:29.109618  4420 net.cpp:103] Top shape: 250 48 56 56 (37632000)
I0327 06:32:29.109625  4420 net.cpp:67] Creating Layer pool1
I0327 06:32:29.109628  4420 net.cpp:394] pool1 <- norm1
I0327 06:32:29.109642  4420 net.cpp:356] pool1 -> pool1
I0327 06:32:29.109678  4420 net.cpp:96] Setting up pool1
I0327 06:32:29.109714  4420 net.cpp:103] Top shape: 250 48 28 28 (9408000)
I0327 06:32:29.109721  4420 net.cpp:67] Creating Layer conv2
I0327 06:32:29.109724  4420 net.cpp:394] conv2 <- pool1
I0327 06:32:29.109741  4420 net.cpp:356] conv2 -> conv2
I0327 06:32:29.109748  4420 net.cpp:96] Setting up conv2
I0327 06:32:29.110496  4420 net.cpp:103] Top shape: 250 96 22 22 (11616000)
I0327 06:32:29.110510  4420 net.cpp:67] Creating Layer relu2
I0327 06:32:29.110514  4420 net.cpp:394] relu2 <- conv2
I0327 06:32:29.110519  4420 net.cpp:345] relu2 -> conv2 (in-place)
I0327 06:32:29.110525  4420 net.cpp:96] Setting up relu2
I0327 06:32:29.110530  4420 net.cpp:103] Top shape: 250 96 22 22 (11616000)
I0327 06:32:29.110538  4420 net.cpp:67] Creating Layer norm2
I0327 06:32:29.110540  4420 net.cpp:394] norm2 <- conv2
I0327 06:32:29.110546  4420 net.cpp:356] norm2 -> norm2
I0327 06:32:29.110553  4420 net.cpp:96] Setting up norm2
I0327 06:32:29.110558  4420 net.cpp:103] Top shape: 250 96 22 22 (11616000)
I0327 06:32:29.110564  4420 net.cpp:67] Creating Layer pool2
I0327 06:32:29.110568  4420 net.cpp:394] pool2 <- norm2
I0327 06:32:29.110573  4420 net.cpp:356] pool2 -> pool2
I0327 06:32:29.110577  4420 net.cpp:96] Setting up pool2
I0327 06:32:29.110584  4420 net.cpp:103] Top shape: 250 96 11 11 (2904000)
I0327 06:32:29.110591  4420 net.cpp:67] Creating Layer convx
I0327 06:32:29.110597  4420 net.cpp:394] convx <- pool2
I0327 06:32:29.110604  4420 net.cpp:356] convx -> convx
I0327 06:32:29.110610  4420 net.cpp:96] Setting up convx
I0327 06:32:29.111441  4420 net.cpp:103] Top shape: 250 128 9 9 (2592000)
I0327 06:32:29.111452  4420 net.cpp:67] Creating Layer relux
I0327 06:32:29.111456  4420 net.cpp:394] relux <- convx
I0327 06:32:29.111464  4420 net.cpp:345] relux -> convx (in-place)
I0327 06:32:29.111469  4420 net.cpp:96] Setting up relux
I0327 06:32:29.111474  4420 net.cpp:103] Top shape: 250 128 9 9 (2592000)
I0327 06:32:29.111479  4420 net.cpp:67] Creating Layer poolx
I0327 06:32:29.111482  4420 net.cpp:394] poolx <- convx
I0327 06:32:29.111487  4420 net.cpp:356] poolx -> poolx
I0327 06:32:29.111492  4420 net.cpp:96] Setting up poolx
I0327 06:32:29.111498  4420 net.cpp:103] Top shape: 250 128 5 5 (800000)
I0327 06:32:29.111506  4420 net.cpp:67] Creating Layer conv3
I0327 06:32:29.111510  4420 net.cpp:394] conv3 <- poolx
I0327 06:32:29.111515  4420 net.cpp:356] conv3 -> conv3
I0327 06:32:29.111521  4420 net.cpp:96] Setting up conv3
I0327 06:32:29.115530  4420 net.cpp:103] Top shape: 250 256 3 3 (576000)
I0327 06:32:29.115541  4420 net.cpp:67] Creating Layer relu3
I0327 06:32:29.115545  4420 net.cpp:394] relu3 <- conv3
I0327 06:32:29.115550  4420 net.cpp:345] relu3 -> conv3 (in-place)
I0327 06:32:29.115556  4420 net.cpp:96] Setting up relu3
I0327 06:32:29.115561  4420 net.cpp:103] Top shape: 250 256 3 3 (576000)
I0327 06:32:29.115567  4420 net.cpp:67] Creating Layer conv4
I0327 06:32:29.115571  4420 net.cpp:394] conv4 <- conv3
I0327 06:32:29.115576  4420 net.cpp:356] conv4 -> conv4
I0327 06:32:29.115582  4420 net.cpp:96] Setting up conv4
I0327 06:32:29.117902  4420 net.cpp:103] Top shape: 250 384 3 3 (864000)
I0327 06:32:29.117916  4420 net.cpp:67] Creating Layer relu4
I0327 06:32:29.117920  4420 net.cpp:394] relu4 <- conv4
I0327 06:32:29.117925  4420 net.cpp:345] relu4 -> conv4 (in-place)
I0327 06:32:29.117931  4420 net.cpp:96] Setting up relu4
I0327 06:32:29.117936  4420 net.cpp:103] Top shape: 250 384 3 3 (864000)
I0327 06:32:29.117943  4420 net.cpp:67] Creating Layer pool4
I0327 06:32:29.117945  4420 net.cpp:394] pool4 <- conv4
I0327 06:32:29.117952  4420 net.cpp:356] pool4 -> pool4
I0327 06:32:29.117959  4420 net.cpp:96] Setting up pool4
I0327 06:32:29.117964  4420 net.cpp:103] Top shape: 250 384 1 1 (96000)
I0327 06:32:29.117974  4420 net.cpp:67] Creating Layer ip1
I0327 06:32:29.117980  4420 net.cpp:394] ip1 <- pool4
I0327 06:32:29.117986  4420 net.cpp:356] ip1 -> ip1
I0327 06:32:29.117993  4420 net.cpp:96] Setting up ip1
I0327 06:32:29.122159  4420 net.cpp:103] Top shape: 250 512 1 1 (128000)
I0327 06:32:29.122181  4420 net.cpp:67] Creating Layer relu5
I0327 06:32:29.122185  4420 net.cpp:394] relu5 <- ip1
I0327 06:32:29.122190  4420 net.cpp:345] relu5 -> ip1 (in-place)
I0327 06:32:29.122211  4420 net.cpp:96] Setting up relu5
I0327 06:32:29.122217  4420 net.cpp:103] Top shape: 250 512 1 1 (128000)
I0327 06:32:29.122223  4420 net.cpp:67] Creating Layer dropout
I0327 06:32:29.122226  4420 net.cpp:394] dropout <- ip1
I0327 06:32:29.122233  4420 net.cpp:345] dropout -> ip1 (in-place)
I0327 06:32:29.122247  4420 net.cpp:96] Setting up dropout
I0327 06:32:29.122253  4420 net.cpp:103] Top shape: 250 512 1 1 (128000)
I0327 06:32:29.122259  4420 net.cpp:67] Creating Layer ip2
I0327 06:32:29.122262  4420 net.cpp:394] ip2 <- ip1
I0327 06:32:29.122269  4420 net.cpp:356] ip2 -> ip2
I0327 06:32:29.122277  4420 net.cpp:96] Setting up ip2
I0327 06:32:29.127529  4420 net.cpp:103] Top shape: 250 512 1 1 (128000)
I0327 06:32:29.127540  4420 net.cpp:67] Creating Layer relu6
I0327 06:32:29.127544  4420 net.cpp:394] relu6 <- ip2
I0327 06:32:29.127548  4420 net.cpp:345] relu6 -> ip2 (in-place)
I0327 06:32:29.127553  4420 net.cpp:96] Setting up relu6
I0327 06:32:29.127559  4420 net.cpp:103] Top shape: 250 512 1 1 (128000)
I0327 06:32:29.127565  4420 net.cpp:67] Creating Layer dropout
I0327 06:32:29.127568  4420 net.cpp:394] dropout <- ip2
I0327 06:32:29.127574  4420 net.cpp:345] dropout -> ip2 (in-place)
I0327 06:32:29.127579  4420 net.cpp:96] Setting up dropout
I0327 06:32:29.127583  4420 net.cpp:103] Top shape: 250 512 1 1 (128000)
I0327 06:32:29.127589  4420 net.cpp:67] Creating Layer ip3
I0327 06:32:29.127593  4420 net.cpp:394] ip3 <- ip2
I0327 06:32:29.127599  4420 net.cpp:356] ip3 -> ip3
I0327 06:32:29.127604  4420 net.cpp:96] Setting up ip3
I0327 06:32:29.127665  4420 net.cpp:103] Top shape: 250 5 1 1 (1250)
I0327 06:32:29.127676  4420 net.cpp:67] Creating Layer ip3_ip3_0_split
I0327 06:32:29.127678  4420 net.cpp:394] ip3_ip3_0_split <- ip3
I0327 06:32:29.127683  4420 net.cpp:356] ip3_ip3_0_split -> ip3_ip3_0_split_0
I0327 06:32:29.127691  4420 net.cpp:356] ip3_ip3_0_split -> ip3_ip3_0_split_1
I0327 06:32:29.127696  4420 net.cpp:96] Setting up ip3_ip3_0_split
I0327 06:32:29.127699  4420 net.cpp:103] Top shape: 250 5 1 1 (1250)
I0327 06:32:29.127703  4420 net.cpp:103] Top shape: 250 5 1 1 (1250)
I0327 06:32:29.127708  4420 net.cpp:67] Creating Layer accuracy
I0327 06:32:29.127712  4420 net.cpp:394] accuracy <- ip3_ip3_0_split_0
I0327 06:32:29.127717  4420 net.cpp:394] accuracy <- label_mnist_1_split_0
I0327 06:32:29.127722  4420 net.cpp:356] accuracy -> accuracy
I0327 06:32:29.127727  4420 net.cpp:96] Setting up accuracy
I0327 06:32:29.127733  4420 net.cpp:103] Top shape: 1 1 1 1 (1)
I0327 06:32:29.127740  4420 net.cpp:67] Creating Layer loss
I0327 06:32:29.127743  4420 net.cpp:394] loss <- ip3_ip3_0_split_1
I0327 06:32:29.127748  4420 net.cpp:394] loss <- label_mnist_1_split_1
I0327 06:32:29.127753  4420 net.cpp:356] loss -> loss
I0327 06:32:29.127758  4420 net.cpp:96] Setting up loss
I0327 06:32:29.127768  4420 net.cpp:103] Top shape: 1 1 1 1 (1)
I0327 06:32:29.127771  4420 net.cpp:109]     with loss weight 1
I0327 06:32:29.127795  4420 net.cpp:170] loss needs backward computation.
I0327 06:32:29.127799  4420 net.cpp:172] accuracy does not need backward computation.
I0327 06:32:29.127804  4420 net.cpp:170] ip3_ip3_0_split needs backward computation.
I0327 06:32:29.127806  4420 net.cpp:170] ip3 needs backward computation.
I0327 06:32:29.127810  4420 net.cpp:170] dropout needs backward computation.
…
I0327 06:32:29.128403  4420 net.cpp:275] The NetState phase (1) differed from the phase (0) specified by a rule in layer mnist
I0327 06:32:29.128516  4420 net.cpp:39] Initializing net from parameters: 
name: "RetinopathyNet"
layers {
  top: "data"
  top: "label"
  name: "mnist"
  type: DATA
  data_param {
    source: "/home/niko/datasets/DiabeticRetinopathyDetection/processed/run-normal/diabetic_retinopathy_val_lmdb"
    batch_size: 50
    backend: LMDB
  }
  include {
    phase: TEST
  }
  transform_param {
    mirror: true
    crop_size: 227
    mean_file: "/home/niko/datasets/DiabeticRetinopathyDetection/processed/run-normal/diabetic_retinopathy_mean.binaryproto"
  }
}
layers {
  bottom: "data"
  top: "conv1"
  name: "conv1"
  type: CONVOLUTION
  blobs_lr: 1
  blobs_lr: 2
  weight_decay: 1
  weight_decay: 0
  convolution_param {
    num_output: 48
    kernel_size: 7
    stride: 4
    weight_filler {
      type: "xavier"
    }
    bias_filler {
      type: "constant"
      value: 0
    }
  }
}
layers {
  bottom: "conv1"
  top: "conv1"
  name: "relu1"
  type: RELU
}
layers {
  bottom: "conv1"
  top: "norm1"
  name: "norm1"
  type: LRN
  lrn_param {
    local_size: 5
    alpha: 0.0001
    beta: 0.75
  }
}
layers {
  bottom: "norm1"
  top: "pool1"
  name: "pool1"
  type: POOLING
  pooling_param {
    pool: MAX
    kernel_size: 3
    stride: 2
  }
}
layers {
  bottom: "pool1"
  top: "conv2"
  name: "conv2"
  type: CONVOLUTION
  blobs_lr: 1
  blobs_lr: 2
  weight_decay: 1
  weight_decay: 0
  convolution_param {
    num_output: 96
    kernel_size: 7
    group: 2
    stride: 1
    weight_filler {
      type: "xavier"
    }
    bias_filler {
      type: "constant"
      value: 1
    }
  }
}
layers {
  bottom: "conv2"
  top: "conv2"
  name: "relu2"
  type: RELU
}
layers {
  bottom: "conv2"
  top: "norm2"
  name: "norm2"
  type: LRN
  lrn_param {
    local_size: 5
    alpha: 0.0001
    beta: 0.75
  }
}
layers {
  bottom: "norm2"
  top: "pool2"
  name: "pool2"
  type: POOLING
  pooling_param {
    pool: MAX
    kernel_size: 3
    stride: 2
  }
}
layers {
  bottom: "pool2"
  top: "convx"
  name: "convx"
  type: CONVOLUTION
  blobs_lr: 1
  blobs_lr: 2
  weight_decay: 1
  weight_decay: 0
  convolution_param {
    num_output: 128
    pad: 1
    kernel_size: 5
    group: 2
    weight_filler {
      type: "xavier"
    }
    bias_filler {
      type: "constant"
      value: 0
    }
  }
}
layers {
  bottom: "convx"
  top: "convx"
  name: "relux"
  type: RELU
}
layers {
  bottom: "convx"
  top: "poolx"
  name: "poolx"
  type: POOLING
  pooling_param {
    pool: MAX
    kernel_size: 2
    stride: 2
  }
}
layers {
  bottom: "poolx"
  top: "conv3"
  name: "conv3"
  type: CONVOLUTION
  blobs_lr: 1
  blobs_lr: 2
  weight_decay: 1
  weight_decay: 0
  convolution_param {
    num_output: 256
    pad: 1
    kernel_size: 5
    weight_filler {
      type: "xavier"
    }
    bias_filler {
      type: "constant"
      value: 0
    }
  }
}
layers {
  bottom: "conv3"
  top: "conv3"
  name: "relu3"
  type: RELU
}
layers {
  bottom: "conv3"
  top: "conv4"
  name: "conv4"
  type: CONVOLUTION
  blobs_lr: 1
  blobs_lr: 2
  convolution_param {
    num_output: 384
    pad: 1
    kernel_size: 3
    group: 2
    weight_filler {
      type: "xavier"
    }
    bias_filler {
      type: "constant"
    }
  }
}
layers {
  bottom: "conv4"
  top: "conv4"
  name: "relu4"
  type: RELU
}
layers {
  bottom: "conv4"
  top: "pool4"
  name: "pool4"
  type: POOLING
  pooling_param {
    pool: MAX
    kernel_size: 3
    stride: 2
  }
}
layers {
  bottom: "pool4"
  top: "ip1"
  name: "ip1"
  type: INNER_PRODUCT
  blobs_lr: 1
  blobs_lr: 2
  weight_decay: 1
  weight_decay: 0
  inner_product_param {
    num_output: 512
    weight_filler {
      type: "gaussian"
      std: 0.005
    }
    bias_filler {
      type: "constant"
      value: 0.1
    }
  }
}
layers {
  bottom: "ip1"
  top: "ip1"
  name: "relu5"
  type: RELU
}
layers {
  bottom: "ip1"
  top: "ip1"
  name: "dropout"
  type: DROPOUT
  dropout_param {
    dropout_ratio: 0.5
  }
}
layers {
  bottom: "ip1"
  top: "ip2"
  name: "ip2"
  type: INNER_PRODUCT
  blobs_lr: 1
  blobs_lr: 2
  inner_product_param {
    num_output: 512
    weight_filler {
      type: "gaussian"
      std: 0.005
    }
    bias_filler {
      type: "constant"
      value: 0.1
    }
  }
}
layers {
  bottom: "ip2"
  top: "ip2"
  name: "relu6"
  type: RELU
}
layers {
  bottom: "ip2"
  top: "ip2"
  name: "dropout"
  type: DROPOUT
  dropout_param {
    dropout_ratio: 0.5
  }
}
layers {
  bottom: "ip2"
  top: "ip3"
  name: "ip3"
  type: INNER_PRODUCT
  blobs_lr: 1
  blobs_lr: 2
  weight_decay: 1
  weight_decay: 0
  inner_product_param {
    num_output: 5
    weight_filler {
      type: "gaussian"
      std: 0.01
    }
    bias_filler {
      type: "constant"
      value: 0
    }
  }
}
layers {
  bottom: "ip3"
  bottom: "label"
  top: "accuracy"
  name: "accuracy"
  type: ACCURACY
}
layers {
  bottom: "ip3"
  bottom: "label"
  top: "loss"
  name: "loss"
  type: SOFTMAX_LOSS
}
state {
  phase: TEST
}
I0327 06:32:29.128635  4420 net.cpp:67] Creating Layer mnist
I0327 06:32:29.128640  4420 net.cpp:356] mnist -> data
I0327 06:32:29.128648  4420 net.cpp:356] mnist -> label
I0327 06:32:29.128655  4420 net.cpp:96] Setting up mnist
I0327 06:32:29.153591  4420 data_layer.cpp:68] Opening lmdb /home/niko/datasets/DiabeticRetinopathyDetection/processed/run-normal/diabetic_retinopathy_val_lmdb
I0327 06:32:29.164176  4420 data_layer.cpp:128] output data size: 50,3,227,227
I0327 06:32:29.164187  4420 base_data_layer.cpp:36] Loading mean file from/home/niko/datasets/DiabeticRetinopathyDetection/processed/run-normal/diabetic_retinopathy_mean.binaryproto
I0327 06:32:29.171066  4420 net.cpp:103] Top shape: 50 3 227 227 (7729350)
I0327 06:32:29.171083  4420 net.cpp:103] Top shape: 50 1 1 1 (50)
I0327 06:32:29.171097  4420 net.cpp:67] Creating Layer label_mnist_1_split
I0327 06:32:29.171102  4420 net.cpp:394] label_mnist_1_split <- label
I0327 06:32:29.171108  4420 net.cpp:356] label_mnist_1_split -> label_mnist_1_split_0
I0327 06:32:29.171116  4420 net.cpp:356] label_mnist_1_split -> label_mnist_1_split_1
I0327 06:32:29.171121  4420 net.cpp:96] Setting up label_mnist_1_split
I0327 06:32:29.171125  4420 net.cpp:103] Top shape: 50 1 1 1 (50)
I0327 06:32:29.171128  4420 net.cpp:103] Top shape: 50 1 1 1 (50)
I0327 06:32:29.171159  4420 net.cpp:67] Creating Layer conv1
I0327 06:32:29.171164  4420 net.cpp:394] conv1 <- data
I0327 06:32:29.171169  4420 net.cpp:356] conv1 -> conv1
I0327 06:32:29.171177  4420 net.cpp:96] Setting up conv1
I0327 06:32:29.171298  4420 net.cpp:103] Top shape: 50 48 56 56 (7526400)
I0327 06:32:29.171319  4420 net.cpp:67] Creating Layer relu1
I0327 06:32:29.171324  4420 net.cpp:394] relu1 <- conv1
I0327 06:32:29.171329  4420 net.cpp:345] relu1 -> conv1 (in-place)
I0327 06:32:29.171334  4420 net.cpp:96] Setting up relu1
I0327 06:32:29.171339  4420 net.cpp:103] Top shape: 50 48 56 56 (7526400)
I0327 06:32:29.171345  4420 net.cpp:67] Creating Layer norm1
I0327 06:32:29.171349  4420 net.cpp:394] norm1 <- conv1
I0327 06:32:29.171353  4420 net.cpp:356] norm1 -> norm1
I0327 06:32:29.171358  4420 net.cpp:96] Setting up norm1
I0327 06:32:29.171363  4420 net.cpp:103] Top shape: 50 48 56 56 (7526400)
I0327 06:32:29.171368  4420 net.cpp:67] Creating Layer pool1
I0327 06:32:29.171372  4420 net.cpp:394] pool1 <- norm1
I0327 06:32:29.171376  4420 net.cpp:356] pool1 -> pool1
I0327 06:32:29.171382  4420 net.cpp:96] Setting up pool1
I0327 06:32:29.171389  4420 net.cpp:103] Top shape: 50 48 28 28 (1881600)
I0327 06:32:29.171396  4420 net.cpp:67] Creating Layer conv2
I0327 06:32:29.171401  4420 net.cpp:394] conv2 <- pool1
I0327 06:32:29.171406  4420 net.cpp:356] conv2 -> conv2
I0327 06:32:29.171422  4420 net.cpp:96] Setting up conv2
I0327 06:32:29.172019  4420 net.cpp:103] Top shape: 50 96 22 22 (2323200)
I0327 06:32:29.172030  4420 net.cpp:67] Creating Layer relu2
I0327 06:32:29.172034  4420 net.cpp:394] relu2 <- conv2
I0327 06:32:29.172039  4420 net.cpp:345] relu2 -> conv2 (in-place)
I0327 06:32:29.172042  4420 net.cpp:96] Setting up relu2
I0327 06:32:29.172047  4420 net.cpp:103] Top shape: 50 96 22 22 (2323200)
I0327 06:32:29.172054  4420 net.cpp:67] Creating Layer norm2
I0327 06:32:29.172056  4420 net.cpp:394] norm2 <- conv2
I0327 06:32:29.172061  4420 net.cpp:356] norm2 -> norm2
I0327 06:32:29.172067  4420 net.cpp:96] Setting up norm2
I0327 06:32:29.172072  4420 net.cpp:103] Top shape: 50 96 22 22 (2323200)
I0327 06:32:29.172077  4420 net.cpp:67] Creating Layer pool2
I0327 06:32:29.172080  4420 net.cpp:394] pool2 <- norm2
I0327 06:32:29.172086  4420 net.cpp:356] pool2 -> pool2
I0327 06:32:29.172091  4420 net.cpp:96] Setting up pool2
I0327 06:32:29.172096  4420 net.cpp:103] Top shape: 50 96 11 11 (580800)
I0327 06:32:29.172102  4420 net.cpp:67] Creating Layer convx
I0327 06:32:29.172106  4420 net.cpp:394] convx <- pool2
I0327 06:32:29.172111  4420 net.cpp:356] convx -> convx
I0327 06:32:29.172116  4420 net.cpp:96] Setting up convx
I0327 06:32:29.172994  4420 net.cpp:103] Top shape: 50 128 9 9 (518400)
I0327 06:32:29.173007  4420 net.cpp:67] Creating Layer relux
I0327 06:32:29.173012  4420 net.cpp:394] relux <- convx
I0327 06:32:29.173018  4420 net.cpp:345] relux -> convx (in-place)
I0327 06:32:29.173024  4420 net.cpp:96] Setting up relux
I0327 06:32:29.173029  4420 net.cpp:103] Top shape: 50 128 9 9 (518400)
I0327 06:32:29.173035  4420 net.cpp:67] Creating Layer poolx
I0327 06:32:29.173038  4420 net.cpp:394] poolx <- convx
I0327 06:32:29.173043  4420 net.cpp:356] poolx -> poolx
I0327 06:32:29.173048  4420 net.cpp:96] Setting up poolx
I0327 06:32:29.173055  4420 net.cpp:103] Top shape: 50 128 5 5 (160000)
I0327 06:32:29.173063  4420 net.cpp:67] Creating Layer conv3
I0327 06:32:29.173070  4420 net.cpp:394] conv3 <- poolx
I0327 06:32:29.173077  4420 net.cpp:356] conv3 -> conv3
I0327 06:32:29.173084  4420 net.cpp:96] Setting up conv3
I0327 06:32:29.177101  4420 net.cpp:103] Top shape: 50 256 3 3 (115200)
I0327 06:32:29.177111  4420 net.cpp:67] Creating Layer relu3
I0327 06:32:29.177115  4420 net.cpp:394] relu3 <- conv3
I0327 06:32:29.177121  4420 net.cpp:345] relu3 -> conv3 (in-place)
I0327 06:32:29.177127  4420 net.cpp:96] Setting up relu3
I0327 06:32:29.177132  4420 net.cpp:103] Top shape: 50 256 3 3 (115200)
I0327 06:32:29.177139  4420 net.cpp:67] Creating Layer conv4
I0327 06:32:29.177142  4420 net.cpp:394] conv4 <- conv3
I0327 06:32:29.177163  4420 net.cpp:356] conv4 -> conv4
I0327 06:32:29.177171  4420 net.cpp:96] Setting up conv4
I0327 06:32:29.179384  4420 net.cpp:103] Top shape: 50 384 3 3 (172800)
I0327 06:32:29.179399  4420 net.cpp:67] Creating Layer relu4
I0327 06:32:29.179404  4420 net.cpp:394] relu4 <- conv4
I0327 06:32:29.179409  4420 net.cpp:345] relu4 -> conv4 (in-place)
I0327 06:32:29.179414  4420 net.cpp:96] Setting up relu4
I0327 06:32:29.179419  4420 net.cpp:103] Top shape: 50 384 3 3 (172800)
I0327 06:32:29.179425  4420 net.cpp:67] Creating Layer pool4
I0327 06:32:29.179432  4420 net.cpp:394] pool4 <- conv4
I0327 06:32:29.179438  4420 net.cpp:356] pool4 -> pool4
I0327 06:32:29.179443  4420 net.cpp:96] Setting up pool4
I0327 06:32:29.179450  4420 net.cpp:103] Top shape: 50 384 1 1 (19200)
I0327 06:32:29.179458  4420 net.cpp:67] Creating Layer ip1
I0327 06:32:29.179463  4420 net.cpp:394] ip1 <- pool4
I0327 06:32:29.179471  4420 net.cpp:356] ip1 -> ip1
I0327 06:32:29.179477  4420 net.cpp:96] Setting up ip1
I0327 06:32:29.183406  4420 net.cpp:103] Top shape: 50 512 1 1 (25600)
I0327 06:32:29.183419  4420 net.cpp:67] Creating Layer relu5
I0327 06:32:29.183423  4420 net.cpp:394] relu5 <- ip1
I0327 06:32:29.183429  4420 net.cpp:345] relu5 -> ip1 (in-place)
I0327 06:32:29.183432  4420 net.cpp:96] Setting up relu5
I0327 06:32:29.183437  4420 net.cpp:103] Top shape: 50 512 1 1 (25600)
I0327 06:32:29.183442  4420 net.cpp:67] Creating Layer dropout
I0327 06:32:29.183445  4420 net.cpp:394] dropout <- ip1
I0327 06:32:29.183450  4420 net.cpp:345] dropout -> ip1 (in-place)
I0327 06:32:29.183454  4420 net.cpp:96] Setting up dropout
I0327 06:32:29.183457  4420 net.cpp:103] Top shape: 50 512 1 1 (25600)
I0327 06:32:29.183462  4420 net.cpp:67] Creating Layer ip2
I0327 06:32:29.183465  4420 net.cpp:394] ip2 <- ip1
I0327 06:32:29.183470  4420 net.cpp:356] ip2 -> ip2
I0327 06:32:29.183475  4420 net.cpp:96] Setting up ip2
I0327 06:32:29.188774  4420 net.cpp:103] Top shape: 50 512 1 1 (25600)
I0327 06:32:29.188782  4420 net.cpp:67] Creating Layer relu6
I0327 06:32:29.188784  4420 net.cpp:394] relu6 <- ip2
I0327 06:32:29.188787  4420 net.cpp:345] relu6 -> ip2 (in-place)
I0327 06:32:29.188789  4420 net.cpp:96] Setting up relu6
I0327 06:32:29.188793  4420 net.cpp:103] Top shape: 50 512 1 1 (25600)
I0327 06:32:29.188797  4420 net.cpp:67] Creating Layer dropout
I0327 06:32:29.188799  4420 net.cpp:394] dropout <- ip2
I0327 06:32:29.188802  4420 net.cpp:345] dropout -> ip2 (in-place)
I0327 06:32:29.188804  4420 net.cpp:96] Setting up dropout
I0327 06:32:29.188807  4420 net.cpp:103] Top shape: 50 512 1 1 (25600)
I0327 06:32:29.188810  4420 net.cpp:67] Creating Layer ip3
I0327 06:32:29.188812  4420 net.cpp:394] ip3 <- ip2
I0327 06:32:29.188825  4420 net.cpp:356] ip3 -> ip3
I0327 06:32:29.188828  4420 net.cpp:96] Setting up ip3
I0327 06:32:29.188894  4420 net.cpp:103] Top shape: 50 5 1 1 (250)
I0327 06:32:29.188899  4420 net.cpp:67] Creating Layer ip3_ip3_0_split
I0327 06:32:29.188901  4420 net.cpp:394] ip3_ip3_0_split <- ip3
I0327 06:32:29.188904  4420 net.cpp:356] ip3_ip3_0_split -> ip3_ip3_0_split_0
I0327 06:32:29.188907  4420 net.cpp:356] ip3_ip3_0_split -> ip3_ip3_0_split_1
I0327 06:32:29.188910  4420 net.cpp:96] Setting up ip3_ip3_0_split
I0327 06:32:29.188912  4420 net.cpp:103] Top shape: 50 5 1 1 (250)
I0327 06:32:29.188915  4420 net.cpp:103] Top shape: 50 5 1 1 (250)
I0327 06:32:29.188917  4420 net.cpp:67] Creating Layer accuracy
I0327 06:32:29.188920  4420 net.cpp:394] accuracy <- ip3_ip3_0_split_0
I0327 06:32:29.188922  4420 net.cpp:394] accuracy <- label_mnist_1_split_0
I0327 06:32:29.188925  4420 net.cpp:356] accuracy -> accuracy
I0327 06:32:29.188928  4420 net.cpp:96] Setting up accuracy
I0327 06:32:29.188930  4420 net.cpp:103] Top shape: 1 1 1 1 (1)
I0327 06:32:29.188935  4420 net.cpp:67] Creating Layer loss
I0327 06:32:29.188936  4420 net.cpp:394] loss <- ip3_ip3_0_split_1
I0327 06:32:29.188938  4420 net.cpp:394] loss <- label_mnist_1_split_1
I0327 06:32:29.188941  4420 net.cpp:356] loss -> loss
I0327 06:32:29.188943  4420 net.cpp:96] Setting up loss
I0327 06:32:29.188971  4420 net.cpp:103] Top shape: 1 1 1 1 (1)
I0327 06:32:29.188974  4420 net.cpp:109]     with loss weight 1
I0327 06:32:29.188983  4420 net.cpp:170] loss needs backward computation.
I0327 06:32:29.188985  4420 net.cpp:172] accuracy does not need backward computation.
I0327 06:32:29.188987  4420 net.cpp:170] ip3_ip3_0_split needs backward computation.
I0327 06:32:29.188989  4420 net.cpp:170] ip3 needs backward computation.
I0327 06:32:29.188990  4420 net.cpp:170] dropout needs backward computation.
…
